Set_Transformer_heads2_hid32_ln.pth (torch, 150114 bytes, 88 tensors)

enc.0.I f4 [1, 32, 32]
0.02350431 -0.04236177 0.1272448 -0.03237286 -0.043229777 0.027335517 0.13427979 -0.02431309
0.0067622885 -0.04595065 -0.08163516 -0.0059706247 -0.010411239 0.1023233 0.013966376 0.23083164
-0.00069725176 -0.062340863 -0.14703444 0.0011066762 -0.2616199 0.21247871 0.0026891604 0.09325384
-0.0048346324 -0.13582318 0.11873061 0.012192146 -0.016799102 0.0042358413 0.07716246 0.18500422
-0.007909605 0.0025458143 -0.20757298 -0.014359615 -0.0055677206 0.1866626 0.29188833 0.010238119
-0.0068853633 -0.006430569 -0.10723032 -0.2691624 0.02222709 0.33722755 -0.006410382 0.3543522
-0.48377213 -0.11759411 -0.2951056 0.089291826 -0.16738422 0.21471494 -0.008327818 0.07992169
0.04178798 0.122144066 -0.38472033 -0.44750646 0.0007719543 0.025468288 -0.18098173 0.5996591
0.054681826 -0.02345089 0.016927624 -0.014520655 -0.026076376 -0.07318219 0.11081313 0.0015865087
0.015084503 -0.015148206 -0.026231423 -0.18798538 0.018910194 0.12011351 0.006632649 0.08632059
0.06632065 0.092629686 -0.19543551 0.0581369 -0.02864794 -0.03567918 -0.00895189 0.10353979
-0.018961145 0.012887692 -0.120325044 0.08357258 0.015462648 -0.056247264 -0.16025078 0.10737881
-0.024442712 -0.0020487413 -0.06744633 0.043954946 0.04549412 -0.033271983 -0.06571528 -0.011596896
-0.0016454186 -0.042588428 0.003857855 0.022896387 -0.08916672 -0.0059647546 -0.019626219 -0.05604029
0.021256229 -0.018660832 -0.04354152 0.015551007 -0.051769033 0.06356067 -0.008652032 0.06667488
0.034043573 0.035855923 -0.08008086 -0.102623895 0.055450708 -0.06679936 0.030613236 -0.014849185
-0.032850754 -0.0055263466 0.12352139 -0.07578065 0.02179229 -0.09251421 -0.19290498 0.0076621687
-0.0026202076 0.017839039 -0.04313158 0.04105354 -0.033152286 -0.07164307 -0.02005624 -0.38148123
0.036447547 0.083545856 -0.031972375 -0.10994706 0.08260262 -0.06413318 -0.0020975803 -0.0704065
0.032399055 0.050435614 0.0999689 0.26688552 -0.026700824 0.009375091 -0.016153693 -0.14715917
-0.0032247284 0.0006706259 -0.2628016 -0.15893507 0.0034666404 0.0657842 -0.057572003 -0.0021887103
-0.0075349486 -0.0052885055 -0.47282383 0.1900675 0.54341906 -0.19695285 0.0041971463 0.36279973
0.51534635 0.25932476 -0.54190546 -0.15188472 0.4413272 -0.23751609 0.001306512 0.42531538
-0.02453609 -0.09133039 -0.4907843 0.20226091 0.0015527847 0.44481793 0.42539242 -0.063327655
-0.053670775 0.012335853 -0.0064585377 0.017982243 0.04004159 0.0036604467 -0.032314673 -0.032195672
-0.0014112687 0.005092446 -0.06796644 0.13041155 0.068979286 -0.008417975 -0.009910538 -0.18984398
0.08881315 0.1121933 0.17481565 0.01868374 0.02707541 -0.08577614 0.037027862 0.095422156
-0.035417706 0.10255678 0.08631283 0.0039669205 -0.05064461 -0.06267864 0.17032057 -0.22973691
0.04886119 0.086705856 0.07732725 -0.05458335 -0.03551043 -0.06486533 -0.1658536 0.03683712
0.01872377 -0.045721553 0.012391196 -0.013007619 -0.05772695 0.02960906 0.024462642 -0.34214038
0.044507693 0.0058115516 0.10916846 -0.13978733 0.12135841 -0.07504738 -0.061172 0.044027116
0.06527844 0.03059118 0.08674176 0.20984703 0.08288805 0.07432956 0.07353588 -0.12772325
00000000: 1c8c c03c 8983 2dbd 764c 023e 6799 04bd
00000010: b511 31bd bcee df3c a480 093e 3f2c c7bc
00000020: 3096 dd3b c036 3cbd 5630 a7bd 3ba5 c3bb
00000030: e793 2abc e18e d13d 3ad3 643c 215f 6c3e
00000040: c6c7 36ba 2259 7fbd 3290 16be e40d 913a
00000050: 0bf3 85be 0594 593e a03c 303b dffb be3d
00000060: d66b 9ebb 3b15 0bbe 0929 f33d 91c1 473c
00000070: 459e 89bc d0cc 8a3b 5a07 9e3d bf71 3d3e
00000080: 4a97 01bc add7 263b 038e 54be 9744 6bbc
00000090: 6d71 b6bb 7b24 3f3e 6372 953e c9bd 273c
000000a0: 9d9e e1bb 86b7 d2bb 929b dbbd a7cf 89be
000000b0: 9615 b63c 17a9 ac3e 2f0e d2bb a76d b53e
000000c0: fbb0 f7be 2ed5 f0bd 1518 97be a2de b63d
000000d0: c566 2bbe 3cde 5b3e 6671 08bc fcad a33d
000000e0: df29 2b3d ab26 fa3d 10fa c4be 911f e5be
000000f0: fa5c 4a3a dfa2 d03c 4653 39be 4283 193f
00000100: 0dfa 5f3d 151c c0bc cdab 8a3c 0be8 6dbc
00000110: 209e d5bc 8be0 95bd fff1 e23d 66f2 cf3a
00000120: fe24 773c 2e30 78bc 48e3 d6bc 3d7f 40be
00000130: 8de9 9a3c 12fe f53d b156 d93b d9c8 b03d
00000140: 1fd3 873d a2b4 bd3d 3f20 48be f520 6e3d
00000150: 16af eabc 5524 12bd f3aa 12bc ab0c d43d
00000160: 6754 9bbc e626 533c fa6c f6bd 1a28 ab3d
00000170: 0c57 7d3c 8863 66bd c818 24be 6ce9 db3d
00000180: 153c c8bc 2d44 06bb 4d21 8abd 1a0a 343d
00000190: 0b58 3a3d 3448 08bd bc95 86bd e800 3ebc
000001a0: 16ab d7ba 3471 2ebd 11d4 7c3b 3491 bb3c
000001b0: 0b9d b6bd fd73 c3bb 2ac7 a0bc 818a 65bd
000001c0: 8b21 ae3c 9ade 98bc 9858 32bd a7c9 7e3c
000001d0: c40b 54bd 192c 823d 41c1 0dbc d78c 883d
000001e0: 4671 0b3d a9dd 123d 6f01 a4bd 7a2c d2bd
000001f0: 4820 633d 1ace 88bd 9cc8 fa3c ff49 73bc
00000200: 838e 06bd 5b16 b5bb c8f8 fc3d e332 9bbd
00000210: bf85 b23c 1778 bdbd e288 45be ee12 fb3b
00000220: cab7 2bbb 2d23 923c bdaa 30bd c227 283d
00000230: b1ca 07bd 9ab9 92bd fc4c a4bc 8251 c3be
00000240: 064a 153d 171a ab3d 77f5 02bd ed2b e1bd
00000250: 902b a93d 4258 83bd 8f77 09bb 4831 90bd
00000260: dfb4 043d 9395 4e3d 7fbc cc3d 38a5 883e
00000270: b0bb dabc fb99 193c c054 84bc e5b0 16be
00000280: f755 53bb f1cc 2f3a ee8d 86be e0bf 22be
00000290: 9330 633b deb9 863d 9fd0 6bbd 7770 0fbb
000002a0: bbe7 f6bb 334b adbb f715 f2be 0ea1 423e
000002b0: 831d 0b3f 02ae 49be 3788 893b e3c0 b93e
000002c0: bded 033f 37c6 843e 51ba 0abf ab87 1bbe
000002d0: a4f5 e13e 6b37 73be 453f ab3a f0c2 d93e
000002e0: e9ff c8bc 6d0b bbbd 1448 fbbe 7c1d 4f3e
000002f0: cf86 cb3a 2dbf e33e 09cd d93e eeb1 81bd
00000300: e3d5 5bbd 511c 4a3c 24a2 d3bb 7f4f 933c
00000310: a602 243d 1be4 6f3b 645c 04bd 9cdf 03bd
00000320: 52fa b8ba 89de a63b fd31 8bbd 9b8a 053e
00000330: 0345 8d3d 8ceb 09bc cf5f 22bc 7666 42be
00000340: abe3 b53d 9ac5 e53d e002 333e a50e 993c
00000350: 40cd dd3c 67ab afbd 87aa 173d b16c c33d
00000360: 2812 11bd 4a09 d23d c8c4 b03d f1fc 813b
00000370: b970 4fbd a95d 80bd 8468 2e3e 2740 6bbe
00000380: ac22 483d d792 b13d c05d 9e3d ca92 5fbd
00000390: 6273 11bd 1dd8 84bd 87d5 29be 85e2 163d
000003a0: 9762 993c 8646 3bbd 7104 4b3c e91d 55bc
000003b0: 1873 6cbd b38e f23c e165 c83c 062d afbe
000003c0: b34d 363d d46e be3b b793 df3d 6924 0fbe
000003d0: c28a f83d 71b2 99bd 7e8f 7abd c755 343d
000003e0: b4b0 853d 5b9a fa3c aaa5 b13d 24e2 563e
000003f0: 36c1 a93d 193a 983d fb99 963d e2c9 02be

enc.0.mab0.fc_q.weight f4 [32, 32]
0.032318287 -0.029976243 0.09096496 -0.0028102226 -0.0021989122 -0.11941793 0.16517697 -0.036955975
-0.012366784 -0.018589059 0.23349807 0.16725525 0.07625744 0.053338956 0.014828718 0.24209121
-0.011528362 0.05869403 0.30910587 0.26141396 -0.32587096 -0.27556452 0.022283698 -0.18209232
-0.017392568 0.0765713 0.21457143 -0.22713348 0.02171992 -0.16629487 -0.24980922 -0.1319904
0.053498182 0.03784343 -0.22355506 -0.0680966 0.009210834 -0.005325652 -0.32501873 -0.010502928
-0.0056650382 -0.023172751 -0.20813002 0.04506749 0.026130406 -0.15518537 0.019538913 -0.4153607
-0.03723037 0.25293523 -0.17907386 -0.23067516 0.35731167 -0.09355952 -0.005420607 -0.0024192582
-0.040364336 0.2178174 -0.06365338 0.21084759 0.029162724 0.32973406 0.22140053 -0.17135493
0.040040497 -0.014932288 0.2000815 0.07110472 0.005857167 -0.15558809 0.14069681 -0.033160947
0.0023231232 -0.023554685 0.26512134 -0.11396472 -0.20889217 0.1663955 0.020124784 -0.24206948
-0.352656 -0.18707238 0.31245068 0.14154442 -0.040536623 0.18664664 0.019286562 -0.1618709
0.026829839 -0.097899035 0.31271026 -0.033055864 -0.009346626 -0.16689956 -0.35117143 0.2827144
0.07848309 -0.0015992941 -0.043254253 -0.073428646 0.009242034 0.16657883 -0.08993429 -0.043081023
-0.012610429 -0.03345021 0.0055510513 0.09095754 0.20701326 -0.22859663 0.03394277 0.11005655
0.22901112 0.010982089 -0.14565963 -0.1922055 0.21945298 0.06040416 0.007851851 0.060492173
0.02305024 -0.16484988 -0.14290237 0.07606293 0.021504965 0.082953736 -0.07083994 0.15870464
0.008782048 -0.0018676169 0.20002684 0.16637431 0.009352448 0.07466519 0.18389724 -0.023972554
-0.008385646 0.021728402 0.12397009 -0.054514505 -0.049147088 -0.0038747774 0.005067628 0.44539595
0.0020244287 -0.19035576 -0.0073214723 -0.014037655 -0.31071207 0.23233542 0.009826513 0.06084027
0.025492253 -0.10868651 0.104147166 -0.27547187 0.0059155086 -0.1954797 0.07337621 0.17807724
0.09513581 -0.06707384 -0.23009115 -0.36606959 -0.010415608 0.36042187 -0.3552968 -0.052477237
-0.010924011 0.028004423 -0.22238621 -0.017021066 -0.16967414 0.06846907 0.019209957 -0.8347691
-0.28006715 0.070563 -0.1307423 -0.16195892 0.31769875 0.048154127 0.03625318 0.36235523
0.050815243 0.21142524 0.064060554 0.10858209 0.05396315 0.111857735 0.2890627 -0.24244983
-0.13857813 0.02978248 -0.081113786 0.06788532 0.05972813 -0.013071669 0.022098143 -0.0025396647
0.07414171 0.15588929 0.08650587 -0.050722137 -0.011345379 0.050956268 -0.066392966 -0.16446652
0.15506747 -0.03015093 -0.077994436 0.06673191 0.06406139 0.10112392 0.011042629 -0.021797545
0.044330783 0.2022145 -0.10850619 0.050716337 -0.10703078 -0.030644242 0.025211819 -0.02911806
0.020564003 -0.023732968 -0.12047799 -0.3564366 -0.0025170469 0.23124582 -0.26504293 -0.014783595
0.0034288222 0.009835599 -0.18817729 0.23668522 0.44548482 0.08146274 0.000905123 -0.24932371
0.20221052 0.03819479 -0.32574782 -0.15946625 0.07426511 0.17744425 0.025697174 -0.012161396
0.04218259 -0.120865114 -0.32749608 0.47356793 0.01783636 0.25885463 0.100315884 0.017110404
00000000: 2e60 043d bd90 f5bc d64b ba3d b62b 38bb
00000010: a01b 10bb 6391 f4bd 2724 293e 265f 17bd
00000020: 0d9e 4abc 1548 98bc 1e1a 6f3e f644 2b3e
00000030: dc2c 9c3d f379 5a3d 27f4 723c c2e6 773e
00000040: 74e1 3cbc 2769 703d 2043 9e3e 0dd8 853e
00000050: 8fd8 a6be cb16 8dbe 4d8c b63c 6976 3abe
00000060: dc7a 8ebc 6ad1 9c3d 9db8 5b3e ae95 68be
00000070: f9ed b13c 3449 2abe fdcd 7fbe 7e28 07be
00000080: e920 5b3d b601 1b3d 9eeb 64be 3b76 8bbd
00000090: 0ae9 163c cf82 aebb db68 a6be 7914 2cbc
000000a0: c9a1 b9bb c8d4 bdbc 0920 55be b098 383d
000000b0: 6f0f d63c eae8 1ebe 1210 a03c 28aa d4be
000000c0: df7e 18bd ba80 813e 235f 37be 1c36 6cbe
000000d0: 8ef1 b63e 229c bfbd 599f b1bb 6b8c 1ebb
000000e0: 1355 25bd 860b 5f3e b45c 82bd 6ee8 573e
000000f0: aae6 ee3c e7d2 a83e d2b6 623e ab77 2fbe
00000100: 8101 243d 8ea6 74bc 2ae2 4c3e 5a9f 913d
00000110: 7aed bf3b 7c52 1fbe d312 103e c6d3 07bd
00000120: 8a3f 183b c1f5 c0bc fcbd 873e 5666 e9bd
00000130: d4e7 55be 9563 2a3e bbdc a43c 10e1 77be
00000140: 548f b4be e78f 3fbe 89f9 9f3e 05f1 103e
00000150: bb09 26bd 4c20 3f3e dafe 9d3c 7cc1 25be
00000160: 40ca db3c 4a7f c8bd 8f1b a03e 9665 07bd
00000170: 9722 19bc b8e7 2abe becc b3be f1bf 903e
00000180: bebb a03d 689f d1ba 5f2b 31bd c261 96bd
00000190: e66b 173c a493 2a3e 782f b8bd ba75 30bd
000001a0: f99b 4ebc 1603 09bd 98e5 b53b f247 ba3d
000001b0: 49fb 533e 3c15 6abe 9307 0b3d 5465 e13d
000001c0: e481 6a3e 38ee 333c cc27 15be 85d1 44be
000001d0: 48b8 603e 5a6a 773d 0da5 003c a4c6 773d
000001e0: dbd3 bc3c 68ce 28be 0055 12be e2c6 9b3d
000001f0: 2e2b b03c a6e3 a93d 8814 91bd 7883 223e
00000200: 94e2 0f3c d3ca f4ba d6d3 4c3e 075e 2a3e
00000210: 033b 193c 10ea 983d 8f4f 3c3e 1762 c4bc
00000220: f363 09bc c3ff b13c 08e4 fd3d 9a4a 5fbd
00000230: 754e 49bd faef 7dbb 580e a63b f00a e43e
00000240: 47ac 043b 9fec 42be f6e8 efbb 31fe 65bc
00000250: a715 9fbe 56e9 6d3e 62ff 203c a633 793d
00000260: 21d5 d03c 0897 debd 1c4b d53d a60a 8dbe
00000270: e2d6 c13b d52b 48be 4446 963d e159 363e
00000280: 90d6 c23d 025e 89bd 049d 6bbe 796d bbbe
00000290: 3aa6 2abc 3789 b83e 76e9 b5be 5ff2 56bd
000002a0: 9ffa 32bc 8869 e53c 36b9 63be c36f 8bbc
000002b0: 0fbf 2dbe 8339 8c3d 335e 9d3c 6eb3 55bf
000002c0: f664 8fbe 5683 903d 4fe1 05be 8fd8 25be
000002d0: 69a9 a23e 433d 453d 377e 143d a086 b93e
000002e0: a523 503d dc7f 583e 2e32 833d 4960 de3d
000002f0: 7708 5d3d ab15 e53d 0700 943e c544 78be
00000300: 6de7 0dbe 63fa f33c fc1e a6bd 7507 8b3d
00000310: 7ca5 743d 8e2a 56bc 2a07 b53c 8170 26bb
00000320: 9cd7 973d 71a1 1f3e fd29 b13d 04c2 4fbd
00000330: f8e1 39bc 85b7 503d 09f9 87bd e969 28be
00000340: 02ca 1e3e 15ff f6bc 8cbb 9fbd bdaa 883d
00000350: 9e32 833d 0f1a cf3d 25ec 343c c490 b2bc
00000360: 3294 353d 5111 4f3e 7e38 debd efbb 4f3d
00000370: f432 dbbd a209 fbbc 0489 ce3c ff88 eebc
00000380: d775 a83c a46b c2bc 2abd f6bd dc7e b6be
00000390: 0af5 24bb b4cb 6c3e b5b3 87be e436 72bc
000003a0: 17b6 603b 7e25 213c 8cb1 40be 9c5d 723e
000003b0: 9616 e43e f0d5 a63d c745 6d3a b74e 7fbe
000003c0: 4610 4f3e 2472 1c3d 6bc8 a6be 1f4b 23be
000003d0: 4e18 983d f2b3 353e e182 d23c 9840 47bc
000003e0: a7c7 2c3d 2188 f7bd 91ad a7be 7f77 f23e
000003f0: 8f1d 923c 9888 843e 6a72 cd3d 1e2b 8c3c

enc.0.mab0.fc_q.bias f4 [32]
0.063895114 0.21277766 -0.15730911 0.03924775 0.10717572 -0.0053338325 -0.05477652 0.12178922
0.48088202 -0.030362213 -0.23900853 -0.12788388 -0.082721286 -0.09555088 0.6228526 0.24270916
-0.17954311 0.07608612 -0.04152113 -0.011513023 -0.10019943 -0.24680267 -0.14648634 -0.005815092
0.047682922 -0.20622864 -0.023746338 0.096413925 0.123135924 -0.028288357 0.05265164 -0.051965605
00000000: 71db 823d 63e2 593e a415 21be 40c2 203d
00000010: f27e db3d 6ec7 aebb 585d 60bd a06c f93d
00000020: 2b36 f63e 2dba f8bc a7be 74be fef3 02be
00000030: c769 a9bd 2eb0 c3bd 4573 1f3f c088 783e
00000040: 26da 37be 0ad3 9b3d 0f12 2abd 1ea1 3cbc
00000050: 5c35 cdbd d7b9 7cbe 8400 16be 878c bebb
00000060: 2b4f 433d 9a2d 53be ae87 c2bc aa74 c53d
00000070: b02e fc3d fcbc e7bc 3fa9 573d e3d9 54bd

enc.0.mab0.fc_k.weight f4 [32, 2]
0.25414008 0.69022846 -0.25857323 -0.6011721 0.90935665 0.09351057 -0.56772584 -0.20385908
-0.7333012 0.7329997 0.58815485 -0.69781977 0.029635219 -0.017661747 -1.090052 -0.09996545
-0.2783224 -0.7403735 -0.06802105 1.3539176 0.8219001 0.05696337 0.5533124 0.75148386
0.25498223 -0.45374113 0.1056794 0.19919492 -0.962281 -1.008167 -0.18793254 -0.28627533
-0.93999654 0.25449798 1.0951701 -0.16243279 0.329513 -0.25023612 0.8893166 -0.6890475
-0.8880977 0.22066711 -0.38181683 -0.30680567 0.004799998 0.080432296 0.024897454 -0.20493166
0.58165556 1.0307397 -0.8360162 -0.32647622 0.122120045 -0.59653926 0.5029723 -0.055518378
0.78050536 -0.012680682 -0.8408812 0.41399947 0.43283686 -0.059824035 -1.0762848 0.040439725
00000000: a61e 823e d0b2 303f b663 84be 6ae6 19bf
00000010: 99cb 683f 7882 bf3d 7b56 11bf 6fc0 50be
00000020: a1b9 3bbf dea5 3b3f 5191 163f 51a4 32bf
00000030: 8fc5 f23c 5eaf 90bc d386 8bbf b0ba ccbd
00000040: 4680 8ebe 1e89 3dbf 9f4e 8bbd 2c4d ad3f
00000050: 0c68 523f 6c52 693d e2a5 0d3f 3f61 403f
00000060: 088d 823e c250 e8be 716e d83d c1f9 4b3e
00000070: 0c58 76bf 9e0b 81bf 6371 40be ae92 92be
00000080: 9da3 70bf 8f4d 823e 892e 8c3f c854 26be
00000090: eeb5 a83e f31e 80be 41aa 633f 6b65 30bf
000000a0: 5f5a 63bf 8ff6 613e 7f7d c3be a215 9dbe
000000b0: 4d49 9d3b b0b9 a43d bff5 cb3c 9bd9 51be
000000c0: 61e7 143f 47ef 833f 2805 56bf e427 a7be
000000d0: 131a fa3d ccb6 18bf cbc2 003f 3d67 63bd
000000e0: 33cf 473f a3c2 4fbc fe43 57bf bdf7 d33e
000000f0: cb9c dd3e 0c0a 75bd b3c3 89bf 20a4 253d

enc.0.mab0.fc_k.bias f4 [32]
0.028986484 0.5732973 -0.09374587 -0.6665955 -0.61822706 -0.34490025 -0.023102744 0.45647946
0.48594728 0.6543168 -0.63958627 0.08559662 -0.57223755 0.08029152 0.4489229 -0.5536474
0.27236187 0.2381318 0.61160254 -0.1361772 0.0041109137 0.07079297 0.086264126 0.27737266
0.41141126 -0.1865141 0.67880225 -0.07352195 0.6706348 0.584617 -0.17070033 0.31206274
00000000: 1075 ed3c 9dc3 123f d6fd bfbd 01a6 2abf
00000010: 2144 1ebf c496 b0be f741 bdbc adb7 e93e
00000020: 15ce f83e 4e81 273f edbb 23bf 484d af3d
00000030: 297e 12bf e16f a43d 39d9 e53e d6bb 0dbf
00000040: 0473 8b3e d3d8 733e fc91 1c3f 0972 0bbe
00000050: d8b4 863b e8fb 903d 3fab b03d ca03 8e3e
00000060: 7fa4 d23e 8dfd 3ebe fcc5 2d3f ad92 96bd
00000070: b9ae 2b3f 76a9 153f 11cc 2ebe b0c6 9f3e

enc.0.mab0.fc_v.weight f4 [32, 2]
0.9831569 1.092642 1.0080613 0.09241709 -0.3637551 -0.76326257 0.93090844 0.42055354
0.786713 -0.984815 0.35706678 0.8650572 -0.26203668 0.35228437 0.8108757 0.46610698
-0.49953082 1.5768511 0.016938062 -1.3666693 -0.62975955 -0.04643574 -0.6729612 0.9760308
0.5406857 0.8893831 0.09224673 -0.29460445 0.36870164 1.5231797 -0.52542907 0.23050909
0.8456191 1.1397835 -0.5731392 -1.2777638 0.4528737 1.294525 -0.8492831 2.2369409
-0.8450705 -0.49682295 -0.20863283 -1.1272736 0.53375286 -1.9995524 0.37529698 1.6346568
0.5074377 -2.0813766 0.7041873 1.2831119 -0.23631497 2.1093585 -0.54798627 -0.6517442
0.15018985 -1.3048812 0.5470533 -1.5821757 1.0428272 0.5472626 0.9261722 0.939184
00000000: 2cb0 7b3f b1db 8b3f 2708 813f 2c45 bd3d
00000010: 1c3e babe 2d65 43bf 0450 6e3f cb52 d73e
00000020: 0666 493f d61c 7cbf 75d1 b63e 6374 5d3f
00000030: ac29 86be 9e5e b43e 8d95 4f3f 93a5 ee3e
00000040: 81c2 ffbe 42d6 c93f b1c1 8a3c 05ef aebf
00000050: ec37 21bf 6733 3ebd 2f47 2cbf 28dd 793f
00000060: 616a 0a3f 9cae 633f dbeb bc3d 65d6 96be
00000070: 76c6 bc3e 8df7 c23f 8582 06bf 930a 6c3e
00000080: 7e7a 583f 6de4 913f 40b9 12bf c48d a3bf
00000090: 10df e73e ffb2 a53f 9e6a 59bf 0a2a 0f40
000000a0: 8a56 58bf 945f febe d8a3 55be 804a 90bf
000000b0: 07a4 083f 55f1 ffbf ed26 c03e 6f3c d13f
000000c0: 70e7 013f 4635 05c0 9e45 343f 033d a43f
000000d0: 8dfc 71be bbff 0640 d448 0cbf b5d8 26bf
000000e0: 5ecb 193e 5906 a7bf af0b 0c3f bc84 cabf
000000f0: 5d7b 853f 6719 0c3f 9f19 6d3f 5d6e 703f

enc.0.mab0.fc_v.bias f4 [32]
-0.3712518 0.21896195 0.18353152 0.1589867 -0.2545806 0.21124265 0.375482 0.28475186
-0.23278067 -0.22331606 0.29027048 -0.23413193 0.3540429 0.056772057 -0.5175 -0.53358686
0.4429424 0.06416055 0.3096329 0.37193453 0.25372913 0.44423908 0.16981916 -0.21818538
0.007419967 0.089294605 -0.057595205 -0.13130473 0.57523817 0.44748637 -0.5337413 -0.24508813
00000000: b714 bebe 9037 603e b0ef 3b3e 69cd 223e
00000010: 6358 82be fe4f 583e 2d3f c03e ffca 913e
00000020: 0e5e 6ebe f7ac 64be 559e 943e 48c0 6fbe
00000030: 1c45 b53e d189 683d e17a 04bf 2699 08bf
00000040: 59c9 e23e 9b66 833d 3488 9e3e 346e be3e
00000050: c9e8 813e 4e73 e33e 13e5 2d3e fd6b 5fbe
00000060: 3223 f33b 17e0 b63d f3e8 6bbd bf74 06be
00000070: cf42 133f ef1c e53e 45a3 08bf 62f8 7abe

enc.0.mab0.ln0.weight f4 [32]
1.0829843 0.781243 0.8308768 0.623613 1.2142087 0.99024343 0.20532984 0.83972245
1.46814 1.8533309 0.7411029 1.2419547 1.0289882 0.31784508 1.2099837 0.62564725
0.88004714 0.96010494 0.8714274 1.410904 1.0537025 0.409202 0.9797624 0.9291469
1.8672655 1.2305422 1.3073164 0.8220991 1.162121 0.8113008 1.1177424 1.0014652
00000000: 3b9f 8a3f 8bff 473f 58b4 543f 1aa5 1f3f
00000010: 316b 9b3f 9880 7d3f fc41 523e 0df8 563f
00000020: 03ec bb3f f239 ed3f ebb8 3d3f 5ff8 9e3f
00000030: e3b5 833f 97bc a23e bfe0 9a3f 6b2a 203f
00000040: c54a 613f 70c9 753f de15 5f3f 8198 b43f
00000050: b9df 863f ed82 d13e b5d1 7a3f 92dc 6d3f
00000060: 8e02 ef3f 6882 9d3f 2556 a73f 1675 523f
00000070: 62c0 943f 69b1 4f3f 2f12 8f3f 0330 803f

enc.0.mab0.ln0.bias f4 [32]
-0.05614463 -0.31436074 -0.017202046 -0.09867255 0.16918567 -0.10973021 -0.1307913 -0.16384272
-0.13641734 0.16881661 0.047794472 0.0043838504 -0.0659524 0.075631954 -0.099391334 -0.0011856038
-0.17795569 0.1027912 -0.26742312 -0.18671632 0.25659925 0.05174956 0.043190766 -0.07797645
0.06332435 -0.021081027 0.008149951 0.04650131 0.15693477 -0.11252245 0.037740577 0.051476113
00000000: e9f7 65bd e4f3 a0be 4eeb 8cbc d514 cabd
00000010: 023f 2d3e 3bba e0bd 28ee 05be 63c6 27be
00000020: fdb0 0bbe 43de 2c3e 23c4 433d 67a6 8f3b
00000030: 0d12 87bd ede4 9a3d af8d cbbd 4366 9bba
00000040: 043a 36be 3184 d23d afeb 88be 9032 3fbe
00000050: fa60 833e 59f7 533d cde8 303d 1eb2 9fbd
00000060: 32b0 813d 1eb2 acbc 5f87 053c 2878 3e3d
00000070: 82b3 203e 2c72 e6bd dd95 1a3d 9ed8 523d

enc.0.mab0.ln1.weight f4 [32]
0.53042644 0.8130458 0.6853993 0.7387383 0.9209021 0.2217842 0.24585775 0.88562256
0.8974889 0.74703497 0.93298215 0.47710553 0.21266517 0.6681347 0.5348639 0.43199304
0.58320284 0.90522975 0.5253587 0.5163984 0.5169582 0.7780835 0.8115442 0.4702181
1.3184751 0.89913136 0.7775141 0.58438706 0.5109253 0.29938048 0.59863514 0.6756302
00000000: 07ca 073f c523 503f 5476 2f3f f41d 3d3f
00000010: 3dc0 6b3f 661b 633e 22c2 7b3e 29b8 623f
00000020: d5c1 653f af3d 3f3f ebd7 6e3f 2d47 f43e
00000030: e6c4 593e e00a 2b3f d7ec 083f 312e dd3e
00000040: c84c 153f 23bd 673f e87d 063f af32 043f
00000050: 5f57 043f 7b30 473f 5cc1 4f3f 6dc0 f03e
00000060: cbc3 a83f 792d 663f 2a0b 473f 649a 153f
00000070: 00cc 023f 6648 993e 2740 193f 1af6 2c3f

enc.0.mab0.ln1.bias f4 [32]
0.5467408 -0.04267558 -0.035066534 -0.004805352 0.12549187 0.04997544 0.05143921 -0.0059324135
-0.16845798 0.011386084 -0.2748863 0.56075776 -0.024328558 0.06244389 0.15635633 0.14527583
-0.10505805 0.122809805 -0.11330022 -0.13577694 0.21747418 0.05502139 0.13718714 0.09737982
0.10667035 0.08679352 0.029334404 -0.1400445 -0.29147977 -0.05958962 0.13291632 0.15015444
00000000: 34f7 0b3f 97cc 2ebd eda1 0fbd 3776 9dbb
00000010: f180 003e 0cb3 4c3d ecb1 523d b164 c2bb
00000020: 4080 2cbe b38c 3a3c e6bd 8cbe d28d 0f3f
00000030: af4c c7bc 2ac5 7f3d e01b 203e 30c3 143e
00000040: ad28 d7bd b583 fb3d f209 e8bd 1c09 0bbe
00000050: 8db1 5e3e 1c5e 613d c97a 0c3e 126f c73d
00000060: fc75 da3d cdc0 b13d b44e f03c d367 0fbe
00000070: d63c 95be 3f14 74bd 371b 083e 16c2 193e

enc.0.mab0.fc_o.weight f4 [32, 32]
0.20320834 0.35945287 -0.2656448 0.2569605 0.3321103 0.26084805 -0.35160893 0.21259116
0.05672698 -0.18033516 -0.25338653 0.04427178 0.60910076 -0.22609098 0.6033258 0.05547205
-0.24885751 -0.4325188 0.2747465 0.45916075 -0.1447254 -0.62500525 -1.0836257 0.37917942
-1.2942984 -0.11170123 0.66765594 -0.06876733 -0.74897254 -0.2677445 0.06656029 0.2212511
0.17166978 -0.2194899 -0.046877094 0.08642458 0.2981094 0.5135034 -0.2361619 0.017985657
0.19414315 -0.17345855 0.14640507 0.31034437 0.22706337 -0.29453588 0.13707931 -0.02217967
-0.292178 -0.1300144 -0.93610454 -0.43464938 0.18664329 0.17490987 0.26897675 -0.05669257
0.22118199 -0.5140857 -0.14542294 0.2674177 -0.030323016 0.16101845 0.09652632 0.15230897
0.27594373 -0.54479206 -0.12156393 -0.24507289 -0.17542382 0.24130814 0.097742416 -0.35481966
0.57853144 -0.23665632 0.45946258 0.3260325 0.14078636 -0.27650082 0.0234431 0.1911794
0.01569771 -0.17779446 -0.20493448 0.46436545 -0.03440585 -0.14273399 -0.2658536 0.18893076
-0.7192498 0.17915384 0.36904982 -0.1266517 -0.3455056 0.039561447 0.17569232 0.35988143
0.17017831 0.51970494 -0.19658408 0.4383283 -0.08828859 0.38742936 -0.18562153 0.5220324
0.08589835 -0.6112602 -0.45722455 0.009517158 0.45854634 -0.19308867 0.46738172 0.0061681047
-0.05905394 0.3125108 -0.18954352 -0.036953826 0.2670017 0.16425374 -0.2417824 -0.52953756
0.21877423 -0.42318398 -0.21790361 -0.06687613 0.16524468 -0.06404479 -0.6385443 -0.44289407
0.07874496 -0.25982702 0.16102833 -0.26786923 0.23723742 0.45750237 -0.13522683 -0.5537441
0.3844856 0.041815523 0.46666786 0.43587923 0.20426546 -0.36727384 0.24670307 0.3157051
-0.72044307 -0.121077076 -1.1382238 0.14111961 -0.0041995845 0.06441023 -0.2671787 0.24662057
-0.0051863287 -0.6905482 0.0029440268 0.4659357 -0.096588805 0.05928251 -0.02548194 -0.05751797
-0.03689135 0.20724438 0.14827101 0.07225403 -0.092967704 0.45167696 -0.24444318 0.13871548
0.1952785 -0.5492729 0.00014065964 0.0490217 0.3877381 -0.502053 0.10992263 -0.019130088
-0.19954547 0.04763399 -0.22060484 0.068442956 0.30938822 0.051325075 -0.06500018 -0.01827935
-0.038605157 -0.7209785 -0.32379127 0.36761746 0.0033455687 -0.011313695 -0.3203793 -0.21290508
0.16496497 -0.22415547 0.045422602 -0.05356298 0.1494717 0.014173513 -0.13578877 -0.22100063
0.31068584 0.35192445 0.24909243 0.35436222 0.010887964 -0.20395702 0.32781103 0.2512959
-0.36566153 0.09971669 -0.1738426 0.7283058 0.09248649 -0.26106727 -0.8242057 0.19518591
-0.6712576 -0.06478208 0.63391185 0.19295111 -1.0071081 -0.43041113 -0.088286735 -0.023896018
0.22685291 0.15088545 0.22172877 0.2824551 1.1204035 -0.29286468 -0.86286795 -0.06924724
-0.5324259 0.715513 -0.2966286 0.09321828 0.033710364 0.32757354 -0.34166387 -0.14500383
-0.34952226 0.12419004 -0.30377534 0.20416859 0.30502906 -0.110941485 -0.2293049 0.2419848
0.024911024 -0.021888383 0.324316 0.44099322 -0.4298672 -0.23401734 0.19649817 0.19794904
00000000: d915 503e 350a b83e 9802 88be 5490 833e
00000010: 5c0a aa3e e08d 853e 1606 b4be 7fb1 593e
00000020: 8d5a 683d c8a9 38be e1bb 81be 5356 353d
00000030: 07ee 1b3f 6584 67be 8f73 1a3f a936 633d
00000040: 81d4 7ebe 1b73 ddbe 93ab 8c3e 1e17 eb3e
00000050: e532 14be 5800 20bf 3fb4 8abf ce23 c23e
00000060: 92ab a5bf 9dc3 e4bd 80eb 2a3f e3d5 8cbd
00000070: aabc 3fbf cf15 89be c350 883d a68f 623e
00000080: 34ca 2f3e f6c1 60be 3202 40bd 5fff b03d
00000090: cca1 983e f574 033f 6dd4 71be a856 933c
000000a0: 76cd 463e 1e9f 31be 36eb 153e 75e5 9e3e
000000b0: 4d83 683e 68cd 96be 855e 0c3e 24b2 b5bc
000000c0: 5b98 95be 7f22 05be 8ca4 6fbf 5d8a debe
000000d0: 6b1f 3f3e 931b 333e 52b7 893e 7836 68bd
000000e0: 887d 623e 1f9b 03bf c0e9 14be f9ea 883e
000000f0: f967 f8bc 05e2 243e 97af c53d e2f6 1b3e
00000100: 7f48 8d3e 7e77 0bbf 82f6 f8bd 63f4 7abe
00000110: 4da2 33be 7b19 773e 2d2d c83d ecaa b5be
00000120: a31a 143f 0956 72be ae3e eb3e bbed a63e
00000130: 4d2a 103e 8491 8dbe be0b c03c 88c4 433e
00000140: 7c98 803c c00f 36be 58da 51be 4fc1 ed3e
00000150: 26ed 0cbd dc28 12be f71d 88be 1177 413e
00000160: c120 38bf 1b74 373e 19f4 bc3e fcb0 01be
00000170: 1ce6 b0be 2f0b 223d b0e8 333e 6142 b83e
00000180: 3943 2e3e 620b 053f 564d 49be 916c e03e
00000190: a6d0 b4bd 245d c63e 9213 3ebe eaa3 053f
000001a0: 79eb af3d 8c7b 1cbf 5619 eabe dbed 1b3c
000001b0: 96c6 ea3e 09b9 45be a84c ef3e d01d ca3b
000001c0: 8be2 71bd 6a01 a03e b217 42be e55c 17bd
000001d0: 72b4 883e 2232 283e ce95 77be c68f 07bf
000001e0: 5a06 603e 92ab d8be 2022 5fbe 5af6 88bd
000001f0: e735 293e ea29 83bd a477 23bf 03c3 e2be
00000200: 0a45 a13d 0c08 85be 9ce4 243e 2826 89be
00000210: 5eee 723e c03d ea3e e778 0abe 2cc2 0dbf
00000220: 4cdb c43e c146 2b3d 17ef ee3e 902b df3e
00000230: f72a 513e 510b bcbe bb9f 7c3e 19a4 a13e
00000240: f56e 38bf 42f7 f7bd 51b1 91bf a981 103e
00000250: ab9c 89bb 83e9 833d a6cb 88be 1a8a 7c3e
00000260: 14f2 a9bb c4c7 30bf 93f0 403b 208f ee3e
00000270: 5ad0 c5bd 38d2 723d 80bf d0bc f797 6bbd
00000280: 621b 17bd df37 543e 5bd4 173e ecf9 933d
00000290: da65 bebd 3442 e73e 504f 7abe 6e0b 0e3e
000002a0: 16f7 473e 269d 0cbf 097e 1339 faca 483d
000002b0: 9c85 c63e 8c86 00bf 1e1f e13d b4b6 9cbc
000002c0: a655 4cbe dc1b 433d 3ce6 61be d22b 8c3d
000002d0: 2268 9e3e 3e3a 523d d01e 85bd 93be 95bc
000002e0: 7120 1ebd 0c92 38bf f8c7 a5be 5b38 bc3e
000002f0: 5441 5b3b 145d 39bc c108 a4be ca03 5abe
00000300: 94ec 283e 0389 65be 0d0d 3a3d db64 5bbd
00000310: 1c0f 193e 0638 683c 360c 0bbe fd4d 62be
00000320: 3712 9f3e 712f b43e 1612 7f3e f76e b53e
00000330: 6e63 323c 1cda 50be d9d6 a73e dba9 803e
00000340: fd37 bbbe 4438 cc3d cb03 32be 4072 3a3f
00000350: 8f69 bd3d 9caa 85be 25ff 52bf d1de 473e
00000360: 8ad7 2bbf 78ac 84bd 0c48 223f fa94 453e
00000370: ebe8 80bf d95e dcbe adcf b4bd 95c1 c3bc
00000380: 214c 683e b781 1a3e de0c 633e f49d 903e
00000390: 6269 8f3f 5cf2 95be eae4 5cbf 7fd1 8dbd
000003a0: 104d 08bf dc2b 373f b4df 97be 3ae9 be3d
000003b0: e113 0a3d b8b7 a73e 91ee aebe e27b 14be
000003c0: 95f4 b2be 5957 fe3d 7188 9bbe 9211 513e
000003d0: c52c 9c3e 4a35 e3bd e7ce 6abe ddca 773e
000003e0: 3412 cc3c 444f b3bc bf0c a63e ddc9 e13e
000003f0: 8e17 dcbe 3ea2 6fbe d136 493e 27b3 4a3e

enc.0.mab0.fc_o.bias f4 [32]
-0.36427024 -0.5183116 -0.1532165 0.24237387 -0.59791523 -0.3360237 -0.3168886 -0.39062983
-0.028005205 0.02607281 -0.11655527 0.07036524 -0.27171212 -0.30185428 -0.28338343 -0.21714322
-0.030182084 0.0904347 -0.17440614 0.12494734 -0.22882037 0.04230319 -0.10530871 0.03333572
-0.36022407 -0.5998155 0.01829006 -0.111607574 0.37754628 0.03368897 0.12291269 0.057268705
00000000: a181 babe 12b0 04bf c9e4 1cbe db30 783e
00000010: f910 19bf 4c0b acbe 393f a2be a200 c8be
00000020: 2c6b e5bc a596 d53c 88b4 eebd a71b 903d
00000030: da1d 8bbe a58c 9abe a217 91be cb5a 5ebe
00000040: 6b40 f7bc d435 b93d 8697 32be 64e4 ff3d
00000050: e34f 6abe 1c46 2d3d 18ac d7bd 098b 083d
00000060: 4a6f b8be 828d 19bf 09d5 953c 8392 e4bd
00000070: bf4d c13e 72fd 093d a6b9 fb3d 9792 6a3d

enc.0.mab1.fc_q.weight f4 [32, 2]
-0.2645197 0.7346146 0.18964252 -0.7914242 1.0139908 0.018727882 0.71210724 0.7053333
0.5874789 0.093092225 -0.2850597 -0.3371831 -0.9117462 -0.80491954 0.59872735 0.058033492
-0.23038687 -0.65529543 0.18397413 -0.04002897 0.21534564 -0.6235548 0.84865874 0.88243484
-0.591267 0.5561817 0.8058029 0.57803 -0.46830696 -0.6776482 0.62326306 -0.15066475
-1.4094523 -0.20012048 -0.11796693 0.50779206 -0.34892875 -0.00485861 -0.030197399 1.1457894
-0.47133648 0.9090511 0.46577558 -0.8207033 -0.6724915 -0.85459846 -0.96478266 0.46953425
0.035039403 -1.3050863 -0.7702621 -0.46054778 -0.048063897 0.14402777 0.0861782 -0.59268296
0.08348385 0.4517289 -0.035419956 0.122045726 0.6496903 -0.5306085 -0.57457495 -0.22330375
00000000: 206f 87be b40f 3c3f a631 423e c79a 4abf
00000010: 73ca 813f 376b 993c a94c 363f b990 343f
00000020: 0465 163f 23a7 be3d 58f3 91be 43a3 acbe
00000030: 3368 69bf 350f 4ebf 3246 193f 87b4 6d3d
00000040: 89ea 6bbe 71c1 27bf b763 3c3e 6bf5 23bd
00000050: 9183 5c3e 4aa1 1fbf b341 593f 40e7 613f
00000060: 465d 17bf ed61 0e3f 1949 4e3f c6f9 133f
00000070: eec5 efbe 5a7a 2dbf 2b8e 1f3f dc47 1abe
00000080: ef68 b4bf 62ec 4cbe a598 f1bd a9fe 013f
00000090: caa6 b2be fa34 9fbb 8960 f7bc 3aa9 923f
000000a0: 0453 f1be 93b7 683f 237a ee3e 9d19 52bf
000000b0: 6728 2cbf f7c6 5abf fffb 76bf cb66 f03e
000000c0: 7a85 0f3d 110d a7bf e62f 45bf ebcc ebbe
000000d0: a6de 44bd 047c 133e 327e b03d 12ba 17bf
000000e0: 95f9 aa3d 0349 e73e 8414 11bd 1cf3 f93d
000000f0: 1a52 263f f5d5 07bf 5817 13bf bda9 64be

enc.0.mab1.fc_q.bias f4 [32]
0.5788684 0.45526886 0.5402844 0.53967154 -0.14019386 0.1424421 0.099785656 0.3088398
0.26644382 0.57425773 0.23138933 -0.6993329 -0.7881068 -0.1503425 -0.43039447 0.043782488
0.40503773 0.24732108 -0.08293407 -0.6377352 -0.19097131 -0.9448234 0.47115597 0.13812399
-0.22412439 0.5511271 0.17715356 -0.07168966 0.35551718 -1.0556161 0.13337633 -0.71536845
00000000: b830 143f 0019 e93e 1450 0a3f ea27 0a3f
00000010: fb8e 0fbe 58dc 113e 6c5c cc3d 4020 9e3e
00000020: 536b 883e 8e02 133f 53f1 6c3e 7b07 33bf
00000030: 5ec1 49bf 62f3 19be aa5c dcbe 4455 333d
00000040: 1b61 cf3e bd41 7d3e 56d9 a9bd 9d42 23bf
00000050: fc8d 43be f2df 71bf 5b3b f13e 6070 0d3e
00000060: dd80 65be aa16 0d3f be67 353e 07d2 92bd
00000070: 5906 b63e 6e1e 87bf ce93 083e 6322 37bf

enc.0.mab1.fc_k.weight f4 [32, 32]
-0.14948906 -0.01929976 0.31994376 -0.09785821 0.12484842 0.016069837 -0.0065604053 0.15113693
0.20477577 -0.0484431 0.1654397 -0.14957583 0.1396103 -0.13783877 -0.34756142 -0.19905037
0.21702826 -0.109496355 0.092449374 0.18303874 -0.15074249 0.33791912 -0.22470519 0.43312046
-0.23515731 -0.06824985 -0.011128683 0.20924039 0.078809574 0.24788697 0.054108355 -0.0670921
-0.0066723186 0.6834116 0.21254674 -0.21523473 0.26723844 -0.1608592 -0.056908283 0.45598143
-0.08603127 0.05058802 -0.20528857 -0.010801307 0.16964623 -0.0107378205 -0.31809777 -0.027264146
0.31367663 -0.3012446 0.16537976 0.41296765 -0.1850129 -0.119327344 -0.33661908 -0.12841122
-0.13216388 0.1675121 0.2214454 -0.015729018 0.051407527 0.027478278 0.12213082 0.033448428
-0.47538668 0.42138642 0.5607216 -0.5802631 0.6531397 0.6430133 -0.18324171 0.46988803
0.1461241 0.21895613 0.03672138 -0.37759745 0.37846982 -0.15046836 -0.14295252 -0.20088413
-0.053140465 -0.61963445 0.4457087 0.72894204 -0.53629506 -0.37058815 -0.106325015 0.19270219
-0.381753 0.23658343 0.10544147 0.22959372 0.07585775 0.14152907 0.1820794 -0.45093754
-0.5132127 0.07680543 0.3886241 -0.5765698 0.4256584 0.36987674 0.013889295 0.42783946
0.10476383 -0.08735187 0.60640514 -0.5212749 0.066852964 -0.3318571 -0.2688282 -0.10324719
0.027532058 -0.28250262 0.53551537 0.29622787 -0.37404844 -0.092197664 -0.091219075 0.30562598
-0.35365278 -0.122245066 -0.06604185 0.21394515 0.3280186 0.16919723 0.24585181 -0.36836624
-0.14659092 0.102692224 -0.13950358 -0.12744197 0.08594994 0.09845813 -0.095220335 0.03783517
0.014302186 -0.017703917 -0.1497575 0.18520631 -0.006357302 -0.056770027 0.4596054 0.40143105
-0.87685615 0.22172573 -0.043453228 -0.123895824 0.021094328 -0.3316366 0.16695695 -0.10783786
0.12303999 0.050501425 0.017324325 0.0020985228 -0.22320639 -0.34848118 0.16002586 -0.15198292
0.42199922 -0.07024507 0.0496793 0.13859218 -0.013782712 -0.33474264 0.4918046 0.5841072
-0.14869392 -0.08143801 -0.36089164 0.08092176 -0.11413196 0.35104376 -0.55390877 -0.21976824
0.97060037 -0.34027946 0.004528552 0.25383648 -0.01657975 -0.0047813663 -0.14137845 0.13911311
-0.10490685 -0.11217334 0.04839827 -0.07772409 0.4654925 0.6045147 -0.52977514 0.042003367
0.96097016 -0.31540373 -0.39086124 0.5602594 -0.7043889 -0.6089967 0.42866355 -0.15886694
-0.21984261 -0.6962091 -0.70191157 0.5762646 -0.37809652 0.6619543 -0.21648659 -0.21357203
0.4342847 -0.09195388 -0.46876785 -0.68354034 0.7286996 0.23217249 0.091734774 -0.47054353
0.27748477 -0.32122722 -0.019361978 -0.6134873 0.17005801 0.40141344 -0.82185674 0.20980567
-0.21362886 0.37536886 0.41091427 -0.35443798 0.48993725 0.30771616 -0.14148536 0.41175413
-0.120787114 0.10920438 0.16567007 -0.2815968 0.08826783 -0.40598282 -0.33182237 -0.10762351
0.09305208 -0.4486973 0.25748634 0.52405536 -0.26185083 -0.32015514 -0.025671415 0.03274067
-0.45446104 0.11405568 -0.1597977 0.20458525 0.09415004 -0.043147985 0.26818758 -0.288339
00000000: a913 19be 881a 9ebc abcf a33e e369 c8bd
00000010: 87b0 ff3d e4a4 833c abf8 d6bb a4c3 1a3e
00000020: bdb0 513e 466c 46bd 0669 293e 682a 19be
00000030: 01f6 0e3e 9b25 0dbe 92f3 b1be dcd3 4bbe
00000040: a83c 5e3e a03f e0bd 1956 bd3d 826e 3b3e
00000050: 3d5c 1abe bc03 ad3e 1e19 66be f7c1 dd3e
00000060: 14cd 70be 94c6 8bbd 1455 36bc 1d43 563e
00000070: ea66 a13d 15d6 7d3e b9a0 5d3d 9567 89bd
00000080: 77a3 dabb 10f4 2e3f daa5 593e 7e66 5cbe
00000090: 7ad3 883e 46b8 24be a918 69bd 6676 e93e
000000a0: 2a31 b0bd 6235 4f3d 2b37 52be f7f7 30bc
000000b0: beb7 2d3e afed 2fbc b6dd a2be 0f59 dfbc
000000c0: 399a a03e bb3c 9abe 5059 293e 7f70 d33e
000000d0: 0674 3dbe e561 f4bd 5659 acbe 3b7e 03be
000000e0: f855 07be 4b88 2b3e 95c2 623e 24da 80bc
000000f0: b390 523d 201a e13c b91f fa3d 3801 093d
00000100: e265 f3be f6bf d73e 738b 0f3f 1f8c 14bf
00000110: 2a34 273f 859c 243f b7a3 3bbe 2a95 f03e
00000120: 8ea1 153e 0936 603e 2869 163d 7454 c1be
00000130: ccc6 c13e 6114 1abe 2562 12be 92b4 4dbe
00000140: d1a9 59bd 5da0 1ebf ee33 e43e f29b 3a3f
00000150: a24a 09bf bbbd bdbe eec0 d9bd b953 453e
00000160: 2175 c3be ed42 723e b3f1 d73d 9e1a 6b3e
00000170: 4f5b 9b3d ffec 103e 0673 3a3e 49e1 e6be
00000180: e861 03bf 2a4c 9d3d bdf9 c63e 149a 13bf
00000190: e6ef d93e 7c60 bd3e ed8f 633c c60d db3e
000001a0: 6b8e d63d 8ae5 b2bd 5e3d 1b3f 4672 05bf
000001b0: 35ea 883d 2ce9 a9be daa3 89be 4373 d3bd
000001c0: e98a e13c 2fa4 90be 8917 093f 2eab 973e
000001d0: 4783 bfbe 21d2 bcbd 11d1 babd 027b 9c3e
000001e0: fa11 b5be 9f5b fabd f340 87bd 7014 5b3e
000001f0: 0ef2 a73e 0a42 2d3e 94c0 7b3e 809a bcbe
00000200: ee1b 16be 4d50 d23d 07da 0ebe 2680 02be
00000210: 8606 b03d 6ba4 c93d e102 c3bd 0df9 1a3d
00000220: b753 6a3c ce07 91bc 085a 19be b9a6 3d3e
00000230: ea50 d0bb b087 68bd 6651 eb3e 5f88 cd3e
00000240: a579 60bf 120c 633e 03fc 31bd 18bd fdbd
00000250: 03ce ac3c 46cc a9be c3f6 2a3e 19da dcbd
00000260: 64fc fb3d 95da 4e3d beeb 8d3c 5f87 093b
00000270: 3790 64be 206c b2be d2dd 233e 69a1 1bbe
00000280: 4810 d83e a6dc 8fbd 867c 4b3d 1ceb 0d3e
00000290: e2d0 61bc 6363 abbe d0cd fb3e 0d88 153f
000002a0: 3843 18be f9c8 a6bd cac6 b8be 4fba a53d
000002b0: 04be e9bd 02bc b33e f7cc 0dbf ed0a 61be
000002c0: 4479 783f 1c39 aebe 3f64 943b dbf6 813e
000002d0: 42d2 87bc 02ad 9cbb 83c5 10be ab73 0e3e
000002e0: 67d9 d6bd 23bb e5bd 443d 463d cf2d 9fbd
000002f0: 0855 ee3e 7ac1 1a3f 589f 07bf b90b 2c3d
00000300: 2402 763f 997c a1be f71e c8be 296d 0f3f
00000310: d552 34bf 35e7 1bbf ca79 db3e 04ae 22be
00000320: 6c1e 61be c23a 32bf 7ab0 33bf 1486 133f
00000330: de95 c1be d675 293f a9ae 5dbe a0b2 5abe
00000340: 905a de3e 5152 bcbd 5702 f0be 80fc 2ebf
00000350: 0f8c 3a3f a0be 6d3e 71df bb3d 15eb f0be
00000360: 7c12 8e3e e577 a4be 039d 9ebc 810d 1dbf
00000370: b023 2e3e 1086 cd3e 3465 52bf 4cd7 563e
00000380: 86c1 5abe 5930 c03e 5b63 d23e e578 b5be
00000390: 0ed9 fa3e f98c 9d3e 8ae1 10be 70d1 d23e
000003a0: 3c5f f7bd 8ca6 df3d 6aa5 293e 752d 90be
000003b0: c4c5 b43d fbdc cfbe 9fe4 a9be b769 dcbd
000003c0: 1792 be3d a7bb e5be 40d5 833e 7e28 063f
000003d0: 5011 86be 60eb a3be dc4c d2bc 151b 063d
000003e0: 1eaf e8be 0696 e93d 02a2 23be cc7e 513e
000003f0: bcd1 c03d f1bb 30bd e24f 893e 2ba1 93be

enc.0.mab1.fc_k.bias f4 [32]
-0.10228958 -0.23888065 0.19175844 -0.1587776 0.1634307 0.15879755 0.00366429 -0.04020897
0.19513863 -0.077712476 -0.16878022 0.12889633 -0.042833447 -0.039824124 0.0697812 -0.1988994
-0.13939856 0.024206549 0.14270374 -0.1613276 -0.15545483 -0.016325623 0.024907565 -0.113581695
-0.17153992 0.15354213 0.12103044 0.0124625405 -0.04868663 -0.058623668 0.0109269675 0.07836727
00000000: 337d d1bd 219d 74be 535c 443e 9896 22be
00000010: 615a 273e d39b 223e 9624 703b 29b2 24bd
00000020: 6cd2 473e b827 9fbd b9d4 2cbe 66fd 033e
00000030: 2072 2fbd 9f1e 23bd 72e9 8e3d 49ac 4bbe
00000040: 7fbe 0ebe d04c c63c ee20 123e 1033 25be
00000050: 8d2f 1fbe 50bd 85bc f30a cc3c 859d e8bd
00000060: 29a8 2fbe 263a 1d3e cfde f73d af2f 4c3c
00000070: a26b 47bd 5f1f 70bd 0607 333c 057f a03d

enc.0.mab1.fc_v.weight f4 [32, 32]
-0.1966345 -0.37546447 0.29928395 -0.3848186 -0.08956746 -0.023804486 0.12975381 -0.038016107
0.22895303 0.00897786 0.3779332 0.09976862 -0.03515552 -0.017867252 -0.08278256 -0.065734036
0.014716602 -0.0577745 -0.26029763 -0.06878523 0.03586609 0.4212987 0.041219134 0.04989587
-0.034891754 -0.087020084 -0.31454805 0.13190421 0.07310297 -0.027194565 -0.034857076 -0.14054883
-0.07857659 0.23259301 0.09885581 -0.03250941 0.027963482 -0.3893192 0.0668418 0.028241403
-0.22991194 0.019749187 -0.34401456 -0.039049022 -0.37561288 0.19058473 -0.19809173 0.32922754
-0.096526474 -0.09868279 0.2847096 0.031292565 0.23790976 0.5726149 -0.12046639 -0.3302512
0.283808 -0.053045433 0.06774309 0.10941655 -0.14614327 -0.14098927 -0.12476928 0.3237663
-0.29936543 0.14776647 -0.14233343 -0.049135655 0.16435182 0.06133322 -0.16747624 0.26236144
0.17588493 -0.6108224 0.6383602 -0.17279944 0.5642595 -0.04282223 0.07666356 -0.6489749
-0.08385131 0.17595442 0.12814723 -0.17616911 -0.31601125 -0.11873065 0.007845274 -0.08672799
-0.39712012 -0.5044025 -0.49174976 0.5209093 0.3430407 0.20109352 -0.19659247 -0.21931393
-0.23063819 -0.37217644 0.20223284 -0.16085218 -0.576538 0.058273826 0.047327418 -0.36481202
0.14918761 0.08097471 0.13680789 -0.16686603 -0.30344558 0.20216738 0.09419228 0.33091322
0.06921502 -0.051759154 0.15561809 -0.219119 0.06708018 -0.28520593 0.23253588 0.21235
-0.021967709 0.41419414 0.41017398 0.091641225 -0.17148338 -0.12477846 0.26005837 0.19431998
-0.41732553 0.14134228 0.26637957 -0.30062506 0.43962157 -0.09225538 0.00847662 0.40277886
-0.586935 0.3325344 0.40279332 -0.21940625 0.29519126 -0.19954793 -0.5873594 -0.42473808
0.27635297 -0.14971043 0.029096557 0.3649234 -0.2869716 -0.17668357 0.112341896 -0.20262359
-0.28049737 0.3477472 -0.03310589 0.030298444 0.28662255 0.17493422 0.016284598 0.15429698
0.1777353 0.22546534 0.07691762 -0.21487811 0.13162203 0.3141524 -0.11918289 -0.0048634848
-0.106123336 0.093522206 0.28642654 0.11166081 -0.2352595 0.30008742 0.21988676 0.1978674
-0.13950014 -0.015139833 0.0090715 0.026580071 -0.25656974 -0.11042362 -0.7114146 0.038524363
-0.30735812 0.17472844 0.35408095 0.059942313 -0.33722094 -0.30784518 0.23242843 -0.41887
-0.12485653 -0.06951804 0.07472512 -0.23536539 0.20202194 -0.017195975 -0.24280608 0.07546839
0.20468535 -0.053838618 0.23168154 -0.0035835311 0.18116906 -0.031193936 0.019865656 -0.26591375
-0.048072 -0.15442458 0.090592876 0.18098387 -0.36100954 -0.4369953 0.10817035 0.16546533
-0.05006767 -0.10075615 0.07390747 0.45798022 0.211235 -0.084089085 0.15733539 -0.37411773
0.12584393 -0.06222869 -0.017538462 0.21343467 -0.0027402027 -0.11602205 0.112018265 0.026398653
0.13799798 -0.32704815 -0.0634544 0.2341617 0.1357396 0.07710933 -0.116012655 -0.00912893
0.33077422 -0.20428893 0.3756018 0.06565088 -0.014631817 -0.012705576 -0.3118925 -0.3641579
-0.31868455 -0.15634938 0.34958488 -0.1592676 -0.14705239 0.16224572 -0.280679 0.065706514
00000000: 8e5a 49be e13c c0be bf3b 993e f206 c5be
00000010: 256f b7bd a001 c3bc 2fde 043e c7b6 1bbd
00000020: aa72 6a3e e017 133c 7680 c13e 7e53 cc3d
00000030: 3cff 0fbd 585e 92bc e789 a9bd 919f 86bd
00000040: e71d 713c f4a4 6cbd bb45 85be 45df 8cbd
00000050: 52e8 123d 77b4 d73e 65d5 283d 9d5f 4c3d
00000060: a8ea 0ebd 9637 b2bd 710c a1be e611 073e
00000070: 03b7 953d 23c7 debc 4bc6 0ebd 08ec 0fbe
00000080: c3ec a0bd dd2c 6e3e ea74 ca3d 9628 05bd
00000090: ac13 e53c d954 c7be 5be4 883d 845a e73c
000000a0: 096e 6bbe 0cc9 a13c ad22 b0be def1 1fbd
000000b0: 5550 c0be a528 433e 8fd8 4abe 8390 a83e
000000c0: acaf c5bd 341a cabd 75c5 913e a22c 003d
000000d0: 9e9e 733e e496 123f 15b7 f6bd af16 a9be
000000e0: 484f 913e 2b46 59bd e4bc 8a3d c915 e03d
000000f0: 95a6 15be 7e5f 10be 0987 ffbd b2c4 a53e
00000100: 6d46 99be 1850 173e dbbf 11be 7842 49bd
00000110: d84b 283e 8b38 7b3d e47e 2bbe 3d54 863e
00000120: 2e1b 343e db5e 1cbf 936b 233f 56f2 30be
00000130: 5073 103f 5d66 2fbd c901 9d3d 3823 26bf
00000140: 3cba abbd 652d 343e 0739 033e ad65 34be
00000150: 3acc a1be 0e29 f3bd 7789 003c 729e b1bd
00000160: 5453 cbbe 8620 01bf a0c6 fbbe 505a 053f
00000170: 08a3 af3e 76eb 4d3e 894f 49be d593 60be
00000180: 6b2c 6cbe e98d bebe 2016 4f3e 6fb6 24be
00000190: ff97 13bf 89b0 6e3d 65da 413d a4c8 babe
000001a0: a3c4 183e 12d6 a53d 5e17 0c3e eede 2abe
000001b0: 385d 9bbe f704 4f3e e2e7 c03d 756d a93e
000001c0: 9bc0 8d3d 6801 54bd 595a 1f3e bb60 60be
000001d0: 5561 893d 8306 92be e31d 6e3e 4772 593e
000001e0: a0f5 b3bc 4111 d43e 5302 d23e 65ae bb3d
000001f0: 5799 2fbe d98b ffbd 5f26 853e d1fb 463e
00000200: b1ab d5be 08bc 103e e762 883e 87eb 99be
00000210: 1416 e13e 63f0 bcbd 85e1 0a3c 0839 ce3e
00000220: 5f41 16bf f341 aa3e ed3a ce3e 08ac 60be
00000230: 4f23 973e 4b56 4cbe 305d 16bf 4577 d9be
00000240: 237e 8d3e b14d 19be e75b ee3c 3dd7 ba3e
00000250: f1ed 92be 8aec 34be 8213 e63d 8f7c 4fbe
00000260: 5a9d 8fbe ec0b b23e 0b9a 07bd 7134 f83c
00000270: 31c0 923e f521 333e 4767 853c 0700 1e3e
00000280: 3e00 363e 63e0 663e fc86 9d3d 0209 5cbe
00000290: edc7 063e 95d8 a03e 2916 f4bd de5d 9fbb
000002a0: 3157 d9bd 9288 bf3d 80a6 923e 6cae e43d
000002b0: dee7 70be 0fa5 993e ff29 613e c09d 4a3e
000002c0: 20d9 0ebe 100d 78bc a1a0 143c 73be d93c
000002d0: 1c5d 83be c725 e2bd 441f 36bf b9cb 1d3d
000002e0: 0b5e 9dbe 03ec 323e 194a b53e 1286 753d
000002f0: 39a8 acbe e29d 9dbe b801 6e3e 2176 d6be
00000300: c8b4 ffbd 795f 8ebd 7c09 993d a003 71be
00000310: d7de 4e3e 93de 8cbc 28a2 78be 2c8f 9a3d
00000320: 0999 513e e285 5cbd ed3d 6d3e add9 6abb
00000330: 6284 393e 6d8a ffbc 4dbd a23c d925 88be
00000340: 25e7 44bd 7a21 1ebe c288 b93d d653 393e
00000350: 3ed6 b8be d9bd dfbe 6b88 dd3d be6f 293e
00000360: c213 4dbd 3e59 cebd cd5c 973d 627c ea3e
00000370: fd4d 583e e636 acbd 871c 213e 5c8c bfbe
00000380: 3bdd 003e 83e3 7ebd d2ac 8fbc 9e8e 5a3e
00000390: f994 33bb f89c edbd d569 e53d fd41 d83c
000003a0: 584f 0d3e db72 a7be 61f4 81bd 16c8 6f3e
000003b0: 52ff 0a3e 7feb 9d3d 0b98 edbd 8291 15bc
000003c0: 3d5b a93e 1e31 51be e14e c03e f873 863d
000003d0: 4aba 6fbc 0c2b 50bc 60b0 9fbe e772 babe
000003e0: 9f2a a3be 0d1a 20be cafc b23e 0c17 23be
000003f0: e794 16be be23 263e 28b5 8fbe 2391 863d

enc.0.mab1.fc_v.bias f4 [32]
0.21790208 0.21221347 -0.1847978 -0.09601064 0.24539645 -0.052584216 0.19842018 -0.28293917
0.29838616 -0.17583548 -0.08680111 -0.20379272 -0.04397731 -0.048234608 0.059419554 -0.46727937
0.2516781 -0.09385614 0.23622578 -0.10226668 0.00075775525 -0.1252535 0.4569311 0.3068248
-0.010446527 0.4383116 -0.21402593 0.15335497 -0.21708582 -0.1637057 0.23366258 0.21741575
00000000: b921 5f3e 7d4e 593e a23b 3dbe 3aa1 c4bd
00000010: 3549 7b3e 8c62 57bd a92e 4b3e 67dd 90be
00000020: 12c6 983e 370e 34be c8c4 b1bd 0aaf 50be
00000030: 8d21 34bd a791 45bd eb61 733d 3e3f efbe
00000040: f4db 803e a637 c0bd 2ce5 713e 3171 d1bd
00000050: 18a4 463a 7442 00be e0f2 e93e 2418 9d3e
00000060: e927 2bbc 616a e03e 9d29 5bbe 1609 1d3e
00000070: bf4b 5ebe 78a2 27be 3e45 6f3e 3ca2 5e3e

enc.0.mab1.ln0.weight f4 [32]
0.9861648 0.7655658 1.0755423 1.0797514 1.1227394 0.65840423 1.1393665 0.72679275
0.8239798 0.6295474 0.66093457 1.4715111 0.93604463 1.3154197 1.0838856 0.95236206
1.387558 0.8990318 0.6785123 1.5060079 1.0343918 1.2374249 1.3301135 0.99502295
1.3706214 1.2063215 0.48298553 0.91094613 0.9618763 0.70999306 1.0056579 0.79984015
00000000: 4c75 7c3f 1ffc 433f 5fab 893f 4b35 8a3f
00000010: edb5 8f3f 2e8d 283f c3d6 913f 170f 3a3f
00000020: 57f0 523f 052a 213f 0233 293f 7a5a bc3f
00000030: 9fa0 6f3f ac5f a83f c3bc 8a3f 00ce 733f
00000040: 809b b13f f326 663f fbb2 2d3f dec4 c03f
00000050: f366 843f f063 9e3f 2941 aa3f d3b9 7e3f
00000060: 8670 af3f be68 9a3f e149 f73e c433 693f
00000070: 863d 763f 1bc2 353f 66b9 803f 53c2 4c3f

enc.0.mab1.ln0.bias f4 [32]
-0.46431154 0.092801295 -0.16209494 -0.13593946 -0.046451498 0.2332276 -0.006733518 0.0579558
-0.03487486 -0.0331425 0.21123925 0.18691492 0.05756424 -0.027286746 0.4024542 0.10781406
-0.17341079 -0.00011731477 -0.07552561 -0.07524076 -0.1689626 0.38898152 -0.2972492 -0.17834689
0.54590404 -0.20026188 0.1989871 0.17101528 -0.115769856 0.5456654 0.05703672 0.43126127
00000000: 3eba edbe 9b0e be3d 37fc 25be b733 0bbe
00000010: ed43 3ebd 37d3 6e3e d8a4 dcbb 1063 6d3d
00000020: f1d8 0ebd 6ec0 07bd 1a4f 583e a066 3f3e
00000030: 7bc8 6b3d 7488 dfbc 7a0e ce3e 9ecd dc3d
00000040: 9992 31be e306 f6b8 2cad 9abd d417 9abd
00000050: 8804 2dbe 9628 c73e 0c31 98be 91a0 36be
00000060: 5ec0 0b3f 7311 4dbe 46c3 4b3e a11e 2f3e
00000070: bf18 edbd bab0 0b3f 569f 693d 47ce dc3e

enc.0.mab1.ln1.weight f4 [32]
0.9712242 0.6491543 1.016687 1.033997 1.3331478 0.96680623 1.6409945 0.7634688
0.7339713 1.0754304 0.9105977 0.992461 1.1030263 0.8552867 0.9620932 1.0873225
1.216834 1.003277 0.8703978 1.1762216 1.0982225 0.8523231 0.44065446 0.9605883
1.2274599 0.6108148 0.8967922 0.8577881 1.1039221 1.3140156 1.247801 1.3162823
00000000: 26a2 783f fa2e 263f cd22 823f 045a 843f
00000010: 96a4 aa3f 9d80 773f 1c0c d23f b172 433f
00000020: 8be5 3b3f b4a7 893f ee1c 693f ed11 7e3f
00000030: f72f 8d3f 12f4 5a3f bd4b 763f 622d 8b3f
00000040: 37c1 9b3f 616b 803f 64d2 5e3f 6e8e 963f
00000050: 8e92 8c3f d931 5a3f 769d e13e 1de9 753f
00000060: 681d 9d3f 5c5e 1c3f 2c94 653f 0098 5b3f
00000070: 524d 8d3f aa31 a83f f1b7 9f3f f07b a83f

enc.0.mab1.ln1.bias f4 [32]
0.14642543 0.11163291 -0.037965458 0.00034224763 0.017535655 0.03030983 0.015183897 0.076036386
0.03195679 0.12219645 -0.064875536 0.12036074 0.16617148 -0.013828077 0.11279807 -0.06286811
-0.098583505 0.15767187 0.09051316 0.12905395 0.08286389 0.03472192 -0.37723792 -0.20011139
-0.0012553761 -0.18129954 0.09944016 -0.024350915 0.007814796 0.13562833 -0.23319945 -0.017166145
00000000: 8cf0 153e cc9f e43d ab81 1bbd b36f b339
00000010: efa6 8f3c 524c f83c e1c5 783c f7b8 9b3d
00000020: 1fe5 023d 2242 fa3d 77dd 84bd b17f f63d
00000030: db28 2a3e 298f 62bc ad02 e73d ffc0 80bd
00000040: 26e6 c9bd bc74 213e f75e b93d b826 043e
00000050: 8bb4 a93d 9238 0e3d 5425 c1be 00ea 4cbe
00000060: 6f8b a4ba 96a6 39be 48a7 cb3d 927b c7bc
00000070: a109 003c 27e2 0a3e d6cb 6ebe 04a0 8cbc
