set_transformer_heads2_inds32_hid82.pth (torch, 726418 bytes, 60 tensors)

enc.0.I f4 [1, 32, 82]
00000000: 65c9 99bc 66ba 4d3d 9f8b 0e3d b15d c93c
00000010: ced1 cd3c e0ad a839 0566 68bc e3a1 03bc
00000020: b4fa 0d3c 9346 2ebd f608 1abd 77e5 9f3b
00000030: 36c3 57bc ad25 623c d62f 6a3a 4784 493b
00000040: 4b52 5f3c f26b 4cbc e31e 44bb 59b4 8dbc
00000050: 5910 873c bf9d 9e3b 000c f5bc d00e bd3c
00000060: fc85 4fbc b1ed 523c 2d8a 0abd 51a6 f8ba
00000070: 46ee 9dbc 0add a63a c595 983b 1998 fbbb
00000080: 5de7 903b fd2f 1ebc b411 d73b 0409 d83c
00000090: 6963 0c3a f6b0 f8bc 1527 baba 0323 c3bc
000000a0: 8a74 debb 446e 37bb d546 b4bb 38d6 25bc
000000b0: 8529 a0bb 0538 04bc fdd1 113d 08e8 a2bc
000000c0: 0474 88ba 6f2e 2c3d 3317 f63b 8fbc e63a
000000d0: 171b 81bc b588 97bc c07a 4b3d 793c 753c
000000e0: ffca cfbc 52ff b43c 9c29 803c b869 393d
000000f0: 1499 b13b 8c50 8fbb 4c83 62bb 2b3d 99bc
00000100: 2af3 0dbc 59a3 653c 9dd3 28bc 9713 6b3c
00000110: 7621 d1ba 80c1 0dbd 7a9c cb3d acb7 94bc
00000120: d3b7 2fbd 7774 243d 9bbd e83c 3069 3bbb
00000130: b450 433c ea3b 68bd b8ba b93c d354 d53c
00000140: b3a4 c63b dd22 333c b1c7 f33c 337f b63c
00000150: deb6 093d b1f1 cd3c 4acb 643c 6149 113c
00000160: 4d61 9f3a 3190 36bd 03ff 8c3c 6d9f 84bc
00000170: df08 20bd cbc8 e6bb a195 d13c 79f5 893b
00000180: 2ff4 6a3c 1bdf c1bb d22e a13c 6b22 1abc
00000190: b8bf ee3c 2c68 773c 3f12 c73c 8df6 763c
000001a0: f117 52bc 4a91 89bc c911 2abd f82e fcbb
000001b0: c2b6 03bd 25be 3e3d d5c5 7cbc c207 e73c
000001c0: 27b4 9f3c c9a5 efbc 578b f73c 3bd0 7fba
000001d0: 3e07 a1bc fc5d 243d 6c95 7cbc 51bd 1bbd
000001e0: f39a eb3b 79a4 c7bc 32f1 763b 3503 573c
000001f0: 95dc 0ebd 33ab f63b 8492 edbc 91cc 473c
00000200: b656 9fbc 54a9 1fbc 13cf 1ebc b574 e23c
00000210: e454 5ebd 62cb 37bc 48db 08bd 90e2 c7bc
00000220: 3b88 133c 0e10 1b3c c4e9 bbbc db9c 693d
00000230: a82b a93b 36a1 343d 8cd5 cb3c 4eab 25bc
00000240: cf71 7a3c b76b 1fbd 418b e73b 2562 8bbc
00000250: fca3 8a3b b6ea 973b 3cd2 57bd fd99 9e3c
00000260: bf31 883c 3234 31bc 64ac 8dbc 3be5 e33c
00000270: d4e6 cebc 5683 80ba 496a a73b 5b43 21bd
00000280: a7d4 11bd 9723 f33c 8dc1 2fbc 465f b0bc
00000290: 746b e6bc 307c 7abb 5ded 2a3d 84b3 a93c
000002a0: 56e6 e23c 1529 42bd 437a 73bc 9040 9539
000002b0: 9512 123c 1d73 13bd d052 a83a f411 95bc
000002c0: 64cd fdbc 0cfa acbc b68e bebc 1370 18bc
000002d0: f5d3 853c c60c afbc 7cce f23c 8d7e 50bd
000002e0: 85d8 64bb f9a0 2c3c b79c 19bc 5530 dbbc
000002f0: fcf0 e1bb 823d 083d 890e 13bd 9f86 5c3c
00000300: 29d8 1fbc 216b 1ab9 b7e7 bf3c ff79 33bc
00000310: 94c7 a8bb cd8e 1dbd b713 cfbc b9da 9bbb
00000320: c197 5e3c fac5 3cbc 8ad6 0fbd 0fb4 69bc
00000330: 09de 1cbd 74af 933c 3104 33bb b279 c13c
00000340: 6f67 273c 503f 393d 35f8 dfba 437a 0939
00000350: c92e d8ba b210 bb3b 40db 7e3c 81ca 1cbc
00000360: 3cff 9e3b 2be3 07bd eb84 e53c 8f77 193d
00000370: 62ca 8cbc f452 023d 5e43 cb3c 1402 973c
00000380: b452 323c a014 c4ba 9f62 053c a92e c2bc
00000390: 38da 49bd 6b60 f8bc 2a33 1c3d beb0 803b
000003a0: e641 003c 09cd 09bc 8248 913d cbce cfbc
000003b0: 8561 cf3b bedc 65bc 7833 753c dd18 1c3c
000003c0: ef9b ba3c e6ca bf3c cc92 77bc 6a62 123b
000003d0: 5483 4a3c c3ad 9e3b 9d40 ee3c 6cb7 6ebb
000003e0: 7e52 54bc b462 78bc 7982 a23c 5c85 92bc
000003f0: 35f2 28bd 8b75 3f3b 4f40 493c bc71 283d
-0.01877279 0.05022659 0.03480112 0.024580808 0.025124457 0.00032173004 -0.01418448 -0.008034202
0.008665729 -0.042547774 -0.037606202 0.0048796493 -0.0131691005 0.013802928 0.000893352 0.003074901
0.01363046 -0.012476908 -0.0029925636 -0.01729791 0.016487287 0.004840582 -0.029912949 0.023078352
-0.012666222 0.012874053 -0.03382318 -0.0018970465 -0.019278657 0.001273067 0.004656526 -0.0076780436
0.004422112 -0.009654996 0.0065633897 0.026371486 0.00053553894 -0.030357819 -0.0014202321 -0.023820406
-0.006788795 -0.0027989307 -0.005501608 -0.0101218745 -0.004887762 -0.008069997 0.03560065 -0.019886032
-0.0010410552 0.04203647 0.00751009 0.0017603802 -0.015759988 -0.018497804 0.04967761 0.014968031
-0.02536535 0.022094402 0.01564484 0.045266837 0.0054198597 -0.0043736156 -0.0034563122 -0.018705925
-0.008663932 0.014015996 -0.010304359 0.014347932 -0.0015955407 -0.034608364 0.09941955 -0.018153988
-0.042899918 0.040150132 0.028410723 -0.0028596632 0.011921097 -0.056697764 0.022672042 0.026041424
0.006062114 0.010933605 0.029758306 0.02227745 0.03362166 0.025139662 0.0139644835 0.008867593
0.0012159735 -0.044571105 0.017211443 -0.016189301 -0.03907096 -0.0070429794 0.025584044 0.004210171
0.0143404445 -0.005916489 0.019675646 -0.00940762 0.029144153 0.01510052 0.024300693 0.015073431
-0.012823091 -0.016792912 -0.041520867 -0.007696029 -0.032156713 0.046568055 -0.015428026 0.028201941
0.019495083 -0.029253857 0.03021781 -0.0009758507 -0.019656774 0.040128693 -0.015416484 -0.038022343
0.0071901022 -0.024370419 0.0037680385 0.013123323 -0.034878332 0.0075277328 -0.029000528 0.0121947685
-0.019450527 -0.009744961 -0.009692925 0.02764354 -0.054280177 -0.011217924 -0.033412248 -0.024400026
0.009004648 0.009464277 -0.022938617 0.057034355 0.005162675 0.044099055 0.0248821 -0.010111643
0.015285923 -0.038921084 0.007066161 -0.017014572 0.0042309742 0.004636134 -0.05269073 0.019360537
0.016625283 -0.010815667 -0.017294116 0.027819267 -0.025256552 -0.0009804766 0.0051091057 -0.039370876
-0.03560319 0.029680056 -0.010727298 -0.021529805 -0.02812741 -0.0038220994 0.041730274 0.020715483
0.027697723 -0.04740246 -0.014860692 0.00028467597 0.008915563 -0.035998452 0.0012842063 -0.018197037
-0.030981727 -0.021115325 -0.02326141 -0.009304064 0.01633642 -0.021368396 0.029639475 -0.05090194
-0.0034919095 0.010536426 -0.009375743 -0.026756445 -0.0068951827 0.033261783 -0.035902534 0.013459831
-0.009756126 -0.00014726493 0.02342592 -0.010954379 -0.0051507447 -0.038466264 -0.025277955 -0.0047562984
0.013585986 -0.011521811 -0.03511671 -0.014264121 -0.038297687 0.018027999 -0.002731573 0.0236176
0.010217532 0.045226395 -0.0017087521 0.00013110884 -0.0016493435 0.0057087773 0.015555203 -0.009569765
0.0048522037 -0.03317563 0.028017482 0.037467536 -0.017186347 0.03181739 0.024812397 0.018433608
0.010883976 -0.001495976 0.008141189 -0.02370389 -0.049280375 -0.030319413 0.03813473 0.0039273193
0.007828211 -0.008410701 0.07093908 -0.025367161 0.006328764 -0.01402968 0.014965884 0.009527412
0.022779433 0.02341218 -0.015110683 0.0022336491 0.012360413 0.0048424914 0.029083544 -0.0036425246
-0.012959121 -0.015160251 0.019837605 -0.017885856 -0.04124661 0.0029214348 0.012283399 0.04112409

enc.0.mab0.fc_q.weight f4 [82, 82]
00000000: f123 cfb9 224b 833c d34a 24bd 00c3 c33c
00000010: 4a30 a6bc 8b55 a43c b39e 6b3c e4db 193d
00000020: 4cfe adbc 7a4e f23a 15a2 7d3c 7bcd feba
00000030: ee0e bbbc a425 1a3b 91f5 903b 6ae8 6bbc
00000040: 13f5 c43b 0d4a 9d3c 349d 28ba 79ea 4fbb
00000050: 782e 75bd fc1f ce3b 4844 e13c 68db ad3c
00000060: fe30 723d 22da b13a 773b 293d 608a 49bc
00000070: ab72 603c 64e9 3dbd f3da e4bc b397 ce3c
00000080: ebd9 de3b 26ee b43c bb73 683a bc83 d7bc
00000090: ffee a43c bfb4 393d 4a77 8c3c 60ac 403c
000000a0: 39b5 dc3c 9c39 3abc 41c3 213c 85ac 82bc
000000b0: f9e8 2c3c e255 93ba c1e0 5d3b 89b0 a5ba
000000c0: 6e69 753d e96c 0bbd 0d71 d53c 9533 693c
000000d0: 2117 2c3b 2970 373c 1ec0 f4bc 7a8b 4abb
000000e0: c42a 8dbd 0123 2dbd 91ad a8bc 61d1 b7bc
000000f0: 9509 18bd a0a6 603d 81cf 9abc 1938 623d
00000100: 1ae2 0c3d 82bc 0f3d bc31 68bc 094f 78bd
00000110: 5a34 cd3b e3bc 843c ed7a 533e 8dbf a4bc
00000120: 0eee a53c 9890 49bd 21b7 5b3d 9c59 c4bc
00000130: 3cff 18bd 827c d53c 901d 073c f381 0bbd
00000140: ebb3 453b 959d 053c 2a27 afbc a6c9 31bc
00000150: 4c71 c83c 0a80 6d3d 6004 f73c e2a2 dbbb
00000160: 1ea9 71bc 91b5 893c 9912 873c 755d c13c
00000170: a4ec 0fbc 09d9 9cbc d3c3 0d3d fb87 cbbc
00000180: ace8 53bc e4f5 b3bc 52f7 883d 04f2 d83b
00000190: a5a2 cd3c 0f9d 83bd 29c7 9cbc bf49 273d
000001a0: 9137 1fbd 1ca0 18bd 863b 393d 1bd1 96bd
000001b0: 90f7 91bc 2085 083c a949 83bd dcf5 603c
000001c0: 45d1 21bc d585 84b9 f51f 583d 4c86 bf3c
000001d0: 9b37 73bc 0471 883c a312 583c 9b33 44bd
000001e0: e3a9 1a3b 038b 3abd 5efb 68bd 68a3 b13b
000001f0: 8c4a dfbc ca21 823c f96f ca3b 09f5 5c3d
00000200: 4860 02bb efb9 efbc eb0b 153d 64cb d03b
00000210: 449f 88bd 21aa d0bd ebbc fcbc 64ee f2bc
00000220: 0bf3 313d 1f24 893d 0555 8ebd 8d54 983d
00000230: 4f87 4cbc 3a6a a7ba 8d7b d03c 8cb3 d93c
00000240: e5fc 9a3d 8fc8 793c e45c 3c3d b6d3 0ebd
00000250: 3ba7 d83c 0916 d1bb fdcf dd3a f70f 3e3b
00000260: db10 8abd c2af 1ebd 122e 563c 92d1 0f3d
00000270: 9dc2 d8bd 10d4 8b3c a8b4 de3c 66a3 fd3c
00000280: b9da f0bc e8e1 333c 2ea5 a13c bc26 ccbc
00000290: dab8 273d ebdd e9bc 1e7e 43bc d478 b0bc
000002a0: 2791 3abc 7bfd 183d 9f82 633c e351 de3c
000002b0: f30d ffbc 8844 b83c 7edb a2b8 f546 873c
000002c0: 6781 45bc a897 843c 818b d73c 9496 193d
000002d0: fba0 27bd 26cc d23c 583b 94ba 303e a03c
000002e0: 1b66 10bb dcae 03bd 521b 323d 9787 9c3c
000002f0: 3503 863c 7514 bebc 5dc0 973c 263a cbbb
00000300: d1cb 01bc 315c 4ebd f6c5 a2bc 0cb3 1a3d
00000310: bead 8bbb db69 0c3d 4a90 f93c 3f09 b33b
00000320: f18b 10bd 5c06 113c ca65 14bc 6f4b 973c
00000330: 2a4d 023d 0fc8 f8bc 0623 413d 1539 e8bc
00000340: 3fd4 083d 5075 92bc 1adf 10bd 3528 b73c
00000350: cdf5 ba3c d640 063b a811 6dbb 1b96 33bd
00000360: 5323 173c 878a 943c 0dfb 973c 705d 41bc
00000370: e283 90bb 7c38 e0bb 9678 47bc 1db9 80bc
00000380: 76fc dfbc 49d1 b13c ced1 42bb c018 1f3d
00000390: 9f5d 5abb 331d ac3c 221c 19bd 4b50 50bd
000003a0: 5edb 383d 13c5 cd3b d29d 1abd 6ea8 233c
000003b0: 0de6 a33c 2f46 eabc 851b 98bd 2cd4 05bd
000003c0: c4d7 afbc 0463 783c 6c91 213d 495f afbc
000003d0: 6a6b f03c b5a0 68bc 41ca a0bc dc83 a5bb
000003e0: 0e1c 013d 23da 713c 169a 953c 2e82 97bb
000003f0: 8c35 36bd 0556 a03c 243c 403d e112 013d
-0.00039508895 0.016027037 -0.04011042 0.023896694 -0.020286698 0.020060321 0.014381099 0.03756322
-0.021239422 0.0018486523 0.015480538 -0.00194399 -0.022834267 0.002352097 0.004423805 -0.014398674
0.0060106604 0.01920035 -0.00064321165 -0.003172545 -0.05985877 0.006290434 0.02749838 0.021222785
0.059128754 0.0013569037 0.041316476 -0.012301058 0.013699214 -0.046365157 -0.027936434 0.02521882
0.00680088 0.022086214 0.0008867343 -0.026307933 0.020133493 0.04533839 0.017146725 0.011759847
0.026941882 -0.011366274 0.009873212 -0.015951404 0.010553592 -0.0011240805 0.0033855888 -0.0012641113
0.059915 -0.03403941 0.026054883 0.0142334895 0.0026258903 0.011196175 -0.029876765 -0.0030905888
-0.068929225 -0.04226971 -0.020590575 -0.022438707 -0.037118513 0.054846406 -0.018897774 0.05522928
0.034395315 0.035091884 -0.014172014 -0.06062225 0.0062623443 0.01620335 0.20652361 -0.02011087
0.020255115 -0.04921016 0.053641442 -0.02396851 -0.037352785 0.026060347 0.008246794 -0.034059476
0.0030167054 0.008155246 -0.02138098 -0.010851299 0.024468087 0.057983436 0.030153453 -0.0067027668
-0.014749793 0.01681021 0.01648836 0.023604134 -0.008784447 -0.01914646 0.03461058 -0.024845114
-0.012933891 -0.021967836 0.066877976 0.0066206474 0.025101969 -0.06426441 -0.019137936 0.040841814
-0.03887135 -0.037262067 0.04522278 -0.073641025 -0.017818242 0.008332521 -0.06410534 0.013730492
-0.009876554 -0.00025276715 0.05276485 0.023379467 -0.0148448 0.016655453 0.013188037 -0.047900777
0.0023599796 -0.04554273 -0.056880347 0.005421091 -0.027257226 0.015885253 0.006177899 0.05394462
-0.0019893814 -0.029263465 0.03638832 0.0063719023 -0.066710025 -0.101886995 -0.030851802 -0.02965469
0.043444674 0.06696343 -0.0694981 0.07438002 -0.012483432 -0.0012772747 0.025449539 0.026574872
0.07567767 0.015245571 0.045987025 -0.034869872 0.02644693 -0.0063808006 0.0016922947 0.0029001215
-0.06741496 -0.038741834 0.013072507 0.03511197 -0.105839945 0.017068893 0.027185753 0.030961704
-0.02940117 0.010979153 0.019732084 -0.024920814 0.040947773 -0.028548202 -0.011931924 -0.02154199
-0.011387146 0.037351113 0.013886123 0.027138656 -0.031134581 0.022493616 -7.7656456e-05 0.016513327
-0.012054778 0.016185597 0.026311638 0.037497118 -0.040925007 0.025732111 -0.001130919 0.019560903
-0.0022033516 -0.03214918 0.043483086 0.019107623 0.016358951 -0.023203114 0.018524343 -0.006202
-0.007922129 -0.05038089 -0.019869786 0.03776841 -0.004262655 0.03428064 0.03046431 0.0054637487
-0.03528971 0.008851614 -0.0090574715 0.018468587 0.03181187 -0.030368833 0.04715254 -0.028347531
0.03340554 -0.017878205 -0.035369016 0.02235804 0.022822285 0.0020485423 -0.0036173854 -0.043844324
0.009224731 0.018132461 0.018552328 -0.011802062 -0.004410253 -0.006842671 -0.012174746 -0.015713269
-0.027342062 0.02170624 -0.0029727104 0.038841963 -0.0033319963 0.021010017 -0.037380345 -0.050857823
0.04513108 0.0062795966 -0.037748165 0.009988887 0.020007158 -0.02859792 -0.07427124 -0.032673046
-0.02146519 0.015160326 0.039445326 -0.02140774 0.029348094 -0.014198472 -0.019627692 -0.0050511193
0.031520896 0.0147614805 0.01826195 -0.004623673 -0.04448466 0.019572267 0.046932355 0.031512145

enc.0.mab0.fc_q.bias f4 [82]
00000000: 8161 d3bd ea26 3bbe dd84 0a3e 8704 063e
00000010: b45c b3bd b90e 133e 9670 963d 6314 77be
00000020: 1276 973e 0ed4 413e 1677 a13e d2dc 9a3e
00000030: 3a61 13be f298 c1be 90c5 c93d af78 3d3e
00000040: 18ee 0e3e 0c64 bf3e 24e9 473e b605 05be
00000050: a749 c63c 8dcd 893e b997 50be 04c7 a83e
00000060: 2994 52be 6e7d ed3b 40d0 09bd f9a2 cdbe
00000070: 402e 1a3e 6c2a 1abb b161 20bf 4d12 203e
00000080: 6488 3bbc 35c0 81be 9e53 88be 927e 303d
00000090: cf78 8c3e 83e9 24be c9fd 5e3e 8e2b e13e
000000a0: 3450 4a3d 724a e13d 932a d13e 8392 d7be
000000b0: 5122 f4bd d5da 533e 24b3 57be 9651 3fbe
000000c0: 35ca 593e f4d0 e7bd 22bf 47bd 131a 933e
000000d0: 1685 783e a9b6 c23e aeee 4abc 9a28 863d
000000e0: 1c16 e53d 30e9 e03c 73d0 cb3e 35df 683e
000000f0: 2caa c33d 5da0 a6bd 7a2f 8e3d 8b88 bb3e
00000100: 5a59 ae3b 8bc6 47be 5406 1fbe 572e 03bf
00000110: 72ff 5ebd f31e a03e 1d94 9b3b c6d4 703e
00000120: 41b0 99bd d185 eb3d dd3b 9cbd 313c fcbe
00000130: 62b8 e83d 72fc 203e 5d65 463e d72c 9ebe
00000140: c07a e4ba fd2e 9fbe
-0.10321332 -0.18276563 0.13527246 0.13087665 -0.08757916 0.14361085 0.07345693 -0.2412887
0.29582268 0.18928549 0.31536168 0.30246598 -0.14392558 -0.37812 0.09852135 0.18503068
0.13958013 0.37381017 0.1952253 -0.1299046 0.024205042 0.26914635 -0.20370378 0.32964337
-0.20564331 0.0072476184 -0.03364587 -0.401634 0.15056705 -0.002352382 -0.62649065 0.15631981
-0.011446092 -0.25341955 -0.26626295 0.043089457 0.2743592 -0.16104703 0.21776499 0.43978542
0.049392894 0.110005274 0.40852794 -0.42103967 -0.11920608 0.20688947 -0.2106443 -0.18683466
0.21268542 -0.113191515 -0.048766263 0.2873083 0.24269518 0.38029984 -0.012386007 0.06550713
0.11185858 0.027454942 0.39807472 0.22741397 0.09553942 -0.081360556 0.06942649 0.36627612
0.00532071 -0.19509332 -0.15529758 -0.51242584 -0.05444283 0.31273612 0.004747881 0.23518667
-0.07504321 0.11500133 -0.076286055 -0.49264672 0.11363293 0.157213 0.19374605 -0.30893585
-0.0017431602 -0.31090537

enc.0.mab0.fc_k.weight f4 [82, 2]
00000000: 2d1e 1b3f a546 74be 430f 0fbe f3b2 04be
00000010: 7835 59bf 2766 debb a994 3c3d 6b65 3cbc
00000020: 606c 233f 2d1e 373e b9f3 eb3d 3544 643f
00000030: 5193 e83e 7684 2b3f d778 dfbe 0884 0fbf
00000040: 5c85 a4be 87f0 e33e 556e 94be ae36 803e
00000050: b4f2 0cbe 1d18 103f 31e7 2abf 9ea8 8d3e
00000060: a159 9d3e a245 803c f210 4bbe 8579 f9be
00000070: 442f fe3c 1b2a 1fbe 1a43 30bf f4ce ce3e
00000080: 273b 0abf 0b87 c13e c411 02bf 781b 473f
00000090: 0226 683e 3e66 213f 3403 37be 048b 46be
000000a0: 38c1 143f 2fa4 b73d af26 0d3e 2092 023f
000000b0: acf8 58bd 4664 21bf 0b58 e33d 34aa 163f
000000c0: 5a04 c7be b50a 30bf c483 a9be f598 68be
000000d0: 09d9 d23e c7c7 0e3d edd0 dfbe 6655 69bf
000000e0: a74b 28bf d6be 6e3e ea21 cdbe ff51 a3be
000000f0: 8436 50be b506 5dbf cd40 1cbd 24d7 833f
00000100: 5d24 353d 65f3 053e c2a2 3cbe b785 a7bd
00000110: 4aea 083f bb29 9a3e f77f fd3d 9576 a13f
00000120: 9d3c f83e 9822 703e 88fd 84bb 00bd a93e
00000130: 5369 e2bd 9e49 2c3f 3aff 4f3e b2d2 ba3e
00000140: 4246 033c e7be 213f 9b0c c93c 3258 b0be
00000150: f185 143f bd7e 94bd 46ad 07bf 756d 833e
00000160: b401 11bf d7b6 2cbe f248 383d 5707 97be
00000170: ee53 9dbe 3d8f 093f 86d8 a0be 9780 dfbd
00000180: 31f0 013f 4147 13bf 7c73 553e 76ed 463e
00000190: 4b42 173f 0494 243f a947 af3f 3bde 83be
000001a0: 6e6a 343f 1ae0 3cbe 61e7 043f e698 0ebf
000001b0: 754e 3abd 4e82 eabd 4732 80be d3a0 10bf
000001c0: bf4f a3be 3d3c 8a3e dc98 80bf f781 7a3f
000001d0: 78b0 db3e 44ba 4cbf 3e15 583f 89d6 34be
000001e0: 9413 613e d5e3 d13e e599 08bf 8dda 063f
000001f0: ea58 343e 8323 b7be 88ea 0f3f 24f4 09bf
00000200: a1f6 bb3d 18b1 293e a4bc 413d 2117 0c3f
00000210: 35d7 2f3e 7ec9 84bc c000 fabe 697b 703f
00000220: 744e b63e ce49 acbe e166 403f 53a2 8ebf
00000230: 07b3 883e 5b02 1e3f 7942 8a3e 3047 7dbf
00000240: f29c 04bf da8b 8b3a 01b1 32bd d60b 0fbf
00000250: 0be8 343e 4b49 8e39 c01b 4fbf 727b 473f
00000260: d7bf 1d3f 6eba 473e b7db 733f 1891 b63c
00000270: dfd4 1b3f 5714 f1be b0fc 4ebf aa0d a23e
00000280: 3365 80be 2d83 9a3c aa6d a9be aa7c af3e
0.6059292 -0.23855074 -0.13970666 -0.12958889 -0.8484721 -0.00678708 0.04604021 -0.011498789
0.6383724 0.17882605 0.11521096 0.89166576 0.45424893 0.66998994 -0.4364688 -0.5606084
-0.32132995 0.44519445 -0.28990427 0.25041717 -0.13764459 0.56286794 -0.6675902 0.27667707
0.30732444 0.015658204 -0.19830683 -0.48725525 0.031028397 -0.15543406 -0.6885239 0.40392268
-0.5399651 0.37798342 -0.5080836 0.7777629 0.22670749 0.63046634 -0.17872316 -0.19388968
0.5810733 0.089668624 0.13784288 0.5100422 -0.052971527 -0.6304363 0.11100777 0.5885346
-0.38870507 -0.6876634 -0.33108342 -0.22714598 0.4118121 0.03485849 -0.43714085 -0.9114593
-0.65740436 0.23314986 -0.40064937 -0.31898496 -0.20333296 -0.8633836 -0.038147736 1.0300031
0.04422413 0.13081129 -0.18421462 -0.08179801 0.53482497 0.30109963 0.12377923 1.2614313
0.48483744 0.23450696 -0.0040585436 0.33152008 -0.11055245 0.6729983 0.20312205 0.36488873
0.008012356 0.6318192 0.024542144 -0.34442288 0.5801688 -0.07250736 -0.5299877 0.25669447
-0.56643224 -0.16866623 0.04499144 -0.29497787 -0.30728096 0.5373419 -0.31415194 -0.109131984
0.5075713 -0.575306 0.20844835 0.19426522 0.5908553 0.64288354 1.3693744 -0.25755486
0.704749 -0.18444863 0.51915556 -0.55702055 -0.04548498 -0.11450635 -0.2503836 -0.564954
-0.3189678 0.26999083 -1.0046649 0.9785456 0.42908072 -0.7997172 0.84407413 -0.17659964
0.21980125 0.40994135 -0.53359824 0.5267723 0.17612043 -0.3576928 0.5621724 -0.53888154
0.091779 0.16571462 0.047299042 0.5472279 0.17171939 -0.01620936 -0.48828697 0.9393831
0.3560673 -0.33650059 0.7515698 -1.1143287 0.26699087 0.61722344 0.2700384 -0.9893675
-0.5180198 0.0010646537 -0.043625835 -0.55877435 0.17666642 0.00027138958 -0.8090172 0.7792274
0.6162085 0.19504711 0.95257133 0.022285983 0.6087169 -0.4708583 -0.8085432 0.3165105
-0.2507721 0.018861378 -0.3309148 0.342748

enc.0.mab0.fc_k.bias f4 [82]
00000000: 80c0 2dbe 3a90 51bd e4e7 24bf bf83 98be
00000010: 40a3 a73e 840b 1d3f be58 1e3f b4db 0d3e
00000020: c127 11be 7d67 0a3f 6bb4 d03c 0b2b 8abc
00000030: 83fa 083d e17d e1be 5649 55be 387c 23bf
00000040: 1f70 8dbd 7538 2fbf e012 cd3d a322 433b
00000050: 2d3d 7d3e 7760 e5be 6a6d 24bb 91e8 48be
00000060: 9751 d7be 0520 0d3f ac80 31bf 7a71 033f
00000070: f76c 34be f90a cbbe a60e 2fbf 04b0 2bbf
00000080: 5fcb 7abe 7171 e93e 3891 0e3e 6379 04bf
00000090: c05b 173f 35e2 133f de4b 933e 4bfc 2f3f
000000a0: 8216 f13e a790 cc3d f1c0 fd3e 18ae ccbe
000000b0: 271e b9bd 3c91 bbbe 1d60 03be 6f44 0ebf
000000c0: ba73 f73e 5693 8fbe 6add 5f3e bf97 253f
000000d0: 40b2 763e 7b21 0f3d 1ac9 333f 9be1 32bf
000000e0: 5e74 273f 681e 1ebf 91c3 363f b837 743d
000000f0: 6990 debe 1658 78be 118b b9be cb13 da3e
00000100: f94d 1b3f a0e1 d93e e98b 043f 6dcc 303f
00000110: 6f38 1fbf ee22 993e a594 6f3d 913b da3e
00000120: 320c 4d3e e38e a83c 8653 f13e a88c 92be
00000130: 3c10 0bbf 2785 02bf 5325 023f c9a0 a53c
00000140: da1c 13bf a33f 803e
-0.16967964 -0.051162936 -0.64416337 -0.29788014 0.32741737 0.61345696 0.6185416 0.13853341
-0.14175321 0.5406416 0.025476655 -0.016866228 0.03344203 -0.4404135 -0.20828757 -0.6386142
-0.06906151 -0.6844552 0.10013366 0.0029775284 0.24730368 -0.4480016 -0.002508963 -0.19619967
-0.42054436 0.5512698 -0.6933696 0.51345026 -0.17619692 -0.3965681 -0.68381727 -0.67065454
-0.24491642 0.4559436 0.13922584 -0.5174772 0.59124374 0.5776704 0.2876882 0.68744344
0.47087485 0.09988528 0.49561265 -0.39976573 -0.09038954 -0.36634243 -0.12829633 -0.5557317
0.4833048 -0.28042096 0.21861807 0.6468467 0.24091434 0.03494404 0.7022873 -0.69875497
0.6541194 -0.61765146 0.7139216 0.05962345 -0.4346955 -0.24252352 -0.36238912 0.42593226
0.6066585 0.4255495 0.51775986 0.6906193 -0.62195486 0.29909462 0.058491368 0.4262357
0.20024183 0.020575946 0.47134036 -0.28622937 -0.54321647 -0.50984424 0.508382 0.02021827
-0.574659 0.2504855

enc.0.mab0.fc_v.weight f4 [82, 2]
00000000: 4669 0fbe 1e07 36be 5b23 633d 2232 8e3e
00000010: fff1 db3f 9b7d 2d3d a49c 3dbd 3eb0 6dbe
00000020: 2bf3 1dbe 8013 17bf ccf5 f33e 4c81 47bf
00000030: 5252 1bbd e15e 09be b11f 293e f784 c2bd
00000040: 4853 363e 7d91 aebe dc9a 6d3d 99a0 033f
00000050: 8bb2 5c3d 0a59 a5bc e676 6f3e 7473 8c3e
00000060: 8010 edbc 507f 04bf 442b 23be d4ba 7c3e
00000070: 380e 0d3d 2bd7 a23d 9474 a53d f40a 8dbe
00000080: 9b38 c63d 1592 bdbd aec7 663e a30c 32bf
00000090: 5bf2 ae3e cd31 ed3e 0fe7 5dbd 2d64 f03c
000000a0: 25b6 01bc 8642 cdbb 529d 8b3d c1a0 483e
000000b0: d857 9abc 04a2 c33e 784e 4d3c 1fc6 16bf
000000c0: 8bc8 c1bd fc28 1c3f 7260 bfbc 2007 9f3d
000000d0: 26df 01bc 698a 803d 5855 b53e 7c92 bd3d
000000e0: 4575 473e 27e8 483f d5bc cb3f a850 053f
000000f0: 835f 6dbd 5d7d 993e 68f3 ce3e dcc6 49bf
00000100: e35c 333d 970e 94bd 4fee d23d d17e d2be
00000110: 0b01 86bf 2888 093e e029 2e3d 2034 7abf
00000120: f3ca 133d 6803 d03d f696 ddbd d186 7fbf
00000130: e7ee 0c3e af82 963e 6772 b13f 3983 f7be
00000140: 224f 40bc ee8f 83be 4c39 64bd 59f4 3bbd
00000150: 1fa9 073e 4e25 343d 5202 843e 7241 ee3c
00000160: 127a c5bc 9c11 1abd 0893 9b3e 751b 5d3e
00000170: 482e 91bd 7eec e8bd 3033 9dbe 56d2 32be
00000180: b0e5 dabd 26ed 623e 240f adbd 420f 413e
00000190: 73eb 64bf 8a88 513e 9bd5 18bf e9b0 a53d
000001a0: 9c6a ae3e 1b48 c03d d187 c6be b318 f6be
000001b0: b863 16bd 78b2 31bd f3c9 3ebd 6da1 c13d
000001c0: 0dc4 863e 8a2f 73be 6194 5e3f 7045 5fbf
000001d0: 10dc 563d ba0d a63e bd00 8cbd 1bbd 7b3e
000001e0: bc11 8dbd 093b 9ebe eebc 523f 7d5b 6abf
000001f0: dd51 533b ccbf 7b3e ba39 15be af86 1d3d
00000200: bf8d 86ba 3c14 78bc 6322 b7bd 9b53 173d
00000210: 6045 093d cbf8 8dbd 4ebe 9c3e 76ba 1bbe
00000220: 20f1 8dbf 072c 023f dbd7 d0be 0e8e db3e
00000230: 3db8 923c b44f 7cbe 890b 99be 6610 1e3e
00000240: df16 c1bd be58 6a3c eb00 ad3c d84b f3bd
00000250: 1ca1 31be 1e0d c6bd 83b6 103e 042f 92be
00000260: c6fc c03e b779 53bf e91e 7fbe 662e 823d
00000270: e338 bbbd 7b6d 013e d1b5 153d ab0f e7bd
00000280: 9d3b 7c3e d7dc d8be e7b8 15bc 4fec f63e
-0.14005002 -0.17776152 0.05545364 0.27772623 1.7183226 0.042356115 -0.046291962 -0.23211762
-0.15424792 -0.5901413 0.47648466 -0.77931666 -0.037920304 -0.134151 0.16515996 -0.09498017
0.17805207 -0.34095374 0.058009014 0.5141693 0.05388121 -0.020184059 0.233852 0.27431834
-0.028938532 -0.51756763 -0.15934473 0.24680644 0.03443739 0.07951196 0.08078876 -0.2754742
0.096787654 -0.092563786 0.2253711 -0.6955053 0.34169278 0.46327057 -0.054175433 0.029344643
-0.007916962 -0.0062640337 0.06817116 0.19592573 -0.018840715 0.38209546 0.012530915 -0.5889606
-0.09462079 0.6100004 -0.023361418 0.07765031 -0.007926738 0.062764 0.35416675 0.09256455
0.19478329 0.78479236 1.5917002 0.52076197 -0.057952415 0.29978457 0.4042008 -0.7881906
0.043789756 -0.07229345 0.1029936 -0.41112378 -1.0469068 0.13430846 0.042520404 -0.97735786
0.03608222 0.101569 -0.10819809 -0.9981509 0.13763009 0.2939658 1.3863038 -0.48342302
-0.011737617 -0.25695747 -0.055718705 -0.045887325 0.13248108 0.04398089 0.2578302 0.029083941
-0.02410606 -0.03761445 0.30385613 0.21592505 -0.070889056 -0.11373232 -0.30703115 -0.1746305
-0.10688341 0.22160777 -0.084501535 0.18853477 -0.89421767 0.20462242 -0.59700936 0.080903836
0.34065711 0.09388753 -0.38775495 -0.4806572 -0.036716193 -0.04338309 -0.046579313 0.09454618
0.2632145 -0.23748603 0.8694516 -0.8721533 0.05245596 0.32432348 -0.06836078 0.24583857
-0.06888148 -0.30904415 0.82319534 -0.9154585 0.003224484 0.24584883 -0.14572802 0.038458522
-0.0010265632 -0.015141543 -0.089421056 0.036944967 0.033513427 -0.06932219 0.3061394 -0.15207848
-1.108921 0.5084843 -0.40789685 0.42881817 0.017910117 -0.2463978 -0.29891613 0.15435943
-0.094281904 0.014303384 0.021118602 -0.118797004 -0.17346615 -0.09670471 0.14132123 -0.28551495
0.3769285 -0.826076 -0.24914135 0.06356506 -0.0914171 0.1263942 0.036550347 -0.11282285
0.24632116 -0.42355987 -0.009138322 0.48227164

enc.0.mab0.fc_v.bias f4 [82]
00000000: 9d94 453e 2e3f 8c3d f684 ccbd 47f1 dfbd
00000010: 3105 713e 4644 a93d 563b 993a d210 5c3e
00000020: 9e28 5cbe f8bc c8be 7c2c 89be b756 dabe
00000030: 0c72 843e cc05 863e 294e d6bd bbb1 fcbd
00000040: ea93 08be 8438 24be 62d2 c1be 9d88 183e
00000050: 3977 6fbd f13e 96be 6d7a 893d 0094 38be
00000060: 4e75 553d 5d94 b1bb 79a2 463d 41a2 ab3e
00000070: 0228 dcbe bf15 2ebe 4b12 fa3e 5283 8f3d
00000080: c75b 903b 6f6b a63e 2ea8 563e 96f3 5e3e
00000090: 4745 a3be d339 f73e 3c01 acbe 87af 9bbe
000000a0: fd7f 8c3d b2ae 84bd 12b0 f2be 284b c03e
000000b0: 8467 9a3d 68a6 4bbe 2cc7 273e 63fe 8d3e
000000c0: fdcb 98bd 8ee2 683e 0b5f b63e 7a46 1cbd
000000d0: 2ba1 b9be 4010 c2be 0512 b1bc 3e9b 82bd
000000e0: 92f8 9abe 959b 05bf ce7a b9be 2d54 c6bd
000000f0: 6fcd 45be eb9d f6be 696f f73c 5f49 84be
00000100: a1f2 083b 2649 903e fdee 9d3d d033 ad3e
00000110: ae96 043f 453d bcbd 099b dcbd f515 87bd
00000120: 259d 153e 89a8 5abe 0bfa 383d 02d8 d03e
00000130: 2161 febe a6b1 cbbd 00bd 8ebd 169b 973e
00000140: 28f5 4abe d5d2 f13e
0.19294973 0.06847988 -0.09986298 -0.10934692 0.23537137 0.08264975 0.0011690657 0.21490791
-0.21499869 -0.39206672 -0.2679175 -0.42644283 0.2586826 0.26176298 -0.104641266 -0.12338587
-0.13337675 -0.16037184 -0.37855822 0.14895864 -0.05846331 -0.29344895 0.06712804 -0.18025208
0.052113824 -0.0054192976 0.04849479 0.33522227 -0.42999274 -0.17000483 0.4884208 0.07007469
0.004405472 0.3250384 0.20962593 0.21772608 -0.31888792 0.48286304 -0.33594692 -0.30407354
0.06860349 -0.06478633 -0.47399956 0.3755734 0.07539275 -0.19887698 0.16384572 0.27733144
-0.07460783 0.22742674 0.35619387 -0.03815315 -0.36255774 -0.37903023 -0.021615038 -0.06377266
-0.3026777 -0.52190524 -0.36226505 -0.09684024 -0.19316648 -0.48167357 0.030204492 -0.25837228
0.0020896571 0.28180808 0.07711599 0.33828592 0.5179242 -0.09191374 -0.10771758 -0.06595985
0.14610727 -0.21353354 0.045160335 0.407898 -0.49683478 -0.09945993 -0.06969643 0.2961051
-0.19820082 0.47231165

enc.0.mab0.fc_o.weight f4 [82, 82]
00000000: 415f f2bc ce38 e3ba 477c 7fbd 17a5 bb3d
00000010: 4642 02bd c8aa 1abd 9145 08be 7694 403d
00000020: fa58 7fbb 8ae2 b53d 8476 c8bb a8a0 9e3d
00000030: 3aa1 0cbd 9881 bebc 54e5 af3d 408d 47bd
00000040: c275 e63b fe92 a8bd de5a d73c 0a96 abba
00000050: 8c1b 0d3d de07 bcbd 68ad e33d e969 5d3d
00000060: 761f 5bbd 9e4e 30bd dacf 913d 850b 36bd
00000070: d33a c83d b6ca 7fbd 9871 bcbd db1c 993d
00000080: 5d2b 96bd 18e2 7cbd 3d12 1b3d 5f9a 383b
00000090: ebdd 423d 9a07 023e d1f8 093d 7f69 ba3c
000000a0: 94e4 f43b 6908 0b3e b82c bbbd 763a ed3d
000000b0: 975c 983d 9686 c53d 20e9 343d 00df adbd
000000c0: 5816 ef3a 5573 113c 1c52 56bd 4256 0bbd
000000d0: 708c 963d 2616 d1bc d3db 193d 905c 7fbd
000000e0: 9ce1 a13d 4e18 41bd f8d1 2e3d a0de 8d3d
000000f0: 6aa5 c33a 4e13 56bd b934 97bd c52e a3bc
00000100: 317a d0bd 86bd 85bc f5c3 93bc 77b0 a8bc
00000110: dd20 af3c 6694 f63d 4740 72bd 73cb 983c
00000120: 4e26 e43c 64e8 7a3d 7e5b babd ae5f 0cbd
00000130: 15fa e7bc 7768 103e d060 673d c44a f6ba
00000140: a3f3 9abd c9f5 49bd c486 5e3c 74b4 cc3c
00000150: 5cd5 64bd a6e7 fe3c 8a33 51bc c752 a83d
00000160: f46d 2cbd 8b00 7ebd 0c09 8b3c 5eab ba3b
00000170: 6c6d 7f3d 52ca dc3d fb29 36bd e84f d23d
00000180: 5b79 543d 378b c03d 8f5f 0b3d ab41 87bc
00000190: d64b 783c 4033 3e3b db08 a7bd 0092 16bd
000001a0: 124c ab3d ad44 b13c 2362 f03c 5b1c 2f3c
000001b0: d62f c33c 9d6e 9dbd fe5d aabc 6dad c3bc
000001c0: 9b9a 1abd e2f2 8ebd a79a 3cbc 13e4 2cbb
000001d0: 32ed 13bd 7e1d ddbc e2e6 0abd 1147 90bc
000001e0: cf8d b4bd 7557 b83d cb96 71bd 6199 6b3d
000001f0: 7012 c7bd c07a a5bb f103 27bc e958 c0bd
00000200: 85e9 bb3b d0cf a8bd f7ff 1f3d 3887 8d3d
00000210: f0e1 8bbc baec 953c 6865 62bd 7fbc 233d
00000220: 9285 d5bd ff46 e13d 8cd5 cbbb 099f bb3c
00000230: 479c bf3d 7b54 bbbd 0a9d 6bbd a747 a23c
00000240: b3a9 e1bd 12c7 cd3c 7ccc 19bc 2325 d4bd
00000250: 8c22 e1bc 7b83 a5bd 41c9 2e3c e6a8 a63d
00000260: 6847 d73d 0279 d3bd ea4a 213d bf13 aebd
00000270: eac5 203d 30fb 783d cf74 d7bd 4d3e a3bd
00000280: bdcb cabd cea3 29bc dbc3 253d 35e6 a5bd
00000290: 0040 083d cba8 89bd 9970 82bf 7afc 6f3d
000002a0: afdf 573d 17f1 8ebe a5d1 8b3d b0b7 e6bd
000002b0: c1c9 bbbd f826 8c3d ce8e db3c e193 b7bd
000002c0: 2a08 54bd 4fd8 4dbd 89b6 bf3c b915 f7bd
000002d0: 0b3a 78bd c396 b1bd 16f7 33bd 99a1 33bc
000002e0: 5f68 9d3d ff53 f5bc f7fe 7dbd 2e41 bf3d
000002f0: 2102 c3bc a5ad 4e3d 9e81 933d b6ba 84be
00000300: ff86 72bd 3b47 b9be e4e0 02be 1ed4 81be
00000310: 19a8 013d f7a3 15bd d475 173f 1161 95bb
00000320: b87a 903d 83f0 25bc df2a 4f3d b5ba b8bd
00000330: 4343 32bd 1d6c b93c 4e98 b13d 9a8d babd
00000340: 1b01 b4bc 7688 2e3c 968e e73b 7053 01bd
00000350: 15f0 633d 5aff aebd caab 0bbe a8b6 f43d
00000360: 7e87 0ebd 02aa f53d c945 13bd a0e7 b6bc
00000370: a7af 723d a8e9 a4be 2e67 203e 67c5 b53c
00000380: 38c5 9a39 be5d d3bd 04ef 43bd 6a7e 033d
00000390: 9427 cb3c fca5 88bd 6c45 7e3d 2b01 f3bd
000003a0: 9825 1a3e d100 fa3d 790e cc3c 4d1b 89bc
000003b0: 7bf6 a9bd 1a01 b5bc f212 9ebb bbfd 23be
000003c0: 373c 68bd aaca e13d 52c4 da3c dc4c b2bd
000003d0: 9970 933c 591d 02bd 6e5c 7f3e 1d63 5d3e
000003e0: eb59 6f3e 040a a0bf b436 fc3c 782c 3fbe
000003f0: d3f4 243e c097 803e d7d3 1dbe b32c 8dbe
-0.029586436 -0.0017335655 -0.06237438 0.09162348 -0.031801485 -0.037760526 -0.13307787 0.047016583
-0.0038962946 0.088810995 -0.006117644 0.077454865 -0.034333445 -0.023255154 0.08588663 -0.04871869
0.007033081 -0.082311615 0.026288446 -0.001309098 0.0344501 -0.09181188 0.11117059 0.054056082
-0.0534968 -0.043043725 0.07119723 -0.04444458 0.09776845 -0.06244918 -0.09201354 0.07476207
-0.0733249 -0.061739057 0.03785919 0.0028168184 0.04757492 0.12698212 0.033684555 0.022755383
0.0074735377 0.13577427 -0.09139389 0.11583416 0.07439535 0.09644811 0.044167638 -0.084897995
0.0018240912 0.008877595 -0.0523244 -0.03401781 0.07351005 -0.025523257 0.037563156 -0.062344134
0.0790436 -0.04714232 0.04268071 0.06927228 0.0014926617 -0.052264504 -0.07383103 -0.019919762
-0.10179556 -0.016325723 -0.018037776 -0.020591957 0.021377975 0.120400235 -0.05914333 0.0186517
0.027850296 0.06125678 -0.09099482 -0.034270935 -0.02831749 0.1410235 0.056488812 -0.0018790592
-0.07566001 -0.049306665 0.013581935 0.02498839 -0.055867538 0.031116318 -0.0127686355 0.082189135
-0.042097047 -0.062012237 0.016972087 0.005696698 0.062360212 0.10780777 -0.04447363 0.10269147
0.051873546 0.09401553 0.03402668 -0.016510805 0.015154799 0.0029022247 -0.08155986 -0.03676033
0.08364119 0.021639192 0.02934367 0.010687913 0.02382652 -0.076871134 -0.020796772 -0.023886407
-0.0377451 -0.0697992 -0.011511481 -0.002638106 -0.03611488 -0.026991602 -0.033911593 -0.017612012
-0.0881611 0.09001056 -0.058981698 0.05751932 -0.097203135 -0.0050500333 -0.010193811 -0.09391958
0.005734625 -0.08242762 0.039062466 0.069105566 -0.017075509 0.018301357 -0.05527249 0.039974686
-0.10425867 0.109998696 -0.006220525 0.022902982 0.093559794 -0.09146973 -0.05752281 0.019809557
-0.11018696 0.025119338 -0.009387132 -0.10358646 -0.027482294 -0.080817185 0.0106681 0.081376836
0.105116665 -0.10325815 0.039378084 -0.0849986 0.039251246 0.060786426 -0.10520326 -0.07970867
-0.09902141 -0.0103539955 0.040469985 -0.08100549 0.03326416 -0.06721648 -1.0190612 0.05859039
0.052703556 -0.27918312 0.06827096 -0.11265504 -0.09169341 0.0684337 0.026801493 -0.089637525
-0.0517656 -0.050255116 0.02340247 -0.1206469 -0.06060223 -0.08671334 -0.04393681 -0.010963821
0.07685923 -0.029947279 -0.06201073 0.09338604 -0.023804726 0.05045857 0.07202457 -0.259237
-0.059210774 -0.36187157 -0.12781101 -0.25357145 0.03165445 -0.036533322 0.59164166 -0.0045586904
0.07054657 -0.010128143 0.050577994 -0.090199865 -0.043521177 0.02263456 0.08671628 -0.091090396
-0.021973183 0.010652652 0.007066558 -0.031573713 0.055648882 -0.08544798 -0.13639751 0.119489014
-0.034797184 0.11995317 -0.035955224 -0.022327244 0.059249546 -0.32209516 0.1566436 0.022188855
0.00029520108 -0.10320614 -0.047835365 0.03210298 0.024799146 -0.06672284 0.062077925 -0.11865457
0.15053403 0.12207187 0.024909245 -0.01673665 -0.082989655 -0.022095252 -0.004824036 -0.16014759
-0.05669805 0.11024983 0.026704941 -0.08706066 0.017998027 -0.03176627 0.24937603 0.2161984
0.23374145 -1.2503057 0.030787803 -0.18669307 0.16109018 0.25115776 -0.15412842 -0.27573165

enc.0.mab0.fc_o.bias f4 [82]
00000000: d804 0fbe e488 cdbd d373 85bd 5c33 5dbd
00000010: c0ae cabd f30b a4bd 5fd3 a7bd ec4d 11be
00000020: c91a a0bd 74f5 1abd f2b8 5abd 190f b3bd
00000030: 66c2 bbbd e36e b3bd 1c59 95bd 76bc b0bd
00000040: 4b1a a7bd be60 64bd 3452 06be f6c0 11be
00000050: a823 23bd f797 06be 6510 29bd 54ec 82bd
00000060: 8e2b adbd 811c bbbd c862 a8bd 493d e5bd
00000070: 6c40 82bd 757c d6bc 0f2e 9ebd 3a06 9bbd
00000080: 3526 63bd c8a6 b6bd 2111 75bd aa37 b4bd
00000090: 4296 85bd 212b 9bbd dfb3 b4bd d178 b63c
000000a0: b964 babd 35d4 39bc 24da bdbd 5887 dbbd
000000b0: 3ff4 a7bd f74b a5bd 877b d0bd ef90 88bd
000000c0: 33ab 62bd 3acd 7bbd f602 78bd 5cc0 44bd
000000d0: 7f09 10be c9d6 54bd 8ef5 87bd 02e3 90bd
000000e0: 8ad0 e0bd 0cc7 05be 1391 88bd 4a0f 04be
000000f0: 489e c4bd 7580 18bc a571 b7bd 0d51 bcbd
00000100: acaf 8abd 7cc8 28be 31cf 91bd 3c43 cfbd
00000110: abc7 fcbd 42ed c7bd e65e b5bd afe4 a3bd
00000120: e84b 4abd 6f04 55bd 792c 66bc 1d49 d4bd
00000130: 172f 81bd 6c04 40bd f5ee 5cbd 78a6 a9bd
00000140: 698a 8bbd 995f 0dbd
-0.13966691 -0.100358754 -0.06516232 -0.05400406 -0.09896612 -0.08010092 -0.08194613 -0.14189881
-0.07817609 -0.03783174 -0.053399034 -0.08743114 -0.09167938 -0.08761384 -0.07292387 -0.08629696
-0.08159312 -0.055756323 -0.13117296 -0.14233765 -0.039828926 -0.13143907 -0.0412754 -0.06392732
-0.08455573 -0.09136296 -0.08221966 -0.1119333 -0.06359944 -0.026182393 -0.07723629 -0.07569547
-0.05545636 -0.0891853 -0.05983079 -0.087996796 -0.065228 -0.075765856 -0.0882337 0.022274407
-0.091012426 -0.011342098 -0.09270123 -0.10719174 -0.08200883 -0.0807113 -0.10179811 -0.06668269
-0.05533905 -0.061475016 -0.0605497 -0.04803501 -0.14066122 -0.051962648 -0.06638633 -0.07074548
-0.10977276 -0.13064212 -0.06668296 -0.12896457 -0.09600502 -0.00930797 -0.08957223 -0.09195147
-0.06771788 -0.16482729 -0.07119597 -0.10120246 -0.12342771 -0.0976205 -0.08855991 -0.08002602
-0.049388796 -0.05200618 -0.014048689 -0.10365508 -0.0630781 -0.046879217 -0.053938825 -0.082837045
-0.06813509 -0.034514997

enc.0.mab1.fc_q.weight f4 [82, 2]
00000000: 8477 533f b30f a8be b454 10bc 0224 a83c
00000010: 3273 773e 0026 fbbc 3699 2a3f 052e 55bf
00000020: 2441 2fbf f895 ad3e 065c 783f f5e7 55bf
00000030: baf9 253f c55c 29bf 908d 963b a597 e03c
00000040: 8ae9 1f3e d995 ff3d 5e81 d53b cf5b 66bd
00000050: 87e7 803f 0364 d3be 495c c23e c7ce 4ebf
00000060: 3f7d 45bf 47f7 3bbf 6ed8 493c e348 e4bb
00000070: 1174 feb9 3dd6 013d ea73 0bbf 9570 e63d
00000080: 950b 94bb dd74 b3ba 2bfd 713f cdc7 f73e
00000090: 69d3 3d3c dea2 70bb ac66 a2bf 6cab d7be
000000a0: f65f 553c 6aa1 fcbc 44a8 5bbe b97f b6bd
000000b0: 46c8 813f 59b7 afbe 8820 543f 28cc 24bf
000000c0: d70c 253f 6a01 04bf 707f 84be 6730 e8be
000000d0: 9a3c 24bf 2ea9 2cbf cf14 0ebf 7e98 04bf
000000e0: 9105 a0bd de88 79bf ec16 78b9 dbc5 e73c
000000f0: 4e5d 8dbe 0aa2 a93e a803 ebbe e336 1d3f
00000100: 99e0 bd3e e0ba 3d3e 0863 913b 0c3a 81bc
00000110: 5542 bbbe fa37 0d3e c248 fa3b 81a4 2abd
00000120: 60a4 3fbf de69 243e cd27 083c 66a5 2fbd
00000130: acf9 5c3f 591f 34bf 61b0 443f 7916 51bf
00000140: 4d9d 113f 5d21 423f 1b0a 5bbe 8efa b3be
00000150: 5af8 2dbe c3c9 783d 6b37 f83b 4ada 43bd
00000160: 0702 613f 6c15 263f 2e14 25bb e1ac 27bc
00000170: f36b 213f dc32 eebe 4e2b c7be 9a3a 6ebf
00000180: ecb4 1b3e 3054 5abf 399e 423f 42f8 c33e
00000190: d346 8fbe 3556 8cbe 9333 443f 5fd3 18bf
000001a0: 4562 ff3e c047 3dbe 4409 373f a4ce 033e
000001b0: 9533 1abf 06f4 ecbe 183d 1f3f 2848 56bf
000001c0: 9dc9 1fbc 65b9 c63c 985d febe 1577 c0be
000001d0: 8e94 5f3f f1dd 093e e0f6 31bf 569a 303f
000001e0: 842b 813f 86a6 823e ba70 b3be 18cd bd3e
000001f0: 4678 083f 1821 b9be d88d cdbe 2ccf e63c
00000200: 8361 613f a432 bbbe 55c9 a43a b1a3 fd3c
00000210: 7546 22bf b0d8 2ebf c70f b8be 4029 ee3e
00000220: 279f 813b d7d3 45bc bd9a 50bf c380 2bbf
00000230: 7c7e 7339 0087 01bd 95e6 453f a044 e73d
00000240: 63d8 6f3f 5d04 99be e007 283c cf42 44bd
00000250: 203b 04be 1a14 3dbe ddd0 74bf 8e2d 963e
00000260: 58b2 baba fce3 063d bba0 6a3f 2f5f 67bd
00000270: 1d2d ac3e 8c60 71be 9252 2ebe 62b7 8abd
00000280: 2834 54bf 2ccd e83e 5d9d 573f 0e0d b43e
0.8260424 -0.32824478 -0.008809257 0.020524982 0.24165037 -0.030657768 0.6664003 -0.83273345
-0.6845877 0.3390348 0.97015417 -0.83557063 0.6483418 -0.6615718 0.0045945123 0.02741606
0.15616432 0.12479753 0.006515666 -0.0562399 1.0070657 -0.4128724 0.37961033 -0.8078427
-0.77144235 -0.7342419 0.012319667 -0.0069666966 -0.00048533131 0.031698454 -0.54473746 0.11251942
-0.0045179822 -0.0013691444 0.9452693 0.48394623 0.011586049 -0.003671817 -1.2687583 -0.42122972
0.013023367 -0.030838687 -0.21450907 -0.0891108 1.0139244 -0.3431957 0.8286214 -0.6437402
0.6447272 -0.5156466 -0.25878477 -0.45349428 -0.6415497 -0.6744565 -0.555005 -0.51795185
-0.07813562 -0.9747447 -0.00023659662 0.028292587 -0.27610248 0.33131438 -0.45901227 0.61411875
0.37085417 0.18528318 0.0044368543 -0.01577475 -0.36574045 0.13790885 0.007638068 -0.04166079
-0.7486019 0.1605601 0.0083102705 -0.042882346 0.8631847 -0.7036033 0.7683163 -0.81674916
0.56880647 0.7583216 -0.21390574 -0.35152096 -0.1698927 0.06073929 0.0075749657 -0.0478156
0.8789372 0.6487644 -0.002518903 -0.010234089 0.6305534 -0.46523178 -0.38900226 -0.9305817
0.15205735 -0.8528471 0.7602268 0.38275343 -0.27983722 -0.2740952 0.76641196 -0.59697527
0.4987966 -0.18484402 0.71498513 0.12871796 -0.6023496 -0.46279925 0.62202597 -0.8370385
-0.009752658 0.024258325 -0.4968078 -0.37590852 0.8733605 0.1346357 -0.69517326 0.689855
1.0091405 0.25517672 -0.3504694 0.37070537 0.5330852 -0.3615806 -0.4014728 0.02817496
0.88039416 -0.36562073 0.0012572209 0.030961843 -0.6338876 -0.6829939 -0.35949537 0.46515846
0.00395574 -0.012074432 -0.8148611 -0.6699335 0.00023221405 -0.031622887 0.77304965 0.11292386
0.93689555 -0.2988614 0.010255784 -0.047915276 -0.1291318 -0.184647 -0.956312 0.2933163
-0.0014243824 0.032932267 0.91651505 -0.05648726 0.3362817 -0.23571986 -0.17023686 -0.06773259
-0.82892084 0.45469034 0.8422449 0.3516621

enc.0.mab1.fc_q.bias f4 [82]
00000000: d9ae 883e c92a 43be 01ad d1bd 49dc b1be
00000010: e599 39be aa99 dfbe 2443 c4be 369f c7bd
00000020: 873c 50be 0d6b 58be 962a a73e 0513 a1be
00000030: 9d3f 29be d6e4 523e 5bd8 57be a1ef ea3d
00000040: a0f9 83be bf64 a23c 9f44 273e 0589 1abe
00000050: db93 68be 21f3 243b 5e50 c0bd 1658 bd3e
00000060: 3a8e e5bc 46b4 543e 64e0 cdbe 1c32 9bbe
00000070: e471 13be 13aa fc3d e80d b23e 436a 2b3e
00000080: 7a86 c0be fb52 013d 3ed4 8b3e 6777 873e
00000090: bc9c 643e 5060 e33d 5f7c 69bc 69e0 573e
000000a0: 2dfd a33d 0b63 c3be 7dac 9c3e c74c 8b3c
000000b0: 0219 c83e 7854 3a3e 645c 1cbb 3929 02bf
000000c0: 5a05 28bf d08c ecbe 2bbe 1a3e f9b5 a73d
000000d0: 0de3 8e3d ca11 29bf 3990 133e a66f 65be
000000e0: 0af0 743e 14cc 10bf 0ea6 2a3d 287d 073e
000000f0: aca8 823d 0ef0 09bf 8df6 a73e a238 9dbe
00000100: be9e 26bf f437 8ebe e807 18bf 38bb cf3d
00000110: 9029 a13e c56f 883e 674b d33d bf5d 68bd
00000120: f789 b73d e163 dc3d e5a0 f5be aee8 4f3c
00000130: 1ecb bc3d ed23 963e bd65 523e 8120 a1bd
00000140: 537f fa3b 9cf7 373e
0.26695898 -0.1905929 -0.10238076 -0.34738377 -0.18125112 -0.43671924 -0.38332474 -0.09747164
-0.2033559 -0.21134587 0.32649678 -0.31459823 -0.16528173 0.20595106 -0.21078627 0.11471487
-0.25776386 0.01982343 0.1633477 -0.15091331 -0.22712652 0.002516933 -0.09390329 0.36981267
-0.02802192 0.20771894 -0.4021026 -0.30311668 -0.14398915 0.123371266 0.34776235 0.16739754
-0.37602597 0.031573277 0.27310365 0.26458284 0.22325414 0.111023545 -0.014250844 0.210817
0.08007274 -0.381615 0.30600348 0.017004384 0.3908158 0.18196285 -0.002385878 -0.5084415
-0.65633166 -0.4620118 0.15111606 0.081890054 0.069769 -0.6604277 0.14410485 -0.22405872
0.23919693 -0.565614 0.04166227 0.13231337 0.06379828 -0.5388192 0.3280529 -0.3070727
-0.6508597 -0.27777064 -0.59387064 0.10143131 0.31477022 0.26647773 0.10317116 -0.05673003
0.089618616 0.10761238 -0.47974315 0.0126897525 0.09218429 0.29324284 0.20546623 -0.07867528
0.0076445728 0.17965549

enc.0.mab1.fc_k.weight f4 [82, 82]
00000000: 5704 923e a8b7 5ebe 824d 08bf 3948 f8be
00000010: c961 563d 26da 4f3d 8761 2a3e e614 babf
00000020: 9cbe 20bf 129b 0cbf b8b8 8fbe 6d1a 84bf
00000030: fa64 4e3c 0bc3 33be 89d8 8b3d adea 82bd
00000040: 5438 6bbe f959 5bbe c609 61c0 a3c9 6d3e
00000050: affd a33d 747b adbd 4c87 86bd 21b2 a1bd
00000060: 1c15 193e 8bc5 da3d 7246 073e 9492 abbf
00000070: 1e0b ccbf e149 53bf b22f eebb f6ac d2bd
00000080: e952 d4bd 7178 f2bf 6f10 493e c110 21c0
00000090: ec86 9abd ce83 f33d 469e d7bd ca6a 2a3e
000000a0: 6746 aabc ce23 11bf 7b96 82be 1024 293e
000000b0: a8c0 abbc 600b 56bd d0ab d23d 1a70 183e
000000c0: 868d 11bd 9a81 4c3e 9fab 16c0 8c9c 063e
000000d0: b61e 13c0 fd5e 0fbe 4e80 b23d 3028 00be
000000e0: 2292 84bd b315 523d 37c6 f23c 21f1 d43a
000000f0: ecfe c6bd b79f c8be d9b3 7a3d 9fd6 f5bd
00000100: 5a1e 5dbd e7eb ffbd 4a36 0ebd 3eaf 66bc
00000110: 2d4b 82bd 91fc 1dbe b4aa 39be ef91 6fbe
00000120: 2c81 ce3d 445d 2fbe eb1c f7bf 639e 5e3e
00000130: ba76 f1be 7826 b7bd 55aa 7bbd 5c8e 963d
00000140: 8618 35bf a353 b5bf bfa7 2dbe 55e0 703e
00000150: d7f5 213f e8da 293f 4bfe 6abe b936 2bbe
00000160: 0e7e 4abe 3495 dd3f 1d49 0a3f 54a4 c63e
00000170: a769 b23c 60b7 8f3f 0661 dfbd 4f0a 7c3e
00000180: d47c 83bc 6b29 953d c4a3 3c3e 9105 a73d
00000190: df56 6d40 a59f a9be 7bf0 84bd db50 823e
000001a0: a11e ca3d 6660 d73b b2ea 43be 6a38 0bbd
000001b0: cd2c 9cbe 90a8 c83f 086c b93f 24c3 423f
000001c0: e24f 93bd 2b20 873c 9620 aa3d 6bea 0840
000001d0: ea01 33be 94d0 2940 a8b8 dc3c 375d 19bd
000001e0: cadb 003e 9b14 0fbd f113 cabc b29f 583f
000001f0: 9bab df3d 379f 81bd d964 41bd d704 713e
00000200: 8055 54be 93b1 50be b5a8 da3d 4934 133d
00000210: bf56 0c40 bce8 17be 7599 1440 2bcb 3a3e
00000220: 18cf 73be 9163 77bc d85c 3c3e 54b0 663d
00000230: ffa6 2b3d 6f55 6d3d 5244 9d3d afd8 c13e
00000240: 2e97 0fbc e033 363e 8cde 573d d977 123e
00000250: 22f9 c2bc d246 543c 0d5f 0fbe fc6b d03d
00000260: 0862 313d e984 283e a434 6abe 323c 7a3e
00000270: b95e fa3f de2a b2bd 14eb c63e f23d 813e
00000280: 0077 b93d dfd4 8ebe 29bc 3e3f 3e3f bf3f
00000290: 777d babd 50af 903e c23d eb3e d2c7 043f
000002a0: b9e5 91bd b913 50be 475e 28be 9704 b83f
000002b0: 99be d03e 051e ad3e cc25 023e 8cfc 603f
000002c0: d938 12be 61a9 203e 6af4 f23d bb24 60bc
000002d0: f65c a63e 6fe3 e93d 9009 3140 1735 84be
000002e0: 7e8d 31be 6aec 1a3e 5ae2 87bd e69a 013e
000002f0: 345b 40bd 474f b73d f6ff 65be 9749 c13f
00000300: a92c 943f c1e7 753e 7e43 b8bb e37c bcbd
00000310: 087d 353d 4a5e f53f 8c92 63be 6c79 1540
00000320: 22e3 e43d 002e 3dbe be44 9a3d 2366 093d
00000330: 096a 123b 97a5 263f 2d67 313e 1482 1dbe
00000340: 4c36 ebbd d10c b93e 3213 74be c4aa 05be
00000350: ca04 4f3e 4999 f63c 5e5d e93f 12c9 123d
00000360: 6110 d13f 92d0 f93c 4e2c 57be 9650 9c3d
00000370: bcf4 3d3e eefd 193e 7c51 663e 16b3 ad3d
00000380: a866 a93d d6f0 b43e aea8 2b3e 46b3 aa3d
00000390: f28c 99bb cc4e 0a3d 3f68 cdbc 83d0 dabb
000003a0: 0e6b 6bbe 24d6 96bd 7631 fc3d a5d5 8d3d
000003b0: 8817 cbbd d240 563e eb58 de3f 986e f5bd
000003c0: 05e8 f93e 6802 8fbb 0e80 903d aea9 4abe
000003d0: cdeb 2e3f a439 bf3f 3532 24be 185d 3b3d
000003e0: 5c13 da3e 844c 963e acd9 a0bc 51a6 6cbe
000003f0: 71f9 333e a128 923f 0810 0f3e 3943 ae3e
0.28518936 -0.21749747 -0.5324327 -0.48492602 0.05233935 0.050745152 0.16638766 -1.4537628
-0.62790847 -0.5492412 -0.28070617 -1.0320565 0.012597317 -0.17554872 0.0682841 -0.06392417
-0.22970706 -0.2142104 -3.5162215 0.2322145 0.08007371 -0.084708124 -0.065687746 -0.078953035
0.14949459 0.106822096 0.13210467 -1.3404107 -1.5940893 -0.82534605 -0.0072688693 -0.10286896
-0.10367376 -1.8943006 0.19635175 -2.5166476 -0.075452656 0.11890374 -0.10528235 0.166423
-0.020785524 -0.5669526 -0.25505432 0.16517663 -0.02096589 -0.05225694 0.10286677 0.14886513
-0.035535358 0.19971314 -2.354225 0.13145655 -2.2987494 -0.14001079 0.087158784 -0.1251533
-0.06473185 0.051290225 0.029635532 0.0016246178 -0.09716591 -0.39184353 0.061206672 -0.12003826
-0.053984024 -0.12496167 -0.034719743 -0.014079867 -0.06361995 -0.15428378 -0.18131524 -0.23395513
0.10083231 -0.17125422 -1.93057 0.21740107 -0.47160894 -0.08942884 -0.06144174 0.07351372
-0.70740545 -1.4166149 -0.16958521 0.23523076 0.63265747 0.6634965 -0.22948568 -0.16720094
-0.19774649 1.7311158 0.5401781 0.38797247 0.021778895 1.1227837 -0.109071776 0.24613307
-0.016050734 0.072832905 0.18421847 0.081553586 3.7084272 -0.33129612 -0.064911805 0.25452313
0.09869123 0.006572771 -0.19132498 -0.033989348 -0.3050293 1.5676441 1.4486094 0.7607901
-0.07192971 0.016494831 0.083069965 2.1393077 -0.17481199 2.6533556 0.02694352 -0.037442412
0.12583843 -0.03493176 -0.024667712 0.84618676 0.10921403 -0.06329196 -0.047215316 0.23537003
-0.2073574 -0.20380239 0.106767096 0.035938535 2.1927946 -0.14834875 2.3218663 0.18241565
-0.23809469 -0.015099422 0.18394792 0.056320503 0.041907307 0.057942804 0.07679047 0.3786063
-0.008764071 0.17793226 0.05270247 0.14303531 -0.023800436 0.012956338 -0.14001103 0.101768464
0.04330638 0.16456951 -0.22871643 0.24437025 1.9560157 -0.086995825 0.38851225 0.25242573
0.090559006 -0.27896783 0.7450586 1.4941175 -0.09105962 0.28258753 0.45945555 0.518674
-0.07123894 -0.20320024 -0.16442214 1.4376401 0.40770414 0.33811966 0.12709731 0.87885356
-0.14279498 0.15689613 0.118630245 -0.013680632 0.324928 0.11420333 2.7662086 -0.25821754
-0.17339131 0.15129247 -0.0663497 0.12656745 -0.046961978 0.08950668 -0.22460923 1.5100583
1.1576129 0.24014188 -0.00562328 -0.09203508 0.044308692 1.91694 -0.22223872 2.335536
0.11176135 -0.18474579 0.07532643 0.03354467 0.0022341034 0.6509642 0.17324515 -0.15381652
-0.11484966 0.3614259 -0.23835447 -0.13053423 0.2021667 0.030102389 1.8231618 0.035836287
1.6333123 0.030494962 -0.21012995 0.07632558 0.1855039 0.15038273 0.22492021 0.084814236
0.08271533 0.35339993 0.16763565 0.08334975 -0.0046859914 0.033766553 -0.025074122 -0.0066776886
-0.22990057 -0.07365063 0.123141214 0.06925515 -0.099165976 0.20923164 1.7370886 -0.11983985
0.4880983 -0.0043643005 0.070556745 -0.1979129 0.68328553 1.4939466 -0.16034777 0.045743078
0.42592895 0.29355252 -0.019635044 -0.2311032 0.17575623 1.1418649 0.13970959 0.34035662

enc.0.mab1.fc_k.bias f4 [82]
00000000: e6c4 de3d 4d0d acbd 634f 78bd 7e8c 50bc
00000010: fdc9 b13d 4e7c 89bd b838 df3c fe4b 8c3d
00000020: 67d5 6ebd 51c1 c1bd acd8 133b b1ad 633d
00000030: 44d0 653d 35dd b43d 7951 b0bb 73ff 863d
00000040: 9456 01bd 7668 913d 23df aabd b78d be3d
00000050: c95b 8e3c 727d a73c ede4 5bbd 5a0b 35bd
00000060: 181a f9bb 61f2 9fbd 3d08 70bc 44a0 f43c
00000070: 6719 c13d d38c a7bd 8e66 e8bc dcd3 9d3d
00000080: 9029 b13d 3253 4c3d 6538 1ebd a9f3 a1bc
00000090: d924 65bd 02ee 993d 8b53 ccbd f4d4 9ebd
000000a0: 9e3e e03d 831d bfbd d677 4abd 4307 e9bc
000000b0: 310c 743d b977 e53d 3bcd 6dbd 3c4b a3bd
000000c0: c7a1 383d 8859 723c 220c 953d 323d 9d3d
000000d0: 2bcd 89bd 00eb 0b3c bfdb 79bd 271b a73d
000000e0: a4f1 873c d316 833d 81ba 34bd 0296 38bd
000000f0: 9231 b7bd cc24 01be 61d7 ab3d 2c18 643d
00000100: bf56 b53d bf98 d2bd c36d 833d f4c8 f0bd
00000110: 88b9 323d 89d9 f33d 99bb 9abd f26f afbd
00000120: 4613 a1bd 5b06 8c3b d0c4 73bb 2197 313d
00000130: 4957 75bc 1976 3c3d 1d75 3cbd fa50 80bd
00000140: bdc1 3abc 9c8a d13d
0.10877399 -0.084009744 -0.060622584 -0.012728808 0.08681104 -0.06713162 0.027248725 0.06850432
-0.058308985 -0.094607 0.0022559566 0.055585567 0.05610682 0.088312544 -0.005380806 0.06591692
-0.031576708 0.071000025 -0.08343341 0.09304374 0.017377751 0.02044556 -0.053685118 -0.04420028
-0.0076019876 -0.07809902 -0.014650402 0.029861577 0.09428673 -0.08181157 -0.028369214 0.077064246
0.086505055 0.04988403 -0.038628 -0.019769507 -0.055943344 0.075160995 -0.09976872 -0.07755461
0.10949443 -0.09331801 -0.04943069 -0.028445845 0.05958194 0.11204476 -0.05805705 -0.07973334
0.045076158 0.014791854 0.07277705 0.07677688 -0.06728586 0.008539915 -0.06100058 0.08159476
0.016594715 0.06400838 -0.044123176 -0.045064934 -0.08945002 -0.12611693 0.0839069 0.055687115
0.08854436 -0.1028304 0.0641742 -0.11757079 0.043633968 0.11906726 -0.07555313 -0.08566274
-0.07865004 0.0042732186 -0.0037196167 0.04335702 -0.014974424 0.046011064 -0.046010125 -0.06265445
-0.01139873 0.10231516
