set_transformer_heads2_inds32_hid82.pth (torch, 726418 bytes, 60 tensors)

enc.0.I f4 [1, 32, 82]
-0.003050366 0.012722817 -0.018244365 -0.032449547 0.0009291323 0.033199057 -0.018797861 0.03174603
-0.16894442 0.011122029 -0.0074250866 -0.008079604 -0.00751622 0.006957497 -0.008809816 -0.0019469014
0.016717942 0.015228791 -0.0021894304 0.016747303 -0.0057410076 -0.01585264 0.01818512 0.00022393867
-0.01655109 -0.017927552 0.0019838107 0.020425249 0.0035851332 0.025377268 -0.029554712 0.001743791
-0.0027332357 0.0022996361 0.04957623 0.043710306 -0.004321047 0.01714261 0.015549196 -0.006105646
-0.013015044 -0.038446866 0.0005725106 -0.007090264 -0.012271075 0.030894544 -0.024202392 0.01827204
-0.013298294 -0.012510764 -0.010791468 0.017491484 0.044402067 -0.0047777374 -0.0018079997 -0.01479522
-0.0025181705 -0.02649714 0.034942925 -0.067275316 0.010278209 0.0019695596 0.039878912 -0.020520002
-0.003323511 -0.02201912 -0.008512644 0.025859065 0.05077024 0.015340282 -0.00228283 0.014931097
0.041287426 0.0072002183 -0.025611263 0.014409277 -0.0025900954 0.0015089579 -0.016064381 -0.051766086
0.02159625 0.01688233 0.00276874 -0.030068036 -0.030688306 -0.012582239 0.03676414 -0.018225217
0.0012671244 0.0077344226 0.02302408 0.013857244 0.016131233 -0.015990227 -0.024174934 0.01813371
-0.03560351 -0.008068535 0.02866466 -0.0049157594 -0.006640059 -0.006953883 -0.0037995141 0.0019286494
-0.0032611971 -0.0024995494 -0.022878433 -0.005644344 -0.012408267 0.0046325033 0.010575204 0.018811906
-0.008824281 -0.025479173 -0.0020437269 -0.0063269488 0.01520168 -0.002613074 -0.020008625 0.015638836
0.033161573 0.015839553 -0.0056192675 -0.00508224 0.008034455 -0.00071104907 0.011756051 0.013001199
-0.0007599704 0.010553081 0.018847283 -0.010450546 -0.0029638482 -0.012747242 0.021504883 0.011514961
0.013023892 -0.02507444 0.017956931 -0.014507618 0.012241597 0.060802884 0.022048041 -0.010481018
0.024140678 0.012217367 -0.03537354 -0.009102429 -0.0020714502 0.017312901 -0.019922756 0.0003605219
-0.0033419349 0.010487293 -0.0009125316 -0.037000973 -0.026471572 0.0030657782 0.009142441 0.008684863
-0.009146428 0.0078046857 -0.0011939121 0.006443762 0.032980025 -0.007084004 -0.008499876 0.012751354
0.0018266686 -0.020104708 -0.014578717 0.00091642287 0.0411291 -0.012204114 -0.009616738 -0.005377865
0.00069221057 -0.009048731 0.035115547 0.020674484 -0.026247704 0.0032787707 0.0076696975 0.004997823
-0.027137179 0.011096099 0.000522415 -0.030133855 -0.0058722007 -0.0052197506 0.041247267 0.024701873
0.0009396314 -0.0022023523 0.037805405 -0.019766023 0.0013613728 0.011655349 -0.020316618 0.02362094
-0.012890256 -0.0044668145 -0.011407426 -0.018688379 -0.016248088 -0.020703997 0.024943598 0.011414302
0.009812941 -0.010871989 0.007709568 0.020419525 0.00471916 -0.005543966 0.006113393 -0.0060609193
-0.016238468 -0.031277493 -0.0016133426 0.02024556 0.0021389292 -0.0077527845 -0.06503754 -0.06546614
0.0065860897 0.012540042 -0.011720851 -0.0037781228 -0.009427728 0.00992996 -0.029475626 -0.019199373
0.029690603 -0.011721613 0.0040475493 0.018264862 0.016470661 0.008421922 0.0010316832 0.0038092467
0.007383667 -0.004645606 -0.006023696 -0.005467301 -0.008390663 -0.0042898348 0.023754666 0.034207027
-0.022084162 -0.013287334 0.010514622 0.020853793 0.020261768 -0.008548064 0.018817093 0.020632967
00000000: a6e8 47bb 5d73 503c 3575 95bc d1e9 04bd
00000010: 0391 733a bcfb 073d f9fd 99bc 2008 023d
00000020: c4ff 2cbe 2c39 363c 244e f3bb 5160 04bc
00000030: a04a f6bb b7fb e33b 0c57 10bc 2c2f ffba
00000040: 11f4 883c 2e82 793c 8c7c 0fbb a431 893c
00000050: 101f bcbb 65dd 81bc f6f8 943c 14d1 6a39
00000060: 2796 87bc cddc 92bc d202 023b da52 a73c
00000070: 8ef4 6a3b fde3 cf3c b91c f2bc eb8f e43a
00000080: 1620 33bb 7eb5 163b 7210 4b3d 9409 333d
00000090: 9297 8dbb a96e 8c3c 0ec2 7e3c df11 c8bb
000000a0: 0d3d 55bc 767a 1dbd 8914 163a 7255 e8bb
000000b0: 9e0c 49bc 8e16 fd3c 1844 c6bc 3faf 953c
000000c0: 16e1 59bc f3f9 4cbc b3ce 30bc 4d4a 8f3c
000000d0: f1de 353d 918e 9cbb 67fa ecba a767 72bc
000000e0: e407 25bb 8810 d9bc 5020 0f3d a4c7 89bd
000000f0: ef65 283c ba13 013b 1258 233d 9019 a8bc
00000100: 43cf 59bb 7161 b4bc 9e78 0bbc 64d6 d33c
00000110: 75f4 4f3d ce55 7b3c 889b 15bb 8fa1 743c
00000120: 011d 293d cfef eb3b b6ce d1bc e314 6c3c
00000130: 97be 29bb 3ac8 c53a 7399 83bc ad08 54bd
00000140: 9eea b03c d04c 8a3c c073 353b 3e51 f6bc
00000150: 0b66 fbbc bc25 4ebc ff95 163d 0d4d 95bc
00000160: a415 a63a 0a71 fd3b ff9c bc3c 7e09 633c
00000170: a625 843c f0fd 82bc 830a c6bc 258d 943c
00000180: fcd4 11bd e331 04bc 26d2 ea3c 6114 a1bb
00000190: da94 d9bb 66dd e3bb 4501 79bb bcca fc3a
000001a0: cfb9 55bb 7bcf 23bb 8d6b bbbc 30f4 b8bb
000001b0: 0b4c 4bbc 41cc 973b 9f43 2d3c 6d1b 9a3c
000001c0: b893 10bc b3b9 d0bc 0cf0 05bb 4b52 cfbb
000001d0: 7810 793c 1b40 2bbb 21e9 a3bc 041d 803c
000001e0: 6ed4 073d f3c1 813c d521 b8bb eb88 a6bb
000001f0: f2a2 033c b265 3aba 749c 403c fb02 553c
00000200: c038 47ba d4e6 2c3c 9e65 9a3c c438 2bbc
00000210: 1f3d 42bb cfd9 50bc 022b b03c 3fa9 3c3c
00000220: 2a62 553c e968 cdbc 6a1a 933c 5cb1 6dbc
00000230: fb90 483c 720c 793d 189e b43c 93b8 2bbc
00000240: acc2 c53c 5a2b 483c d8e3 10bd 5b22 15bc
00000250: 2bc1 07bb c9d3 8d3c 0c35 a3bc 6e04 bd39
00000260: 5d04 5bbb e5d2 2b3c f636 6fba 558e 17bd
00000270: e9da d8bc 39eb 483b 2dca 153c f54a 0e3c
00000280: e6da 15bc 73be ff3b 0b7d 9cba 3226 d33b
00000290: 1016 073d ef20 e8bb 1043 0bbc 0eeb 503c
000002a0: d46c ef3a a1b2 a4bc 92db 6ebc 193c 703a
000002b0: fd76 283d c4f3 47bc 868f 1dbc cd38 b0bb
000002c0: 7775 353a 2141 14bc 52d5 0f3d 895d a93c
000002d0: 6d05 d7bc a5e0 563b 1652 fb3b c7c4 a33b
000002e0: ca4e debc 6acc 353c adf2 083a 46db f6bc
000002f0: 976b c0bb 710a abbb e5f2 283d 955b ca3c
00000300: 9951 763a 5755 10bb d7d9 1a3d 5bec a1bc
00000310: 1770 b23a 14f6 3e3c 096f a6bc b480 c13c
00000320: a731 53bc 5b5e 92bb 36e6 3abc 5f18 99bc
00000330: b61a 85bc 6e9b a9bc 8456 cc3c 0d03 3b3c
00000340: 75c6 203c 6d20 32bc 8ba0 fc3b d946 a73c
00000350: 2fa3 9a3b 28aa b5bb dc52 c83b ad9a c6bb
00000360: 8906 85bc d41c 00bd cb76 d3ba 04da a53c
00000370: 472d 0c3b 120b febb 6732 85bd 1d13 86bd
00000380: 20d0 d73b c074 4d3c d008 40bc 629a 77bb
00000390: c276 1abc 45b1 223c de76 f1bc 0148 9dbc
000003a0: b539 f33c 020c 40bc 4ea1 843b 31a0 953c
000003b0: 7bed 863c 1afc 093c 8b39 873a 8ea4 793b
000003c0: b0f2 f13b 2b3a 98bb 6d62 c5bb 0b27 b3bb
000003d0: fe78 09bc be91 8cbb 2599 c23c ab1c 0c3d
000003e0: d8e9 b4bc 1eb3 59bc 8545 2c3c 93d5 aa3c
000003f0: 02fc a53c 2e0d 0cbc 4e26 9a3c 7806 a93c

enc.0.mab0.fc_q.weight f4 [82, 82]
0.018570548 0.031725653 -0.029426353 -0.016949221 0.0026182602 -0.00048514086 0.007203835 -0.009676531
-0.15893193 0.102447614 -0.036822133 -0.005178667 -0.008862132 0.037079703 -0.11618968 0.025964433
-0.0073171593 0.0060735703 -0.0047149216 -0.00011846087 -0.061042044 -0.012185113 -0.009748338 0.018887438
0.019982276 -0.010776779 0.04933677 0.03440782 0.03335179 0.02251707 0.012638554 -0.0032032367
6.371484e-07 0.01340637 -0.026347898 0.03173583 -0.009035686 0.036951598 0.047291525 -0.038493626
-0.030011492 -0.027252702 0.0217585 0.008520713 -0.036095105 0.020391421 -0.042365868 0.0073465602
0.0150423525 -0.042424917 0.0064257784 -0.048382305 -0.019184655 0.018469386 -0.0074889665 0.0012866589
-0.02697652 -0.00090136053 0.15350614 0.11929621 -0.011111615 0.045615006 -0.011946167 0.01981818
0.022207106 -0.050616577 0.043184053 -0.03947732 0.066299826 0.016242934 0.011866589 0.026669009
0.026198357 -0.016703775 -0.06568106 0.021193713 -0.0067923963 -0.030469116 -0.0132327825 0.083279446
-0.0068781944 0.0013945468 -0.01581476 0.06717698 0.014850928 0.0019561946 -0.01797091 -0.0038991596
0.025423443 -0.02613649 0.34528396 0.017703326 0.031868562 0.023081012 -0.021849386 0.07892373
0.04924677 -0.071771994 -0.01801621 -0.004141548 -0.016674882 0.0019742027 0.10688997 0.0041955314
0.05036917 0.05638679 0.012071245 -0.0027806428 -0.0017702699 -0.02436233 -0.008466546 0.06406375
-0.0058486103 0.030615456 -0.014820447 0.02008989 0.07361659 0.02635042 0.026635805 -0.017067038
0.02049383 0.025158662 0.013852254 0.012129075 0.013373323 -0.0034002454 -0.030304112 -0.028910723
-0.0140425265 0.040006615 -0.03144289 0.018998714 0.05487231 0.048762564 -0.02369931 -0.011293544
-0.02739306 0.045788534 -0.046798263 0.038365226 -0.111468844 -0.25615782 -0.04767786 -0.018989652
0.089932896 -0.050635677 0.03511182 0.04948733 0.0005913886 -0.00310407 0.01304384 0.05187006
-0.008827256 -0.00052017265 0.001117664 0.019989543 -0.038963385 -0.03010459 -0.027902002 0.0028968258
-0.06092326 -0.064152144 0.028159384 0.040818755 -0.005441735 0.05902455 0.02378228 -0.045033984
0.019431263 -0.023655681 -0.0040198434 0.035190944 0.043834284 0.05954641 -0.008563037 -0.009458813
0.02068222 -0.01380187 -0.050099887 0.040941503 0.015805295 0.04965723 -0.012033597 -0.006227308
0.030261632 -0.033130318 0.00035432633 -0.02529556 -0.017557964 0.03154437 0.05308142 0.016606295
0.017731568 0.004085915 -0.0023271588 0.014369276 0.022761006 0.025907896 0.0068750335 0.056335974
-0.04427767 0.06827525 0.11113768 -0.05477932 -0.004806682 -0.023877922 0.010724616 0.015560075
0.06576906 -0.024696 0.028894769 0.005572565 0.010445838 -0.03267074 -0.048551656 0.006270511
-0.04763058 -0.045720264 -0.0568093 -0.018217314 0.037475154 -0.019911572 0.0600808 0.012763992
0.043795306 0.0045535667 -0.03605751 0.014658441 -0.03133767 -0.012921289 0.03824124 -0.05539791
0.07864814 -0.067549676 0.036553822 0.032202635 0.06653498 -0.001928061 -0.03698136 0.055287324
0.03139445 -0.052925732 -0.0727036 -0.024573104 -0.037033405 -0.033550452 -0.046340287 -0.00075332256
0.04898278 0.01328875 -0.030114533 0.028440693 0.009664308 -0.015769439 0.25468314 -0.041800354
00000000: 4321 983c c2f2 013d 890f f1bc 18d9 8abc
00000010: 1e97 2b3b 815a feb9 260e ec3b 508a 1ebc
00000020: 0dbf 22be 0ed0 d13d ced2 16bd cfb1 a9bb
00000030: 7a32 11bc e3e0 173d dbf4 edbd 5db3 d43c
00000040: c8c4 efbb cd04 c73b a17f 9abb 326e f8b8
00000050: 3907 7abd 11a4 47bc 7eb7 1fbc d4b9 9a3c
00000060: dfb1 a33c 1691 30bc 5a15 4a3d 37ef 0c3d
00000070: e39b 083d b875 b83c f011 4f3c 65ed 51bb
00000080: 8108 2b35 64a6 5b3c 8cd7 d7bc 6efd 013d
00000090: 6a0a 14bc 8f5a 173d c2b4 413d 7eab 1dbd
000000a0: a9da f5bc 0f41 dfbc e23e b23c 769a 0b3c
000000b0: 76d8 13bd e90b a73c d587 2dbd 6abb f03b
000000c0: 3374 763c c0c5 2dbd 568f d23b 862c 46bd
000000d0: 2329 9dbc 1c4d 973c 0166 f5bb 1ca5 a83a
000000e0: ddfd dcbc 4849 6cba b730 1d3e 9251 f43d
000000f0: 7e0d 36bc cdd6 3a3d dbb9 43bc bc59 a23c
00000100: adeb b53c 5453 4fbd c3e1 303d f8b2 21bd
00000110: 34c8 873d e70f 853c 156c 423c f778 da3c
00000120: f09d d63c 5bd6 88bc cb83 86bd 709e ad3c
00000130: c092 debb 5e9a f9bc 50ce 58bc 6a8e aa3d
00000140: 7a62 e1bb 3ac9 b63a f58d 81bc 1694 893d
00000150: 4f51 733c 8033 003b bb37 93bc 0b89 7fbb
00000160: d344 d03c 311c d6bc 0fc9 b03e 9106 913c
00000170: 9c88 023d 6414 bd3c 7cfd b2bc c4a2 a13d
00000180: fbb6 493d 32fd 92bd bb96 93bc d3b5 87bb
00000190: c399 88bc a061 013b 21e9 da3d ab7a 893b
000001a0: e74f 4e3d d6f5 663d 79c6 453c 723b 36bb
000001b0: 6708 e8ba 8293 c7bc 45b7 0abc db33 833d
000001c0: b3a5 bfbb 44cd fa3c 76d1 72bc 8e93 a43c
000001d0: 4bc4 963d d6dc d73c 5533 da3c 2cd0 8bbc
000001e0: ade2 a73c 8a19 ce3c 90f4 623c 07b9 463c
000001f0: c81b 5b3c a7d6 5ebb 5440 f8bc 2ed6 ecbc
00000200: a012 66bc fadd 233d 43ca 00bd 31a3 9b3c
00000210: cac1 603d 41bb 473d 0e25 c2bc 8f08 39bc
00000220: 6967 e0bc c28c 3b3d 89af 3fbd db24 1d3d
00000230: c749 e4bd 1e27 83be dc49 43bd 3090 9bbc
00000240: bd2e b83d 5b67 4fbd 69d1 0f3d 3ab3 4a3d
00000250: 6b07 1b3a a76d 4bbb d5b5 553c b375 543d
00000260: 32a0 10bc 325c 08ba 957e 923a 1cc1 a33c
00000270: 1298 1fbd e79d f6bc bd92 e4bc acd8 3d3b
00000280: ab8a 79bd 3362 83bd 82ae e63c 9131 273d
00000290: 9550 b2bb bac3 713d 0ed3 c23c 8e75 38bd
000002a0: 502e 9f3c 8fc9 c1bc e4b8 83bb 6124 103d
000002b0: 948b 333d f0e6 733d fb4b 0cbc 23f9 1abc
000002c0: c26d a93c 3d21 62bc 8a35 4dbd 47b2 273d
000002d0: 1b7a 813c 6165 4b3d 9028 45bc 720e ccbb
000002e0: 3ee7 f73c a8b3 07bd e0c4 b939 a238 cfbc
000002f0: b8d5 8fbc ab34 013d e76b 593d ed09 883c
00000300: cb41 913c 24e3 853b 3f83 18bb 1d6d 6b3c
00000310: 4a75 ba3c cc3c d43c f647 e13b 8dc0 663d
00000320: 815c 35bd e5d3 8b3d 279c e33d 4860 60bd
00000330: 5f81 9dbb a29b c3bc 4db6 2f3c afef 7e3c
00000340: eeb1 863d 444f cabc b9b4 ec3c 109a b63b
00000350: 0525 2b3c c1d1 05bd 1ade 46bd dc78 cd3b
00000360: 4818 43bd 2c45 3bbd deb0 68bd 7a3c 95bc
00000370: 8c7f 193d 981d a3bc 4917 763d 1020 513c
00000380: b562 333d 1636 953b 0ab1 13bd f529 703c
00000390: ee5b 00bd d0b3 53bc d9a2 1c3d ebe8 62bd
000003a0: 4712 a13d 7c57 8abd 76b9 153d e9e6 033d
000003b0: 7e43 883d feb6 fcba c479 17bd f674 623d
000003c0: 7897 003d a7c8 58bd a0e5 94bd 894d c9bc
000003d0: 57b0 17bd 336c 09bd 50cf 3dbd 9f7a 45ba
000003e0: 2ba2 483d 0fb9 593c c1b2 f6bc 75fc e83c
000003f0: 0c57 1e3c e92e 81bc d465 823e d936 2bbd

enc.0.mab0.fc_q.bias f4 [82]
-0.30849627 0.3481561 0.08320352 -0.23639102 -0.1756201 0.04446928 -0.31117493 -0.43609613
-0.1269369 -0.26525706 0.25435856 -0.011043197 0.40661913 -0.16270249 -0.27921903 -0.21420188
-0.08297671 -0.11560137 0.33862916 0.1295489 0.3097113 -0.39687046 0.1456635 0.09198502
0.14454529 -0.0686447 -0.16288146 -0.42761227 -0.1992005 0.14539765 0.020318627 0.04632682
-0.477554 -0.04991448 0.21724728 0.27092525 -0.083688304 0.54522794 -0.20474337 0.19427453
0.0030328962 0.27975097 0.003303216 -0.36688906 0.0038340061 0.54515857 0.33506864 -0.22350834
0.44052118 0.26829663 0.083614826 -0.002470082 0.10884078 -0.4782289 -0.033897627 0.31283244
0.47493935 -0.0045754667 -0.050711554 -0.040913824 -0.21029039 -0.2259471 -0.051811635 0.3514018
0.3420652 0.21977378 0.2206296 -0.31097007 0.06470081 0.15493424 -0.36125338 0.24978113
0.4017663 -0.074836425 0.0038379596 0.0086579155 0.17669035 -0.12621498 -0.17919008 0.14450842
-0.053047013 -0.029259667
00000000: 39f3 9dbe 8441 b23e 9b66 aa3d 7d10 72be
00000010: c1d5 33be 6b25 363d 5252 9fbe fe47 dfbe
00000020: bffb 01be c6cf 87be 493b 823e 86ee 34bc
00000030: 6230 d03e 7b9b 26be ccf5 8ebe bd57 5bbe
00000040: b1ef a9bd 69c0 ecbd cd60 ad3e 78a8 043e
00000050: 7b92 9e3e 9b32 cbbe d028 153e a462 bc3d
00000060: ae03 143e 9895 8cbd 66ca 26be ffef dabe
00000070: 37fb 4bbe 1fe3 143e 4073 a63c 31c1 3d3d
00000080: f581 f4be 2073 4cbd 1276 5e3e b7b6 8a3e
00000090: c664 abbd 0f94 0b3f 3fa8 51be e7ef 463e
000000a0: 8ec3 463b 853b 8f3e c57a 583b e2d8 bbbe
000000b0: f343 7b3b 838f 0b3f 1e8e ab3e 5fdf 64be
000000c0: fe8b e13e 2d5e 893e 403e ab3d 19e1 21bb
000000d0: eae7 de3d 6bda f4be 3dd8 0abd 932b a03e
000000e0: 402b f33e cced 95bb ebb6 4fbd 4195 27bd
000000f0: 5d56 57be ad5e 67be 7038 54bd f0ea b33e
00000100: 2b23 af3e 610c 613e baec 613e 7837 9fbe
00000110: dc81 843d 15a7 1e3e 34f6 b8be a0c6 7f3e
00000120: 50b4 cd3e d743 99bd 4786 7b3b eed9 0d3c
00000130: 51ee 343e 803e 01be 9b7d 37be 04fa 133e
00000140: d347 59bd f8b1 efbc

enc.0.mab0.fc_k.weight f4 [82, 2]
-0.45194077 0.7398659 0.4623992 -0.76055187 -0.047347993 -0.24708284 -0.19137536 0.43494216
-0.28064084 0.27356377 0.12774639 0.41114512 -0.7141997 0.34180477 -0.6594896 -0.094602354
-0.65743953 0.18929367 -1.044264 0.793131 -0.2193263 -0.49564353 -0.67999357 -0.4324265
-0.09877393 -0.46268567 -2.1162517 1.8748926 -0.46332577 0.56426495 -0.6226164 0.75033784
0.1941089 0.42587358 -0.42792183 0.119040474 0.123931095 -0.7177431 -0.18897122 -0.15611178
0.1706721 -0.22918776 -0.2727878 0.80646205 0.55482286 0.23143081 0.10666503 -0.243412
-0.20156147 -0.3654909 0.08024208 0.23845354 0.02625579 0.34101573 -0.5724948 0.79821706
-0.5040032 1.3962506 0.91195154 -0.37342763 -0.014552023 0.003328022 -0.050626185 -0.44144908
0.20032117 0.6389644 -0.30716717 0.07476317 1.0252066 -0.37051147 0.62527525 -0.5367364
-0.8763282 0.5584005 0.50391054 -0.6682511 0.2919583 0.98162717 -0.36812952 -0.17707624
-0.47937384 -0.35340214 -0.51443154 0.364053 0.5448125 0.3512647 0.9460792 -1.1156644
0.09515962 0.0844927 -0.57639414 0.6308016 -0.89082307 0.2110016 -0.24310134 -0.33417767
-0.7958919 0.47137082 0.3426956 0.5402296 -0.33397022 0.036301754 -0.05409197 -0.0653652
0.6709956 0.37492663 -0.21421205 -1.0055299 -0.18727483 0.23798671 -1.1448296 0.35023108
0.01627695 0.9159088 0.04621629 0.011233899 2.2258673 -2.7778616 -0.69981533 -0.41275334
0.48810932 -0.45464116 0.15886743 -0.12719837 -0.32900319 -0.121473655 -0.6805519 1.099125
-0.73856056 0.44112048 -0.06007394 0.29966384 0.21753846 0.4418967 -0.11399187 -0.78583497
-0.64633167 -0.21339817 0.23501766 0.25894547 0.11128774 -0.2053851 -1.1183782 0.5815015
-0.2244472 0.57736224 1.2244604 -0.77481717 0.36345798 0.27933 0.49563226 0.35113746
-0.7687891 -0.0029553412 0.0024376546 -0.62252516 -0.23575883 -0.7037808 -0.073037215 0.116822414
0.48148116 0.13097249 0.602414 0.38768792
00000000: c864 e7be da67 3d3f 97bf ec3e 87b3 42bf
00000010: f8ef 41bd 4903 7dbe e7f7 43be bdb0 de3e
00000020: 28b0 8fbe 8d10 8c3e f3cf 023e 9d81 d23e
00000030: cbd5 36bf 0901 af3e 4fd4 28bf e1be c1bd
00000040: f54d 28bf 33d6 413e 71aa 85bf a20a 4b3f
00000050: 1397 60be fdc4 fdbe 0f14 2ebf 0267 ddbe
00000060: fc49 cabd 23e5 ecbe ab70 07c0 7bfc ef3f
00000070: 0939 edbe ab73 103f ca63 1fbf 2416 403f
00000080: 7cc4 463e 1a0c da3e 9218 dbbe 7ecb f33d
00000090: 96cf fd3d 03be 37bf ac81 41be c4db 1fbe
000000a0: abc4 2e3e 32b0 6abe d8aa 8bbe 4c74 4e3f
000000b0: df08 0e3f 33fc 6c3e 3273 da3d ff40 79be
000000c0: 2166 4ebe a021 bbbe f655 a43d 2a2d 743e
000000d0: 6216 d73c 9d99 ae3e 058f 12bf f457 4c3f
000000e0: 5b06 01bf 57b8 b23f a875 693f e831 bfbe
000000f0: 9c6b 6ebc f21a 5a3b 675d 4fbd 9d05 e2be
00000100: fe20 4d3e 2c93 233f 0445 9dbe 6f1d 993d
00000110: f839 833f aeb3 bdbe 0a12 203f 8f67 09bf
00000120: 0b57 60bf 56f3 0e3f 4800 013f 8112 2bbf
00000130: 8f7b 953e eb4b 7b3f 797b bcbe 7953 35be
00000140: 7d70 f5be 20f1 b4be c9b1 03bf 2865 ba3e
00000150: d578 0b3f f7d8 b33e 3f32 723f 17ce 8ebf
00000160: 0ce3 c23d 820a ad3d 918e 13bf 377c 213f
00000170: fb0c 64bf ce10 583e 8fef 78be 5619 abbe
00000180: 92bf 4bbf 8457 f13e cc75 af3e 7d4c 0a3f
00000190: 25fe aabe 26b1 143d 8b8f 5dbd 31de 85bd
000001a0: 5ec6 2b3f 62f6 bf3e 675a 5bbe 34b5 80bf
000001b0: f9c4 3fbe cab2 733e c789 92bf 7d51 b33e
000001c0: 3d57 853c 0079 6a3f 4b4d 3d3d 630e 383c
000001d0: 9c74 0e40 7cc8 31c0 1927 33bf 6854 d3be
000001e0: 77e9 f93e bac6 e8be 25ae 223e 4a40 02be
000001f0: 1b73 a8be 2ec7 f8bd a638 2ebf 21b0 8c3f
00000200: 4e12 3dbf 8bda e13e 1710 76bd 8a6d 993e
00000210: 67c2 5e3e 4940 e23e 9274 e9bd 7b2c 49bf
00000220: fe75 25bf 0d85 5abe 78a8 703e 8094 843e
00000230: d4ea e33d 7950 52be 0427 8fbf 48dd 143f
00000240: 7dd5 65be 03ce 133f 1ebb 9c3f 6b5a 46bf
00000250: 2a17 ba3e 5704 8f3e 83c3 fd3e 4ac8 b33e
00000260: 5dcf 44bf 66ae 41bb 0fc1 1f3b cf5d 1fbf
00000270: c36a 71be fa2a 34bf 8994 95bd 9740 ef3d
00000280: b384 f63e a71d 063e ce37 1a3f 087f c63e

enc.0.mab0.fc_k.bias f4 [82]
-0.060877465 -0.55499697 -0.18835887 0.35406113 -0.6813152 0.37909004 0.068453304 -0.5344989
0.7044788 -0.36055714 -0.46739542 0.45537046 -0.0018359153 0.5531714 0.3125248 -0.111349694
-0.65967405 0.034680367 -0.45632097 -0.1205763 0.0733477 -0.28436273 -0.45435858 -0.33991608
0.043612514 0.47836804 0.36560646 0.09720428 0.08583999 -0.16547947 0.40571445 0.6181722
-0.014907061 -0.14812005 0.47606063 -0.6158087 -0.6259196 -0.10489395 0.3376471 -0.2712641
-0.15774761 -0.5144845 -0.018981978 0.5150176 -0.03728961 0.70954883 -0.53046775 -0.30210152
0.5634438 -0.5174352 -0.46702015 0.2680194 0.6918612 0.39466676 0.19561303 -0.13922593
-0.45866844 -0.4984546 -0.38384864 -0.3572792 -0.15795112 -0.6843146 0.021855444 -0.54323876
0.5706748 -0.6603926 0.6485717 -0.5215343 0.41026622 -0.12866111 0.14580832 0.594968
0.4056345 0.65879107 0.17215669 0.2216392 -0.45724475 -0.3696544 0.41530427 -0.6340302
0.2824298 -0.66289693
00000000: a65a 79bd 4814 0ebf 26e1 40be 8047 b53e
00000010: ac6a 2ebf 1718 c23e 3f31 8c3d ebd4 08bf
00000020: b958 343f f29a b8be 744e efbe 5126 e93e
00000030: 18a3 f0ba a49c 0d3f 4003 a03e 4f0b e4bd
00000040: 66e0 28bf 000d 0e3d e7a2 e9be b5f0 f6bd
00000050: 5237 963d fe97 91be b0a1 e8be 7b09 aebe
00000060: 09a3 323d a8ec f43e c530 bb3e 0a13 c73d
00000070: e0cc af3d 7373 29be ceb9 cf3e 8940 1e3f
00000080: bf3c 74bc c8ac 17be 38be f33e a4a5 1dbf
00000090: 443c 20bf a4d2 d6bd 15e0 ac3e 21e3 8abe
000000a0: 9788 21be 42b5 03bf 1880 9bbc 32d8 033f
000000b0: fdbc 18bd fea4 353f bccc 07bf 0dad 9abe
000000c0: da3d 103f a276 04bf 441d efbe d739 893e
000000d0: d11d 313f c311 ca3e c84e 483e 3e91 0ebe
000000e0: 97d6 eabe 7135 ffbe cf87 c4be 4ded b6be
000000f0: f0bd 21be 3e2f 2fbf 300a b33c b211 0bbf
00000100: be17 123f 7d0f 29bf cc08 263f 4683 05bf
00000110: 6a0e d23e bdbf 03be c74e 153e d34f 183f
00000120: 53af cf3e 88a6 283f d849 303e 63f5 623e
00000130: fc1b eabe 5743 bdbe c3a2 d43e ce4f 22bf
00000140: a49a 903e 9db3 29bf

enc.0.mab0.fc_v.weight f4 [82, 2]
0.23510079 -0.33257294 -0.3189556 0.5727252 -0.082813494 -0.011987961 0.08459309 0.38648415
0.18387416 0.17149179 -0.04780047 -0.61957616 0.20385312 -0.20290804 0.52180123 0.22554766
0.77513427 -0.74105066 0.29627842 -0.77066517 -0.113867566 -0.022204023 0.6876321 -0.45705548
-0.019769367 0.30279443 0.7256768 -0.8272287 0.0536149 -0.17857486 0.24056683 -0.3492623
-0.00055189786 -0.061055344 0.10967992 -0.0386607 0.6152353 0.25907043 0.041019257 0.08112241
0.24825667 0.3919956 0.049405698 -0.4009879 0.5738693 -0.01150612 -0.3004619 -0.33590776
-0.013072611 -0.057030942 -0.1347342 -0.40495455 -0.038215503 -0.106602974 0.09646683 -0.091086596
0.16819796 -0.83586633 -0.29513684 0.68589634 0.5438406 0.12982728 -0.003261553 0.27202028
0.37006664 -0.3148188 0.11046465 -0.03485403 -0.35060847 0.4645903 -0.27689287 -0.039416086
0.53283435 -0.34899458 -0.08640252 0.38403898 0.035395455 -0.6112544 0.41530237 0.26380938
-0.007918896 -0.18265551 -0.8880809 -0.23695016 -0.10399898 0.10288314 -0.41978163 0.66656464
0.028836353 -0.12549376 0.10173883 -0.41509148 0.08997052 0.300511 -0.028751444 0.046301685
0.3235751 -0.38330704 -0.06381071 0.16111247 0.04599065 0.08173323 -0.004037472 0.08217516
-0.32783368 0.08808753 -0.18796003 0.64809793 0.21155389 -0.34405681 0.34627333 -0.3573545
0.25942618 -0.20047571 0.005798352 0.1432787 -0.6059913 0.966365 0.13740042 -0.36675552
-0.1421341 0.09025813 0.028245209 -0.18728405 0.06634157 -0.6382708 0.18951333 -0.65531284
-0.096939884 0.5303762 0.15386465 0.707152 -0.13140509 0.25668874 -0.18658452 0.39211375
0.54738265 0.1447783 -0.049038053 -0.036477935 0.1125293 0.40176988 0.4651808 -0.6550704
0.017408933 0.11809335 -0.5054882 0.61505055 -0.011935359 -0.14247324 0.2686783 0.9677187
0.07849137 -0.10313601 -0.18720867 0.22242801 -0.054851256 0.37877896 -0.1775567 -0.34954053
-0.19568025 0.07010119 0.29883343 -0.45342246
00000000: 43be 703e 0047 aabe 264e a3be 1e9e 123f
00000010: 1f9a a9bd 2769 44bc 243f ad3d 40e1 c53e
00000020: 8249 3c3e 8b9b 2f3e 6dca 43bd 8b9c 1ebf
00000030: dfbe 503e 20c7 4fbe c494 053f f7f5 663e
00000040: 336f 463f 7fb5 3dbf ceb1 973e 504a 45bf
00000050: 6633 e9bd 36e5 b5bc a808 303f 2d03 eabe
00000060: 5ef3 a1bc df07 9b3e f4c5 393f 43c5 53bf
00000070: 4c9b 5b3d 54dc 36be 2757 763e 82d2 b2be
00000080: 3dad 10ba 2b15 7abd de9f e03d af5a 1ebd
00000090: 1080 1d3f e1a4 843e cf03 283d 8223 a63d
000000a0: ff36 7e3e a6b3 c83e a15d 4a3d 494e cdbe
000000b0: 19e9 123f 2a84 3cbc 24d6 99be 1afc abbe
000000c0: 812e 56bc 4799 69bd c3f7 09be 3456 cfbe
000000d0: dc87 1cbd a952 dabd 6790 c53d 9c8b babd
000000e0: 163c 2c3e 56fb 55bf 2d1c 97be e796 2f3f
000000f0: 2339 0b3f 71f1 043e c7bf 55bb 3e46 8b3e
00000100: 6079 bd3e ee2f a1be 4a3b e23d 19c3 0ebd
00000110: f482 b3be c8de ed3e e7c4 8dbe c372 21bd
00000120: d567 083f 6baf b2be cef3 b0bd c2a0 c43e
00000130: d3fa 103d 2b7b 1cbf 83a2 d43e 0612 873e
00000140: 42be 01bc 0c0a 3bbe 4559 63bf 10a3 72be
00000150: 6bfd d4bd 65b4 d23d 9eed d6be fba3 2a3f
00000160: 373a ec3c 7081 00be 735c d03d df86 d4be
00000170: 7742 b83d 94dc 993e 2688 ebbc d6a6 3d3d
00000180: a3ab a53e d240 c4be 31af 82bd abfa 243e
00000190: b160 3c3d c063 a73d c54c 84bb 734b a83d
000001a0: d1d9 a7be 3c67 b43d 9878 40be bfe9 253f
000001b0: 95a1 583e 3728 b0be bd4a b13e 2bf7 b6be
000001c0: 82d3 843e 8149 4dbe 1a00 be3b a7b7 123e
000001d0: 3f22 1bbf b263 773f b2b2 0c3e 61c7 bbbe
000001e0: 9a8b 11be 41d9 b83d 7f62 e73c 64c7 3fbe
000001f0: 17de 873d b765 23bf c80f 423e 95c2 27bf
00000200: 6b88 c6bd bcc6 073f b28e 1d3e ea07 353f
00000210: 0e8f 06be b56c 833e 0310 3fbe 22c3 c83e
00000220: 4521 0c3f c340 143e 20dc 48bd e369 15bd
00000230: c375 e63d c8b4 cd3e 2e2c ee3e b2b2 27bf
00000240: 2e9d 8e3c edda f13d ad67 01bf f473 1d3f
00000250: 868c 43bc 81e4 11be 3490 893e 6abc 773f
00000260: 15c0 a03d f938 d3bd a1b3 3fbe 2bc4 633e
00000270: b6ab 60bd 51ef c13e 6cd1 35be faf6 b2be
00000280: 6760 48be 3691 8f3d b200 993e fd26 e8be

enc.0.mab0.fc_v.bias f4 [82]
0.11193915 -0.038429193 -0.07200832 0.36486343 0.19551915 -0.27788302 0.17434688 0.3711975
-0.3901346 -0.116139695 -0.23603773 -0.37293229 -0.28292567 -0.3554424 0.19881962 0.012711637
0.064382225 0.074292414 -0.4073909 -0.118766285 -0.23150411 0.23093028 -0.30683488 -0.13548224
-0.17217527 -0.046236694 0.12750626 0.361117 -0.17282306 0.18407059 -0.12800817 0.053487062
0.2522394 0.0036804976 0.06290453 -0.21356887 -0.19906078 -0.37856197 -0.04567536 -0.20836793
-0.074481405 -0.40679324 -0.062490154 0.007655292 0.0596354 -0.35779375 -0.43802586 0.19361737
-0.21139108 -0.33976218 -0.10682265 -0.03194212 -0.21792436 0.18030964 0.21792203 -0.094388835
-0.33740988 -0.056633875 -0.4527469 0.21062769 0.13487121 0.29733798 0.32085946 -0.053748537
-0.58932287 -0.46440715 -0.34810355 0.10041235 0.0034295183 -0.14817774 0.21368423 0.090549774
-0.44434053 -0.280846 0.056270454 -0.325257 -0.11338451 -0.0010017006 0.0027002573 -0.04816701
-0.040578682 0.25024292
00000000: 5a40 e53d ee67 1dbd 1979 93bd 61cf ba3e
00000010: 2c36 483e af46 8ebe fd87 323e 990d be3e
00000020: b9bf c7be a6da edbd e0b3 71be fbf0 bebe
00000030: a2db 90be 8cfc b5be 5f97 4b3e 7844 503c
00000040: d4da 833d 9f26 983d 8a95 d0be bd3b f3bd
00000050: 6a0f 6dbe fd78 6c3e 7619 9dbe dbbb 0abe
00000060: b74e 30be b062 3dbd 0091 023e 54e4 b83e
00000070: 87f8 30be 007d 3c3e 9314 03be 4015 5b3d
00000080: 8625 813e 8134 713b 17d4 803d ccb1 5abe
00000090: 97d6 4bbe e0d2 c1be 1616 3bbd 675e 55be
000000a0: b589 98bd 3447 d0be adf5 7fbd 3ed9 fa3b
000000b0: 4044 743d be30 b7be ed44 e0be a243 463e
000000c0: e776 58be 4ff5 adbe d5c5 dabd bed5 02bd
000000d0: 9027 5fbe 17a3 383e f426 5f3e ef4e c1bd
000000e0: fdc0 acbe ecf8 67bd 71ce e7be c9ae 573e
000000f0: ae1b 0a3e af3c 983e b147 a43e 6d27 5cbd
00000100: dddd 16bf c6c6 edbe a13a b2be fda4 cd3d
00000110: c5c1 603b e8bb 17be 0ad0 5a3e 2972 b93d
00000120: 9a80 e3be 0ccb 8fbe d97b 663d 1688 a6be
00000130: 2336 e8bd 7f4b 83ba cdf6 303b c54a 45bd
00000140: d535 26bd d71f 803e

enc.0.mab0.fc_o.weight f4 [82, 82]
-0.07329676 0.014848184 0.15222642 0.0833318 0.06135634 -0.13069199 0.083818704 -0.063380405
0.163724 -0.06405774 -0.03475939 0.082811445 0.014691781 0.17621863 -0.0031861793 -0.04363715
-0.14283355 -0.030431394 0.051811457 0.094467044 0.032193817 0.004049796 -0.07647832 0.15934834
0.047620915 -0.081354514 0.1253279 -0.00997169 0.06985201 0.10690135 0.072725646 -0.03184394
0.11729438 0.16275619 -0.09784397 0.0035123373 0.03544438 -0.1077611 0.17154136 0.006310564
-0.04922813 0.016509455 -0.099448204 -0.036453128 0.029234393 -0.12119521 -0.019838393 0.0015103563
-0.035680875 -0.022040999 -0.037545346 -0.03604557 -0.023405017 -0.06317504 0.042478587 0.15719245
0.061607834 0.039144423 0.046752967 0.031613197 -0.0007296825 0.050700165 -0.05122618 0.10548209
0.042148143 -0.06963362 -0.009543818 0.019527888 0.07801239 -0.0004651224 -0.083793245 -0.010898368
0.09901099 0.067205936 -0.15594585 0.034957033 0.051134314 -0.10401616 0.11935328 -0.0751454
0.006667223 0.16435564 0.078175314 0.09647215 -0.0020341277 -0.067682914 0.07612681 0.053641003
0.09347533 -0.035500616 -0.085188515 0.052710626 -0.067803055 0.088651925 -0.017600425 -0.01078363
0.015197439 -0.044448487 -0.103034295 0.026962511 0.05317045 0.027142186 0.041100316 -0.08487885
-0.03328017 -0.039757226 0.082838364 -0.065442465 -0.07326081 0.085273564 0.0432631 -0.085290566
0.062331524 0.057642438 0.06803699 -0.052704014 0.0020221255 -0.05636012 -0.09223993 -0.013341016
0.055274874 0.0014789136 0.020004964 0.001370248 -0.07200672 -0.07664085 -0.06288996 0.06263701
-0.061176766 -0.005732238 -0.09268381 0.10824509 -0.08680142 0.07011014 -0.08677332 0.04016974
-0.038924724 -0.10119093 0.030561943 0.07298323 0.016443605 -0.011029525 -0.056256924 -0.029181438
0.11884891 0.03314409 -0.025752418 0.05622874 0.06822345 0.036057383 0.059657346 0.056038987
0.019389147 0.08906634 -0.038245257 -0.087903254 -0.07623261 0.08700767 -0.03517065 -0.10901387
-0.0928278 -0.055076856 0.050178465 0.073163666 0.31810862 0.03146566 -0.744499 -0.17620149
0.1860086 0.1525068 0.11760075 -0.0683543 0.14136715 0.096898586 -0.07299774 0.21517031
0.016400268 0.08283224 -0.009475719 0.037585363 0.09708294 0.087602615 -0.069724105 0.22519778
0.105531774 -0.016211018 0.025834315 -0.059475783 0.12520537 0.04908363 0.15857759 -0.26152605
-0.093474895 -0.06602862 0.030437713 -0.06581779 -0.09474352 -0.10598223 -0.090049855 0.11111694
-0.07204545 0.04871652 0.09320328 0.11718416 -0.030795168 -0.064375505 0.07703277 -0.036923163
-0.14546363 -0.20084599 0.034505483 0.0002747895 0.16962756 -0.19945443 -0.38157767 0.06925605
0.07203557 0.2181997 -0.12948194 -0.060547106 0.167715 0.032075506 0.13494204 0.14457966
0.15382864 -0.11888724 -0.09788884 -0.011606538 0.010906348 -0.08307107 0.042118542 -0.2428975
0.27561992 0.29108924 -0.17160666 0.008947618 0.11942348 0.021404708 -0.17417264 -0.15967876
-0.1214805 0.092311636 -0.24273248 -0.15034263 -0.027395293 0.054283746 0.060394857 -0.060493443
0.045040198 0.011012459 -0.032056373 -0.040433686 0.08012985 -0.04068743 0.06324243 -0.09847673
00000000: 9d1c 96bd cc45 733c 3ee1 1b3e dda9 aa3d
00000010: c950 7b3d 1fd4 05be 24a9 ab3d 96cd 81bd
00000020: 44a7 273e b430 83bd dd5f 0ebd 0c99 a93d
00000030: ccb5 703c a872 343e 38cf 50bb debc 32bd
00000040: f542 12be 424b f9bc 4038 543d f077 c13d
00000050: aadd 033d 27b4 843b aaa0 9cbd 362c 233e
00000060: 260e 433d 329d a6bd f555 003e 4d60 23bc
00000070: 920e 8f3d 18ef da3d 2ff1 943d cb6e 02bd
00000080: 0938 f03d 8fa9 263e 6b62 c8bd 3e2f 663b
00000090: 202e 113d dab1 dcbd 8aa8 2f3e d9c8 ce3b
000000a0: 70a3 49bd d63e 873c 80ab cbbd e04f 15bd
000000b0: f77c ef3c 3235 f8bd 2084 a2bc 26f7 c53a
000000c0: 1c26 12bd 538f b4bc 26c9 19bd 85a4 13bd
000000d0: e1bb bfbc ea61 81bd 07fe 2d3d 0ff7 203e
000000e0: 7f58 7c3d e755 203d 0a80 3f3d d77c 013d
000000f0: 2a48 3fba faaa 4f3d 8bd2 51bd fe06 d83d
00000100: 88a3 2c3d 129c 8ebd ad5d 1cbc f3f8 9f3c
00000110: f6c4 9f3d acdb f3b9 cb9b abbd 128f 32bc
00000120: 46c6 ca3d 44a3 893d 45b0 1fbe 1b2f 0f3d
00000130: 3772 513d 6d06 d5bd 7e6f f43d d5e5 99bd
00000140: b878 da3b d84c 283e 611a a03d 3193 c53d
00000150: 004f 05bb 579d 8abd 5fe8 9b3d abb6 5b3d
00000160: fe6f bf3d 1869 11bd 5177 aebd 19e7 573d
00000170: 54dc 8abd 248f b53d c42e 90bc d3ad 30bc
00000180: aefe 783c 9e0f 36bd a503 d3bd 7ce0 dc3c
00000190: 42c9 593d 4a59 de3c ce58 283d f6d4 adbd
000001a0: ca50 08bd 79d8 22bd 29a7 a93d b306 86bd
000001b0: c309 96bd e8a3 ae3d a634 313d d2ac aebd
000001c0: 574f 7f3d 7a1a 6c3d fa56 8b3d 2ae0 57bd
000001d0: a385 043b dfd9 66bd 4ae8 bcbd 4794 5abc
000001e0: e867 623d 1bd8 c13a 73e1 a33c e599 b33a
000001f0: 4278 93bd e1f5 9cbd 74cc 80bd d547 803d
00000200: 7d94 7abd 7fd5 bbbb 02d1 bdbd 9aaf dd3d
00000210: f1c4 b1bd e895 8f3d 36b6 b1bd 0689 243d
00000220: 886f 1fbd 313d cfbd 0a5d fa3c 3b78 953d
00000230: bdb4 863c 2eb5 34bc a96d 66bd e90d efbc
00000240: 0f67 f33d 19c2 073d bcf6 d2bc 1b50 663d
00000250: bcb8 8b3d e8b0 133d 435b 743d 2389 653d
00000260: fdd5 9e3c 6a68 b63d 0fa7 1cbd 9f06 b4bd
00000270: d81f 9cbd 1431 b23d 190f 10bd aa42 dfbd
00000280: 801c bebd 4598 61bd ef87 4d3d d5d6 953d
00000290: 22df a23e 23e2 003d 7d97 3ebf 2a6e 34be
000002a0: 0a79 3e3e be2a 1c3e a9d8 f03d 57fd 8bbd
000002b0: 8dc2 103e c472 c63d d77f 95bd 9b55 5c3e
000002c0: db59 863c f3a3 a93d 0c40 1bbc 1cf3 193d
000002d0: 6cd3 c63d 0069 b33d 83cb 8ebd 3f9a 663e
000002e0: 0b21 d83d f8cc 84bc 7ca2 d33c e19c 73bd
000002f0: d635 003e eb0b 493d 2a62 223e bee6 85be
00000300: c46f bfbd 033a 87bd 8358 f93c 7acb 86bd
00000310: e408 c2bd 360d d9bd 0f6c b8bd 4791 e33d
00000320: 918c 93bd f98a 473d 5ce1 be3d 40fe ef3d
00000330: 2646 fcbc 4ed7 83bd 5bc3 9d3d be3c 17bd
00000340: 6bf4 14be 92aa 4dbe 9f55 0d3d 9f11 9039
00000350: d9b2 2d3e c83d 4cbe 265e c3be 1ed6 8d3d
00000360: 6387 933d be6f 5f3e ea96 04be 3e00 78bd
00000370: 7bbd 2b3e 9b61 033d 3f2e 0a3e b10c 143e
00000380: 4185 1d3e 277b f3bd f279 c8bd 5929 3ebc
00000390: 8ab0 323c 2a21 aabd 7e84 2c3d 1fba 78be
000003a0: 0e1e 8d3e a609 953e a8b9 2fbe 0899 123c
000003b0: 4c94 f43d ed58 af3c 505a 32be d482 23be
000003c0: c5ca f8bd e20d bd3d dd8e 78be 6bf3 19be
000003d0: 186c e0bc a258 5e3d 9960 773d f9c7 77bd
000003e0: 127c 383d 9a6d 343c 8b4d 03bd cb9d 25bd
000003f0: 1e1b a43d dda7 26bd 3f85 813d 2bae c9bd

enc.0.mab0.fc_o.bias f4 [82]
-0.14947495 -0.08657003 -0.11042385 -0.14170508 -0.07399239 -0.07519634 -0.13871644 -0.12176823
-0.044922236 -0.11905731 -0.0923437 -0.11319939 -0.09574988 -0.0859931 -0.13039787 -0.10133215
-0.1332502 -0.18363482 -0.04261852 -0.11828521 -0.10281195 -0.084464885 -0.10728954 -0.066717796
-0.09316688 -0.114779 -0.111470826 -0.10370641 -0.09525106 -0.10875629 -0.013353637 -0.10369233
-0.16805208 -0.12031694 -0.06823787 -0.12964466 -0.14231585 -0.13163579 -0.08103293 -0.08512479
-0.16404597 -0.08716602 -0.099078715 -0.1747814 -0.0795785 -0.064676434 -0.07020601 -0.120981514
-0.12198688 -0.075477265 -0.095515534 -0.09058502 -0.105243236 -0.082905 -0.15794629 -0.11533248
-0.11143351 -0.09446157 -0.10277914 -0.10823355 -0.08233997 -0.12741186 -0.10802437 -0.14086175
-0.1815688 -0.058039226 -0.096615106 -0.12994546 -0.054125708 -0.07810061 -0.116653845 -0.13720404
-0.11878766 -0.11078594 -0.11463873 -0.0667572 -0.11345179 -0.13701066 -0.12703039 -0.119040355
-0.08956642 -0.06399499
00000000: f60f 19be a14b b1bd e625 e2bd 231b 11be
00000010: 5289 97bd 8a00 9abd af0b 0ebe 9f61 f9bd
00000020: 6100 38bd 52d4 f3bd b21e bdbd 15d5 e7bd
00000030: 8318 c4bd 271d b0bd 0587 05be 3b87 cfbd
00000040: be72 08be c40a 3cbe c290 2ebd 843f f2bd
00000050: 128f d2bd edfb acbd 9eba dbbd 57a3 88bd
00000060: 47ce bebd 4111 ebbd d14a e4bd 0764 d4bd
00000070: fd12 c3bd 9ebb debd 37c9 5abc a55c d4bd
00000080: d815 2cbe ba68 f6bd 4cc0 8bbd 92c1 04be
00000090: 3fbb 11be 88cb 06be 98f4 a5bd e855 aebd
000000a0: abfb 27be 1984 b2bd c8e9 cabd e5f9 32be
000000b0: 0dfa a2bd 1475 84bd 2bc8 8fbd 28c5 f7bd
000000c0: 42d4 f9bd d393 9abd a69d c3bd a484 b9bd
000000d0: c489 d7bd 19ca a9bd acbc 21be 6f33 ecbd
000000e0: 4137 e4bd 1175 c1bd df7d d2bd 8da9 ddbd
000000f0: dca1 a8bd 4178 02be e23b ddbd 103e 10be
00000100: 2ced 39be 8aba 6dbd 24de c5bd 6c10 05be
00000110: ebb2 5dbd 36f3 9fbd 36e8 eebd 377f 0cbe
00000120: f246 f3bd bde3 e2bd b6c7 eabd 00b8 88bd
00000130: 6959 e8bd 864c 0cbe 4114 02be 6ecb f3bd
00000140: 996e b7bd ce0f 83bd

enc.0.mab1.fc_q.weight f4 [82, 2]
0.77550113 -0.902433 0.0010684845 -0.0015252462 0.0620695 0.18691882 -0.0046082786 -0.0005083685
0.009624385 -0.0007705354 0.19946744 0.3864942 0.62655103 -0.842886 -0.17968561 -0.42074516
-0.14884171 -1.0309141 0.56752634 -0.859506 0.27902585 -0.32230526 0.63147277 -0.7079871
-0.12955381 0.64393884 0.40751043 0.0940055 -0.0073705143 -0.012071351 0.20446055 -0.9457831
-1.0949694 0.8766329 -0.2981231 -0.6029986 0.4150736 -0.65558016 0.23737293 -0.5520913
0.03336634 0.44034487 -0.0029919269 -0.0008522503 -0.38726377 -0.457491 -0.0083286185 -0.0007240837
0.15706281 -0.60055935 -0.1413829 0.35017908 0.42260274 0.58580077 0.45122403 -0.8649324
-0.38728827 0.23224388 -0.24586721 -0.3093373 -0.5450693 0.58692205 -0.49712625 1.1926757
0.0054916595 0.002137287 -0.33565977 0.35265544 0.26795048 0.74372506 -0.4522828 -0.6357171
-0.002480404 0.004030107 -0.31441194 1.008027 0.19716702 -0.523603 -5.0013707e-05 -0.006609747
0.3087042 1.0393409 -0.069724984 0.79499954 0.20111673 0.4356709 -0.52297163 -0.121701896
-0.2765909 -0.520155 0.006626669 -0.0075695077 -0.16589694 0.42279264 0.019411858 0.306041
0.52147096 -0.37079835 0.45603493 -1.0407147 -0.675078 0.5159218 0.117775075 -0.29525772
-0.17511208 -0.46169588 0.063951485 -0.60700876 -0.073867306 -0.16768786 -0.0019969172 -0.0035904478
-0.002881244 0.0032918875 -0.313583 0.06740249 0.7808734 -0.8773303 -0.6149234 0.87334317
-0.0025524863 -0.0022645716 0.12869273 -0.28504947 0.7782623 -1.0452527 -0.005480725 -0.0006879654
-0.9393115 0.22825684 0.32682884 -1.0353526 -0.0028564245 0.0014128382 0.66184473 -1.0327291
0.51726073 -0.55960923 -0.004287586 0.00042409005 -0.25795814 0.26636502 0.052538604 -0.2673715
-0.49585718 0.55360895 -0.1393129 0.566071 0.0048724213 -0.012645389 -0.012371394 -0.0034096297
0.0034918801 0.0059481827 0.43091157 0.20568402 0.0038341982 0.00077102135 0.27496395 -1.0505897
-0.21574844 0.8091854 -0.35702986 -0.2325655
00000000: 3e87 463f d905 67bf 640c 8c3a c5ea c7ba
00000010: 973c 7e3d a667 3f3e 0b01 97bb 0844 05ba
00000020: 99af 1d3c c1fd 49ba 3141 4c3e 91e2 c53e
00000030: a665 203f 60c7 57bf 81ff 37be e96b d7be
00000040: f669 18be fef4 83bf 6849 113f 9608 5cbf
00000050: 7adc 8e3e 3205 a5be 33a8 213f a53e 35bf
00000060: c1a9 04be 2dd9 243f 35a5 d03e f585 c03d
00000070: 5b84 f1bb eac6 45bc 1b5e 513e d71e 72bf
00000080: f527 8cbf 046b 603f 97a3 98be 1e5e 1abf
00000090: 8784 d43e 1ad4 27bf e411 733e db55 0dbf
000000a0: 25ab 083d e274 e13e 3414 44bb 8d69 5fba
000000b0: 7047 c6be 433c eabe c274 08bc 6fd0 3dba
000000c0: 13d5 203e 42be 19bf aec6 10be ac4a b33e
000000d0: 635f d83e 0af7 153f d606 e73e 366c 5dbf
000000e0: a64a c6be 57d1 6d3e 9dc4 7bbe 7561 9ebe
000000f0: a989 0bbf 8640 163f 5587 febe 99a9 983f
00000100: 61f3 b33b ba11 0c3b 99db abbe 418f b43e
00000110: ce30 893e c464 3e3f 9c91 e7be 5bbe 22bf
00000120: 468e 22bb fd0e 843b 9afa a0be 0707 813f
00000130: 27e6 493e d90a 06bf cfc5 51b8 9496 d8bb
00000140: 7a0e 9e3e 1f09 853f f9cb 8ebd 1785 4b3f
00000150: 8bf1 4d3e 4210 df3e 78e1 05bf d83e f9bd
00000160: 539d 8dbe e128 05bf 8724 d93b a209 f8bb
00000170: e3e0 29be 4778 d83e 9e05 9f3c 68b1 9c3e
00000180: 1f7f 053f 48d9 bdbe 697d e93e 2436 85bf
00000190: e9d1 2cbf 7313 043f 0f34 f13d 052c 97be
000001a0: 9550 33be 6763 ecbe fff8 823d ed64 1bbf
000001b0: be47 97bd 5eb6 2bbe b6de 02bb b84d 6bbb
000001c0: 41d3 3cbb b5bc 573b f38d a0be 510a 8a3d
000001d0: 52e7 473f b898 60bf 9f6b 1dbf 6b93 5f3f
000001e0: 9d47 27bb 3569 14bb 07c8 033e 01f2 91be
000001f0: 333c 473f d7ca 85bf a797 b3bb 9458 34ba
00000200: b876 70bf 29bc 693e 1c56 a73e 6f86 84bf
00000210: da32 3bbb fc2e b93a a86e 293f 7830 84bf
00000220: 336b 043f 8d42 0fbf e17e 8cbb 6758 de39
00000230: 1713 84be ff60 883e b832 573d ebe4 88be
00000240: fee0 fdbe 51b9 0d3f 0aa8 0ebe 07ea 103f
00000250: d5a8 9f3b 9b2e 4fbc 63b1 4abc 1874 5fbb
00000260: 07d8 643b f9e8 c23b 71a0 dc3e d59e 523e
00000270: 2c47 7b3b 5e1e 4a3a 13c8 8c3e b979 86bf
00000280: 29ed 5cbe c626 4f3f 9ecc b6be a725 6ebe

enc.0.mab1.fc_q.bias f4 [82]
-0.20829347 0.23445429 0.33982506 0.28800166 0.13347514 0.04605232 0.068752654 -0.24211164
-0.25242904 0.06533347 -0.1143707 -0.5146195 -0.35226104 -0.31581283 -0.28451967 -0.12529716
-0.4027259 -0.26225147 -0.33965713 0.38195133 0.06324142 -0.27749556 0.2041261 -0.15879111
0.1415286 0.31873283 -0.71508235 0.20274426 0.32000265 -0.19091065 -0.3685124 -0.23295207
0.0071827024 -0.21351112 -0.31031767 0.28874755 0.119594805 -0.2526515 0.15270455 -0.2619298
-0.38777858 0.23019636 -0.12563087 0.36772943 -0.42324463 -0.24320579 -0.34565932 0.2525807
-0.14823939 -0.027705971 0.34373537 -0.049458984 0.33850458 0.0853914 0.24606296 0.2572883
-0.02209676 0.17703612 0.06431977 0.28042096 0.16618815 0.1968751 -0.6724592 0.26047492
-0.52435386 -0.5688141 0.21797289 0.1748903 -0.207412 0.29160473 -0.21795806 0.31892988
0.19387388 0.25967148 -0.12434371 0.08171868 0.37783512 -0.32400912 0.2682507 -0.25542158
-0.12420146 -0.5337263
00000000: e24a 55be c914 703e 8dfd ad3e f474 933e
00000010: b5ad 083e 5ca1 3c3d 31ce 8c3d 1dec 77be
00000020: 613e 81be 8ecd 853d 303b eabd 1bbe 03bf
00000030: 8f5b b4be 38b2 a1be 90ac 91be e64d 00be
00000040: 1732 cebe d345 86be 8ae7 adbe 208f c33e
00000050: b884 813d e613 8ebe 6f06 513e 239a 22be
00000060: e0ec 103e f330 a33e a30f 37bf 319c 4f3e
00000070: 63d7 a33e 157e 43be a8ad bcbe fd8a 6ebe
00000080: e05c eb3b a9a2 5abe f5e1 9ebe b8d6 933e
00000090: 1fee f43d 8a5b 81be 955e 1c3e aa1b 86be
000000a0: ea8a c6be 98b8 6b3e 61a5 00be 0847 bc3e
000000b0: 85b3 d8be f00a 79be 42fa b0be 4252 813e
000000c0: 11cc 17be a2f7 e2bc 15fe af3e 8195 4abd
000000d0: 7950 ad3e b0e1 ae3d eef7 7b3e 4bbb 833e
000000e0: 4404 b5bc f548 353e 15ba 833d 5693 8f3e
000000f0: 3a2d 2a3e a099 493e 4926 2cbf f85c 853e
00000100: 0e3c 06bf cd9d 11bf 4934 5f3e 7116 333e
00000110: d063 54be 374d 953e 6630 5fbe c74a a33e
00000120: e086 463e a9f3 843e eaa7 febd 205c a73d
00000130: 9b73 c13e 86e4 a5be 2858 893e 9ec6 82be
00000140: 565d febd 49a2 08bf

enc.0.mab1.fc_k.weight f4 [82, 82]
-0.006414935 -0.038985316 0.10594882 0.030434504 -0.121398 0.05777015 0.037027247 1.4200513
0.340821 0.15915304 -0.02447113 0.7320374 -0.06521155 -0.033386357 -0.15774931 0.07660396
0.0044864994 0.2840816 0.109730884 -0.1903551 0.097986944 0.08976989 0.025006346 -0.10427979
0.013069462 0.012887383 -0.027945383 0.066035435 0.033731785 1.0341277 0.24362484 -0.2189011
1.64359 0.15188953 -0.2684525 -0.14989781 0.016280225 0.030433435 -0.11876863 -0.048970837
-0.013352874 -0.11995886 -0.12105792 -0.063525654 0.18520904 -0.10749531 0.04606677 0.19375715
-0.1907669 0.14854605 -0.051678035 0.0062086 -0.16287117 0.05735146 0.24343649 -0.02102921
-0.0019989847 -0.010230403 -0.13158755 0.21780805 -0.018678145 0.055846967 0.11615657 -0.22989313
1.4695842 1.1355131 0.07549425 0.70815897 0.84079564 -0.042027514 0.40644243 1.6901641
-0.07285373 -0.14941083 -0.21508175 0.011303198 -0.38969734 -0.019918386 0.4466613 -0.048443202
0.7744654 1.6427022 -0.3032412 0.23750116 -0.36591923 -0.07133338 -0.08896151 -0.13075732
-0.2022844 -1.9016566 -0.5363639 -0.15177162 -0.01334009 -0.71892536 0.25075847 0.0974919
0.08789703 -0.244554 0.1960407 -0.063558266 -0.46223408 0.1766251 -0.016397927 -0.13227965
-0.13295735 0.058927745 -0.13199021 -0.082981825 -0.0012286917 -0.2089295 -0.07034233 -1.6946971
-0.19189197 0.187615 -1.9348053 0.009343644 0.36040556 0.11411523 -0.33788136 0.12156204
-0.12726884 -0.048015863 -0.2649905 0.15959993 0.18166378 0.15770924 0.04904668 0.13174273
-0.5069317 -0.083811454 0.030979313 -0.078502685 0.00047947446 -0.34573862 0.042492934 -0.038475063
-0.07160228 -0.13844582 0.019025465 0.012717153 0.11947765 0.05001392 0.0035478845 0.11883925
-0.1824738 -0.0804085 -2.505276 -1.8113955 0.06363772 -1.2874279 -1.1476486 -0.0001848977
-0.732355 -2.7362545 0.12745118 0.19620942 0.20778896 -0.2605684 -0.066639505 0.04255112
-1.1537335 0.13629289 -1.1953518 -1.9518523 -0.36777872 0.314625 -0.42300454 -0.04326649
0.10099232 -0.010047937 -0.25271553 -1.6651331 -0.6128137 -0.10472397 0.035760496 -0.88341355
0.15305184 0.039326992 0.055741083 -0.15942024 0.136391 -0.023384845 -0.41766945 0.2790886
0.054733105 0.021691475 -0.042011373 0.12929098 -0.019940285 -0.13823432 -0.10969094 0.009213691
-0.041335493 -1.4374051 -0.08804229 0.046831004 -1.9292622 0.036319207 0.42454594 -0.033471543
-0.31338224 0.106760755 -0.21121679 0.11921406 -0.116067745 0.09610479 0.29539794 0.047759436
0.02204835 0.049011774 -0.34784788 -0.12512676 0.15765293 -0.020399328 0.06655666 -0.050255302
0.14615755 -0.15963908 -0.09769889 0.038751706 0.18202879 -0.032863546 -0.0152632315 -0.049974546
0.1997622 -0.10252128 -0.059257686 0.0170361 -2.2325196 -1.6342511 -0.04224304 -0.9889337
-1.0390366 0.025275458 -0.7025628 -2.4458613 0.036402956 0.0054405397 0.23601547 -0.15074669
-0.14004053 0.059552845 -1.0340711 0.19446206 -1.0746093 -1.9114758 -0.19625938 0.34791842
-0.40785795 -0.073302776 0.0442179 0.08890864 -0.25954127 -1.7436054 -0.51032174 -0.15810995
00000000: 6034 d2bb 11af 1fbd b2fb d83d c851 f93c
00000010: 849f f8bd 65a0 6c3d e2a9 173d 3ec4 b53f
00000020: 1780 ae3e 04f9 223e ae77 c8bc ce66 3b3f
00000030: a28d 85bd 22c0 08bd 0989 21be 89e2 9c3d
00000040: 7c03 933b 2573 913e 96ba e03d 73ec 42be
00000050: 61ad c83d 47d9 b73d 1cda cc3c a490 d5bd
00000060: 4c21 563c 9a25 533c b7ed e4bc 963d 873d
00000070: 572a 0a3d 4c5e 843f ca78 793e 9c27 60be
00000080: 2861 d23f ee88 1b3e 9b72 89be d07e 19be
00000090: 1b5e 853c 8a4f f93c f83c f3bd a595 48bd
000000a0: 03c6 5abc feac f5bd 37ed f7bd bd19 82bd
000000b0: 70a7 3d3e 8026 dcbd 82b0 3c3d 4668 463e
000000c0: 6658 43be 751c 183e 59ac 53bd 8371 cb3b
000000d0: b3c7 26be 5de9 6a3d 6a47 793e 7345 acbc
000000e0: 6601 03bb 6c9d 27bc e3be 06be 1309 5f3e
000000f0: e902 99bc cabf 643d 7fe3 ed3d 1b69 6bbe
00000100: 561b bc3f 7e58 913f bb9c 9a3d e849 353f
00000110: 623e 573f 0b25 2cbd 3919 d03e 4c57 d83f
00000120: 5634 95bd 27ff 18be 643e 5cbe 0c31 393c
00000130: 6986 c7be e22b a3bc cab0 e43e 616c 46bd
00000140: 5d43 463f 1144 d23f 6e42 9bbe 8133 733e
00000150: c459 bbbe 3c17 92bd 7431 b6bd 3fe5 05be
00000160: a423 4fbe 7c69 f3bf 254f 09bf 056a 1bbe
00000170: 6590 5abc 7e0b 38bf 6a63 803e d5a9 c73d
00000180: 5c03 b43d 5d6c 7abe e5be 483e d62a 82bd
00000190: f2a9 ecbe 36dd 343e f254 86bc 5174 07be
000001a0: f925 08be 385e 713d 7128 07be 60f2 a9bd
000001b0: 0d0c a1ba 9df1 55be a40f 90bd d6eb d8bf
000001c0: 547f 44be 261e 403e b3a7 f7bf 1516 193c
000001d0: 1487 b83e 3fb5 e93d c9fe acbe 85f5 f83d
000001e0: c352 02be 48ac 44bd d6ac 87be 2a6e 233e
000001f0: 1206 3a3e 887e 213e 2ce5 483d 91e7 063e
00000200: 47c6 01bf 57a5 abbd 54c8 fd3c 04c6 a0bd
00000210: f961 fb39 a704 b1be 120d 2e3d 0798 1dbd
00000220: 37a4 92bd bec4 0dbe 4bdb 9b3c 9b5b 503c
00000230: b3b0 f43d 65db 4c3d a083 683b fe61 f33d
00000240: 69da 3abe 36ad a4bd 7156 20c0 cfdb e7bf
00000250: 7e54 823d 70ca a4bf 26e6 92bf 19e1 41b9
00000260: 9e7b 3bbf cb1e 2fc0 9082 023e 1feb 483e
00000270: a1c6 543e 3969 85be 4b7a 88bd 154a 2e3d
00000280: 8aad 93bf 5d90 0b3e 4a01 99bf 4cd6 f9bf
00000290: 7e4d bcbe 8716 a13e 0d94 d8be 3438 31bd
000002a0: 10d5 ce3d 1aa0 24bc ee63 81be 1523 d5bf
000002b0: 5ce1 1cbf 8579 d6bd 9979 123d 6427 62bf
000002c0: 9fb9 1c3e 5715 213d c350 643d 0f3f 23be
000002d0: 15aa 0b3e 9391 bfbc c5d8 d5be b3e4 8e3e
000002e0: d22f 603d 52b2 b13c 1e14 2cbd db64 043e
000002f0: cf59 a3bc 4c8d 0dbe a5a5 e0bd 05f5 163c
00000300: 684f 29bd e4fc b7bf 844f b4bd ded1 3f3d
00000310: 10f2 f6bf 73c3 143d 165e d93e 7519 09bd
00000320: a373 a0be 62a5 da3d 3749 58be 8026 f43d
00000330: edb4 edbd 97d2 c43d 663e 973e 669f 433d
00000340: be9e b43c 92c0 483d 1e19 b2be 3b21 00be
00000350: c56f 213e 7e1c a7bc dc4e 883d 81d8 4dbd
00000360: 53aa 153e 6d78 23be 5b16 c8bd 1cba 1e3d
00000370: c165 3a3e ed9b 06bd a212 7abc 1cb2 4cbd
00000380: 768e 4c3e adf6 d1bd 30b8 72bd 4b8f 8b3c
00000390: 9ae1 0ec0 242f d1bf 0a07 2dbd c22a 7dbf
000003a0: 27ff 84bf 7a0e cf3c 28db 33bf fe88 1cc0
000003b0: 441b 153d 8e46 b23b 0aae 713e 575d 1abe
000003c0: c966 0fbe afed 733d 715c 84bf 1021 473e
000003d0: cc8c 89bf 3dab f4bf 38f8 48be 5d22 b23e
000003e0: c2d2 d0be c41f 96bd d41d 353d bc15 b63d
000003f0: 98e2 84be 762e dfbf 72a4 02bf 93e7 21be

enc.0.mab1.fc_k.bias f4 [82]
0.0063965684 0.11849869 0.062319264 -0.07424106 -0.06872945 -0.01624302 0.06481784 0.053507213
-0.009833861 0.09957178 0.0010724019 -0.099754274 -0.08186518 0.0518564 0.031560473 0.055115573
-0.0025124478 -0.0064291274 -0.10491112 0.15263839 0.09845288 -0.012195163 -0.029561492 0.05739267
-0.049294002 -0.024289094 0.05401923 -0.093753465 0.06304709 -0.13156083 0.04326004 -0.014161963
-0.071833886 0.0139866555 0.061423965 -0.011667636 0.06688286 -0.10468396 0.07836057 0.029207125
0.007449149 -0.064004526 0.02029943 0.022738462 -0.03116596 0.020952482 -0.09150336 0.088739894
0.05912694 -0.06126977 -0.026621735 0.09765749 -0.10129188 -0.05394532 -0.111305565 0.02372905
0.081548885 -0.005989699 -0.07687971 -0.085999414 -0.04347342 -0.065533966 -0.07612113 -0.032211564
-0.0426963 0.11560324 0.08272645 -0.018525288 -0.1018135 0.09780395 -0.08329024 -0.092644826
0.10304682 0.06917535 -0.05860157 0.04956898 0.09559903 -0.08827697 -0.04394849 0.0418714
-0.023414949 -0.13430311
00000000: 4e9a d13b 71af f23d 7c42 7f3d b20b 98bd
00000010: 07c2 8cbd 1510 85bc 37bf 843d 612a 5b3d
00000020: 341e 21bc 4aec cb3d d68f 8c3a f84b ccbd
00000030: eea8 a7bd 6067 543d 8e45 013d dec0 613d
00000040: e1a7 24bb 6eab d2bb a4db d6bd 3d4d 1c3e
00000050: aaa1 c93d 39ce 47bc f12a f2bc 9414 6b3d
00000060: 82e8 49bd ecf9 c6bc 4543 5d3d d101 c0bd
00000070: d51e 813d e2b7 06be 7131 313d 9407 68bc
00000080: a51d 93bd 4928 653c b297 7b3d 9d29 3fbc
00000090: e2f9 883d 8b64 d6bd 827b a03d c843 ef3c
000000a0: fe17 f43b ce14 83bd fd4a a63c 0346 ba3c
000000b0: c14f ffbc 8aa4 ab3c 1d66 bbbd 43bd b53d
000000c0: 172f 723d 03f6 7abd d315 dabc a600 c83d
000000d0: 1e72 cfbd c5f5 5cbd 2cf4 e3bd 6d63 c23c
000000e0: 1a03 a73d 3d45 c4bb 1c73 9dbd 7620 b0bd
000000f0: 2f11 32bd ac36 86bd 65e5 9bbd 46f0 03bd
00000100: 51e2 2ebd 64c1 ec3d 7c6c a93d 58c2 97bc
00000110: 9983 d0bd 704d c83d 1394 aabd 92bc bdbd
00000120: 360a d33d ceab 8d3d 3308 70bd d808 4b3d
00000130: 6dc9 c33d 8eca b4bd 5503 34bd 5881 2b3d
00000140: b5d0 bfbc c186 09be
