simple_ff_weights.pth (torch, 67355 bytes, 3 tensors)

regressor.0.weight f4 [8, 2048]
000000 ee f5 28 be a0 38 e7 3c d3 b4 99 bd 17 da 7f 3b
       -0.16500065 0.028225243 -0.075051926 0.0039039904
000010 5d 67 10 bd fb 48 02 3d 6d ba 85 bd cb 3d 79 3b
       -0.035254825 0.03180788 -0.065296985 0.0038031216
000020 0d e1 82 bb f6 f5 d3 3c 6e c1 34 3c 17 06 0e 3b
       -0.0039941133 0.02587412 0.011032445 0.002167111
000030 b3 85 74 39 1b 64 22 bc 6b 1b 53 3c c6 c8 fa 3b
       0.0002331946 -0.009911562 0.012884955 0.0076533286
000040 53 4d d3 3c 33 8d 63 3d 77 84 9b bc bb ce cd 3a
       0.025793707 0.05555458 -0.018984063 0.0015701869
000050 44 00 24 3d ca e5 6f 3d 0e 82 05 bd 03 c4 97 3c
       0.040039316 0.058568753 -0.032594733 0.018526083
000060 b2 fb ee bb d8 7b 2f bc d7 78 cc 3c a0 eb 0a bd
       -0.007293188 -0.010710679 0.024959965 -0.033916116
000070 d3 54 87 bb 57 f3 c1 bc 43 62 88 3b 82 e6 d2 38
       -0.004129985 -0.023675604 0.0041621043 0.00010056516
000080 01 6c b2 bb 83 5c 8a 3c 88 f6 bf 3a 70 26 e5 3b
       -0.005445004 0.016889816 0.0014645616 0.0069931075
000090 38 68 3f bd 51 09 e6 3c c4 59 0b bc 26 87 bc 3c
       -0.04673025 0.028080614 -0.0085052885 0.023013663
0000a0 e5 7f d4 3b 7e 3c d7 bc 9f 95 83 3c e9 3f 10 bd
       0.006484973 -0.026273962 0.016062556 -0.0352172
0000b0 ea f7 bf 39 15 f6 f6 bc d5 41 03 3d 42 dc 50 bb
       0.0003661507 -0.030146638 0.032045204 -0.0031869565
0000c0 04 a6 3c bc 46 2c 1e 3c 00 cc 97 3c 11 ba 06 3d
       -0.011514191 0.00965411 0.018529892 0.03289229
0000d0 a3 e8 5e bc 1f 49 e6 3b 1b 98 ed ba b8 37 b2 bb
       -0.01360527 0.0070277597 -0.0018126996 -0.005438771
0000e0 9d 22 55 3c 4f a4 3e bd bf 4f 52 3b 36 dd 24 bd
       0.013008741 -0.046543416 0.003209099 -0.040250026
0000f0 d8 fc ff 3c fa 04 bb bc f8 69 15 3c cf d0 9c bc
       0.031248495 -0.022829521 0.009119503 -0.019142536
000100 2d 96 c9 3c 92 57 9d 3c 57 16 b0 3c e1 a5 db 3c
       0.024607742 0.019206796 0.021495027 0.026812496
000110 36 14 1b 3b 47 a2 22 3d 2e 57 b4 bc 77 cc 4c 3c
       0.002366317 0.03970554 -0.022014227 0.01249992
000120 50 1e b3 3c 49 8f 85 bb 30 64 35 3d f2 54 00 3b
       0.02186504 -0.004075919 0.044285 0.0019581881
000130 21 52 08 3d 6a 81 10 bd d1 71 46 bb 32 d0 16 bd
       0.03328145 -0.03527967 -0.0030280242 -0.036819644
000140 eb ee e7 bc 58 88 99 3c 11 54 14 bd 61 3b fd bd
       -0.028312167 0.018741772 -0.036212984 -0.12364841
000150 2e c7 83 bc ef a0 20 bd 7d 36 41 bc d5 82 20 bd
       -0.016086187 -0.03921598 -0.011792776 -0.03918727
000160 fb 9f 70 3c 1b e2 86 bd 22 74 dd bc 6b b3 f1 bc
       0.01468658 -0.06586095 -0.027032916 -0.029504498
000170 0f af af bc 98 0d 03 bd 75 40 05 bd 95 1a 51 bd
       -0.02144578 -0.031995386 -0.032532174 -0.05105074
000180 10 26 87 3d bc 26 77 3d 87 3e 52 3d da 4e 49 3d
       0.06599057 0.060339674 0.051329162 0.049147464
000190 bb 28 c8 3d 61 72 a9 3d 04 5d 28 3d 90 bc f6 3d
       0.09773394 0.08273769 0.04110433 0.12047684
0001a0 b8 22 8d bd 66 60 a4 3d 09 25 e3 3b d5 27 86 3d
       -0.06891388 0.08026199 0.006931905 0.06550566
0001b0 29 85 6d 3d fb 52 b8 3d 56 b9 ee 3b f9 c5 f8 3d
       0.05798832 0.09000202 0.0072852774 0.12147135
0001c0 12 6f c4 bc 8c 1a 59 3d 97 f8 c4 bd 30 64 8e 3d
       -0.023978744 0.053003833 -0.09617727 0.06952703
0001d0 fd b7 82 bd ca 5f f1 3d d5 3e 9d bc f1 ab 3e 3d
       -0.06382749 0.117858484 -0.019195 0.046550695
0001e0 8f ee 0b 3d d3 9f 8a 3c c7 03 43 bd ae 7b 91 3d
       0.034163054 0.016921913 -0.047611024 0.07103668
0001f0 23 6c 9b 3b a0 72 cc 3d 06 d6 02 bb 46 42 18 3b
       0.0047431155 0.099828005 -0.0019963994 0.0023232861
000200 bf 21 13 be e9 77 ee b9 31 d3 c3 bd 65 7c af 3c
       -0.14368342 -0.00045484237 -0.09561766 0.02142162
000210 4e 75 83 bd 8d 3b 38 bc 60 79 5d 3d 4b 17 84 bd
       -0.064188585 -0.011244667 0.05407083 -0.06449755
000220 99 2b 36 bd f5 30 28 ba 6b fa 98 bb 08 98 bf 3c
       -0.04447517 -0.00064159866 -0.004668524 0.023387924
000230 f8 8a cb 3c 9d 4d b5 3b 23 4b 45 3d 1e 48 db bb
       0.024846539 0.005532934 0.04816736 -0.0066919466
000240 5a b9 ea bd ab 0a 8e 3c 0b bc 8c 3c 5b db 98 bb
       -0.11461134 0.017339071 0.01717951 -0.004664821
000250 ca fa c7 3c c9 d4 a7 bd dd c4 67 3d d5 e1 63 bd
       0.024411578 -0.081948824 0.056584228 -0.055635292
000260 16 36 1d bd 5d 64 8d 3c 8a 15 7f 3c 18 49 59 bc
       -0.03838166 0.017259771 0.0155691 -0.013262056
000270 03 a9 39 3c 0c b6 2a bd 10 ce 9b 3c 47 33 f9 bc
       0.011331799 -0.04167752 0.019019157 -0.030419959
000280 e8 37 fe bc 31 da 62 bd ef 9d 15 bc 36 f1 85 bd
       -0.031032518 -0.055383865 -0.009131893 -0.06540148
000290 a0 21 96 3d c7 a5 a3 bd 62 b5 d5 3d 76 27 85 bd
       0.07330632 -0.07990604 0.10434987 -0.06501667
0002a0 dc a7 aa bb 91 ab 3e bd 1f fc 8a 3d f4 fb 44 bd
       -0.0052079987 -0.046550337 0.067863695 -0.048091844
0002b0 55 aa 98 3d 86 46 27 bd 8e 32 7e bd 9e bb 29 3c
       0.07454363 -0.04083874 -0.06205993 0.010359673
0002c0 e6 ee c3 3d a0 b8 32 bd e4 d0 09 3e 17 99 ed bd
       0.09567051 -0.043633103 0.13458592 -0.11601465
0002d0 eb 9f 2a 3e db 30 8f bd 85 0c 9a 3d fe 39 3f bc
       0.16662566 -0.0699174 0.07521919 -0.011671541
0002e0 25 70 d3 3d 09 a2 e3 bb 22 87 81 bd 20 f3 72 bd
       0.10324124 -0.0069468063 -0.06324603 -0.059313893
0002f0 9d 13 2e 3d b6 2f 03 3c 95 fb f9 3d df 5f 3a 3c
       0.042499173 0.008006981 0.122061886 0.0113753965
000300 7e b8 48 bb a5 56 9f bd bf 4d 11 bd 58 b6 90 bd
       -0.0030627544 -0.07780198 -0.035474535 -0.07066029
000310 8e 34 9f bb 97 9b 36 bb dd 31 a9 bc 0b b1 fb 3c
       -0.00485856 -0.0027863735 -0.02065366 0.03072407
000320 b6 98 cd bd 14 6f bd 3c 5a a5 86 bd e1 63 c6 bb
       -0.10038893 0.023124255 -0.06574507 -0.006054387
000330 a3 06 b2 bc 20 39 ed 3c 59 70 f9 bc 5b c3 86 3d
       -0.02173168 0.028957903 -0.03044908 0.0658023
000340 f8 d8 06 3d 2b 5b 80 3d f2 8e e0 bc 6f 39 3f 3e
       0.03292176 0.06267389 -0.027411912 0.18674253
000350 29 49 b8 bd ba df ed 3d 82 a8 2c 3d 2c 6e 49 3e
       -0.08998329 0.11614938 0.04215289 0.19670933
000360 5b d1 a4 3d 07 22 a4 3b 1f 0d 8b 3d 73 37 a1 3d
       0.08047744 0.005008939 0.06789612 0.07871904
000370 4b 5e 09 3d b4 db ab 3d ff 5a 26 ba d6 8b b6 3d
       0.03353719 0.083915144 -0.0006345957 0.0891339
000380 4a d9 74 be 57 af 0e 3e 1b 94 0d be 96 7a 40 3e
       -0.23911014 0.13934074 -0.13826029 0.18796763
000390 3c 9c e5 bd c9 ca 33 3d 06 02 80 3c 47 a3 93 3d
       -0.1121144 0.043894563 0.015625965 0.07208877
0003a0 1a 69 07 b9 a1 67 20 3d c9 a1 49 3d 04 a6 71 3b
       -0.00012913757 0.03916133 0.049226556 0.0036872635
0003b0 42 94 93 bd 71 73 4d bd bb f8 89 bc 39 75 87 bc
       -0.07206012 -0.05015892 -0.016842237 -0.016535388
0003c0 2f 31 70 bd 14 b2 d0 3d 36 f6 18 bd 2d 96 16 3e
       -0.058640655 0.10190216 -0.03734418 0.14705725
0003d0 99 72 6a 3c fc a5 b9 bd 44 57 16 3d 89 ab 21 bd
       0.014309549 -0.09064862 0.036704317 -0.03947023
0003e0 c5 e3 49 3b b9 8f 0e bd 3c 71 bd 3d 75 d5 2f 3d
       0.0030805927 -0.034805033 0.09250113 0.042928178
0003f0 8b 7e 88 3c 35 56 0a bd 67 b9 a6 3c 8c c5 87 bd
       0.016661903 -0.03377362 0.020352079 -0.06629476

regressor.0.bias f4 [8]
000000 5b 52 c8 be 64 f1 ed bf b1 76 74 3d 8d a3 1f be
       -0.39125332 -1.8589292 0.059683505 -0.15589733
000010 29 79 cd bd 99 21 6c 3e 4f ef ea be f7 a4 4d 3e
       -0.10032875 0.23059691 -0.45885703 0.2008246

regressor.2.weight f4 [1, 8]
000000 73 c8 ea bc 7e 94 9e bd 51 48 f8 3c e9 a3 80 3c
       -0.028660035 -0.077431664 0.03030792 0.015703158
000010 54 7d f2 bc fb c9 bb 3c 82 4d 29 bd a7 02 a0 3c
       -0.029600777 0.02292346 -0.041333683 0.019532515
