weights/DeepSet/DeepSet_Weight.pt (torch, 106163 bytes, 15 tensors)

enc.0.weight f4 [64, 2]
0	0xbdfabe5d	-0.1224334
1	0x3ed1eadf	0.40999505
2	0x3eaaab6c	0.3333391
3	0xbeae7e43	-0.34080705
4	0x3c56a7e0	0.013101548
5	0xbd1b96e9	-0.037985716
6	0x398a4d21	0.00026378877
7	0xba037458	-0.000501459
8	0x3ea3d642	0.31999403
9	0xbf10cba0	-0.5656071
10	0x3ecfaed2	0.40563065
11	0xbedcd547	-0.43131468
12	0xbde1148a	-0.10990246
13	0x3da94b13	0.082662724
14	0xbe15afab	-0.14617793
15	0x3f4adbc5	0.7924159
16	0x3e0d762b	0.13814609
17	0xbe1599cb	-0.14609449
18	0x3f630558	0.8868003
19	0xbe334841	-0.17508031
20	0x3d808d1f	0.06276917
21	0xbd9fb904	-0.07798961
22	0xbf2fe184	-0.68703485
23	0x3dc82986	0.09773545
24	0x3f3518da	0.70741045
25	0xbf152945	-0.582661
26	0x3e6a7240	0.22895145
27	0xbe1821eb	-0.14856689
28	0xbf501e7b	-0.8129651
29	0x3f28e586	0.65975225
30	0xbf243857	-0.6414847
31	0xbf413a14	-0.75479245
32	0x3ee3f1cb	0.4452041
33	0xbf28e154	-0.65968823
34	0xba8a08a2	-0.0010531137
35	0xba518b6d	-0.00079934933
36	0xbf215b13	-0.63029593
37	0xbf0d4bf3	-0.55194014
38	0xbe91523e	-0.28383058
39	0x3f04163b	0.5159642
40	0xbf64e588	-0.89412737
41	0x3f3910a7	0.72291034
42	0xbef9b362	-0.4876967
43	0x3f4f56c0	0.80991745
44	0x3dcc74a4	0.09983185
45	0xbf6edf0c	-0.9330909
46	0x391a9bd2	0.00014744632
47	0xbaa54a92	-0.0012610725
48	0x3e2753a1	0.16340496
49	0x3efbe02f	0.49194476
50	0xbe7c35e7	-0.24629937
51	0x3f137214	0.57595944
52	0x3e37482c	0.17898625
53	0xbee7b5b2	-0.4525581
54	0x3edf6581	0.4363213
55	0x3d8b42bf	0.0679984
56	0xbe1fd984	-0.1561032
57	0x3d5709d8	0.052499622
58	0xbe185d2d	-0.14879294
59	0x3e8a9694	0.27068007
60	0x3f35b696	0.7098173
61	0xbed39071	-0.41321138
62	0xbf29dd90	-0.663537
63	0x3f02cc05	0.5109256
64	0xbeddf440	-0.4335041
65	0xbebbb49f	-0.3666124
66	0x3d80a25f	0.0628097
67	0xbd1bce25	-0.03803839
68	0x3f00d837	0.5032992
69	0xbf5776b8	-0.84165525
70	0xbf1801e3	-0.5937788
71	0x3eaa9221	0.33314613
72	0x3e200aa4	0.15629059
73	0xbdce99c1	-0.1008792
74	0x3f31448c	0.6924522
75	0x3f9b3a38	1.2127142
76	0x3db5cccd	0.08876953
77	0x3cc75ff6	0.02433775
78	0x3f48b241	0.78396994
79	0x3ef6c333	0.481958
80	0xbe5a702a	-0.2133185
81	0xbf28d42e	-0.6594876
82	0x3edb974b	0.42888865
83	0x3e63074c	0.22170752
84	0xbf20bd79	-0.6278911
85	0x3c264419	0.010148072
86	0xbf28e296	-0.6597074
87	0xbf3071db	-0.6892373
88	0xbf5973c7	-0.8494229
89	0x3f094387	0.53618664
90	0x3f6a9437	0.9163241
91	0xbd2489d4	-0.040170506
92	0x3e6ccc81	0.23124887
93	0xbf8176df	-1.0114402
94	0xbf3ab28d	-0.72928697
95	0xbf4c1603	-0.7972109
96	0xbf492e16	-0.78585947
97	0x3f23d86d	0.64002115
98	0x3ece24f2	0.40262562
99	0xbe7daaa8	-0.24772131
100	0xbeb45725	-0.35222736
101	0x3d94a843	0.07258656
102	0xbee30147	-0.44336912
103	0xbf307b59	-0.68938214
104	0x3e69b0d3	0.2282136
105	0xbe6bbcfb	-0.23021309
106	0xbf1379ad	-0.5760754
107	0xbf1d8fdf	-0.61547655
108	0x3e3aa818	0.18228185
109	0xbf42d212	-0.7610179
110	0x3f2fc325	0.6865714
111	0x3f10cff0	0.5656729
112	0xbefeadb0	-0.49741888
113	0xbec0d823	-0.376649
114	0xbf09b91a	-0.5379807
115	0xbf027d45	-0.50972396
116	0xbd148896	-0.03626307
117	0x3d775dc8	0.06039217
118	0x3f0f94a0	0.5608616
119	0x3f89fa8a	1.0779583
120	0xbf4bb99e	-0.79580104
121	0x3e1ae8c8	0.15127861
122	0x3f74a7c5	0.95568496
123	0xbe330766	-0.17483291
124	0x3f118f7a	0.5685955
125	0xbf4784fe	-0.77937305
126	0x3f179f6a	0.5922762
127	0x3e686fdd	0.22698922

enc.0.bias f4 [64]
0	0x3eb3c3ea	0.35110408
1	0x3e0415d6	0.12898955
2	0x3db23414	0.08701339
3	0xbc2c378b	-0.010511289
4	0xbe37351b	-0.17891352
5	0x3f477dd3	0.7792637
6	0x3bbee713	0.005825886
7	0xbe7ce179	-0.24695386
8	0x3e87c2f5	0.26515928
9	0xbf07cdc3	-0.5304834
10	0x3ea2e8d0	0.31818247
11	0x3f237a0f	0.6385812
12	0x3e07c25f	0.1325774
13	0x3e80231d	0.2502679
14	0xbd295935	-0.04134484
15	0x3ef2a6b2	0.47392803
16	0xbf2b4bfc	-0.6691282
17	0xbc8cbc85	-0.017179737
18	0x3e746d7f	0.23869894
19	0x3ecbe917	0.3982627
20	0xbd452a17	-0.048135843
21	0xbf3efb51	-0.7460223
22	0xbf3c3838	-0.73523283
23	0xbcac33e5	-0.021020839
24	0x3dcf055d	0.10108445
25	0xbfcfc81f	-1.6232947
26	0x3f071128	0.52760553
27	0x3edf4da1	0.43613914
28	0x3e257e5b	0.16161482
29	0x3e3d96a2	0.18514493
30	0xbf0111db	-0.5041787
31	0xbef14d5a	-0.47129327
32	0x3d972336	0.07379763
33	0x3d74a53f	0.059727903
34	0xbea34ccc	-0.3189453
35	0xbe35ff6a	-0.17773214
36	0x3e319e60	0.17345572
37	0xbf815b7d	-1.0106045
38	0x3e43e568	0.1913048
39	0xbea94d49	-0.33066776
40	0xbecd3165	-0.40076748
41	0x3f0d31a9	0.551539
42	0xbd7a6f38	-0.061141223
43	0xbf08a6c9	-0.53379494
44	0xbe4500a0	-0.1923852
45	0xbf2f02fa	-0.68363917
46	0xbe9b48e8	-0.3032906
47	0xbd022a2b	-0.031778496
48	0xbd32418f	-0.043519553
49	0x3ed74140	0.4204197
50	0xbea8a43f	-0.3293781
51	0x3ef93287	0.48671362
52	0x3edc06b9	0.4297388
53	0xbf0764c1	-0.52888113
54	0xbf48bbd3	-0.78411597
55	0x3edf0347	0.43557188
56	0xbec9bfed	-0.3940424
57	0x3e12b82d	0.1432807
58	0x3d201bc0	0.039088964
59	0xbeec60c5	-0.4616758
60	0xbe24f570	-0.16109252
61	0xbedc7c62	-0.43063647
62	0xbf22464b	-0.6338851
63	0xbebe885d	-0.37213412

enc.2.weight f4 [64, 64]
0	0xbe960a6b	-0.29304823
1	0x3d459dcc	0.04824619
2	0x3d1d34f9	0.038380597
3	0xbdc3c38b	-0.09558781
4	0x3e7c2b5d	0.24625917
5	0x3de50716	0.11182992
6	0xbdb29bd9	-0.08721132
7	0xbe1b0404	-0.1513825
8	0x3e376e4f	0.17913173
9	0x3e01d425	0.12678583
10	0x3d77b9ee	0.06048005
11	0xbe3a7f99	-0.18212737
12	0x3e57e985	0.21085174
13	0x3d789ad5	0.060694534
14	0xbd6c3b28	-0.057673603
15	0xbe97e564	-0.296672
16	0xbf4605b0	-0.7735243
17	0x3dad5977	0.0846433
18	0xbe31e0dd	-0.17370935
19	0xbf701f0e	-0.93797386
20	0xbd10c6e2	-0.03534592
21	0xbdd18aa0	-0.10231519
22	0xbf411f52	-0.75438416
23	0xbdf882d6	-0.1213433
24	0xbe3179b3	-0.17331581
25	0xbd190892	-0.03736169
26	0x3c38a23a	0.011269147
27	0xbd20ea79	-0.03928611
28	0xbe9764da	-0.2956913
29	0xbf5020d7	-0.8130011
30	0xbeb5e67f	-0.35527417
31	0x3cbe2437	0.023210628
32	0x3e83342f	0.2562575
33	0x3e2a7e51	0.16649748
34	0xbcdd64df	-0.027025638
35	0x3ca56765	0.020190904
36	0x3de0e5f9	0.10981364
37	0xc0013890	-2.0190773
38	0x3d29baf7	0.04143807
39	0x3e198732	0.14992979
40	0xbf2c1856	-0.67224634
41	0x3e2e756d	0.17036982
42	0x3c979f7e	0.018508669
43	0xbf1ad097	-0.6047453
44	0xbd7c1d38	-0.061551303
45	0xbd1e8cbd	-0.038708437
46	0xbdc94548	-0.098276675
47	0x3c8e0daa	0.0173405
48	0xbce8990f	-0.028393297
49	0x3e24c969	0.16092457
50	0xbe27008c	-0.16308802
51	0xbaea10f1	-0.0017857832
52	0x3c420fa6	0.011844551
53	0x3b28bb4f	0.002574641
54	0xbf961375	-1.1724688
55	0xbca20d41	-0.01978171
56	0xbdd22fbd	-0.102630116
57	0xbe356f7a	-0.17718306
58	0xbf4204d3	-0.7578861
59	0xbf7ef099	-0.9958587
60	0xbd15886b	-0.03650705
61	0x3e889a1f	0.26680085
62	0xbea43167	-0.3206894
63	0xbd7da716	-0.061926924
64	0x3e430049	0.19043078
65	0x3d893980	0.067004204
66	0x3dee0493	0.11621966
67	0xbc4ea862	-0.012613388
68	0xbe80139c	-0.2501496
69	0x3e8de5c3	0.27714357
70	0xbe49a6c1	-0.19692518
71	0xbe9a5df5	-0.3014981
72	0x3d99ec3e	0.07515763
73	0xbf61b7b4	-0.88170934
74	0x3d726ec5	0.05918767
75	0x3e74c9ea	0.23905149
76	0xbe0d90a3	-0.13824706
77	0x3d6d618e	0.057954364
78	0xbee1eee6	-0.44127578
79	0xbe8239bb	-0.2543467
80	0xbf5dac5d	-0.8659113
81	0x3e054342	0.13013938
82	0xbe57863f	-0.21047305
83	0x3e4925ca	0.19643322
84	0xbe7706d4	-0.24123698
85	0xc005b772	-2.0893216
86	0xbfd80a1e	-1.6878088
87	0x3cfcbf73	0.030853009
88	0x3cadc33d	0.02121126
89	0x3dc15a9e	0.09441112
90	0x3e87dcc4	0.26535618
91	0x3e27f39e	0.16401526
92	0x3e21bbe9	0.15794338
93	0x3e7fd597	0.24983822
94	0xc004833d	-2.0705101
95	0xbfd7a3b1	-1.684683
96	0xbe17e098	-0.1483177
97	0x3d0295fe	0.031881325
98	0xbe44e916	-0.1922954
99	0xbe93db66	-0.28878325
100	0x3d9011a9	0.070346184
101	0xbe42f8f6	-0.19040284
102	0x3e90b4cd	0.2826294
103	0xbe2b0647	-0.16701613
104	0xbe0f1aac	-0.13975018
105	0x3c999d5f	0.018751798
106	0xbe9325c3	-0.28739747
107	0xbec46610	-0.38359118
108	0xbe3340c4	-0.17505175
109	0xbf48a4f6	-0.7837671
110	0xbe4940d8	-0.19653642
111	0xbda2ef12	-0.07955755
112	0xbe895bfd	-0.26827994
113	0x3d88c175	0.06677524
114	0xbbf01713	-0.0073269694
115	0x3d6c250b	0.057652514
116	0x3e8e3ddd	0.27781573
117	0xbede15ee	-0.43376106
118	0xbe13c9bd	-0.14432426
119	0xbb02d824	-0.0019965256
120	0xbf055643	-0.5208475
121	0xbe67fe0c	-0.22655505
122	0x3e64b504	0.22334677
123	0xbdb42a69	-0.087971516
124	0xbe098a8d	-0.13431759
125	0xbf24fdc7	-0.64449733
126	0xbf9ca24c	-1.2237029
127	0xbe77f656	-0.24215063
128	0xbe75df63	-0.24010997
129	0x3d9cfe9f	0.076657526
130	0xbe1b011f	-0.15137146
131	0xbd825c5e	-0.06365274
132	0xbdf1d1cd	-0.118075944
133	0xbd4f77bf	-0.05065131
134	0xbed92201	-0.42408755
135	0xbf807069	-1.0034305
136	0xbe0be91c	-0.13663143
137	0x3f04a4f5	0.51814204
138	0x3d602708	0.054724723
139	0xbfcd10af	-1.6020716
140	0x3e8b8359	0.27248648
141	0x3d53d189	0.0517135
142	0x3d6cff71	0.057860795
143	0xbe0941d9	-0.13404025
144	0xbd106d1f	-0.035260316
145	0x3b6a46d7	0.003574779
146	0xbe3b8a1b	-0.18314402
147	0xbeebabe8	-0.46029592
148	0xbe9370d9	-0.28797033
149	0x3f47915b	0.7795617
150	0xbef8ea2c	-0.4861616
151	0xbdb7d339	-0.089758344
152	0xbd4ed241	-0.050493483
153	0x3f25686b	0.64612454
154	0x3c32d308	0.010914572
155	0x3d52d75f	0.051474925
156	0xc0116247	-2.2716234
157	0xbec42f13	-0.38317165
158	0x3f0df16c	0.55446506
159	0x3f01f664	0.5076659
160	0xbfeb457c	-1.838058
161	0x3d283b6a	0.041072287
162	0xbd784dfb	-0.060621243
163	0xbd169c33	-0.036770057
164	0xbc90d1c2	-0.017678145
165	0x3d2d5200	0.04231453
166	0x3dc509dd	0.09621022
167	0x3e366cca	0.17814937
168	0xbfb21205	-1.3911749
169	0x3e1646e4	0.1467548
170	0xbdf83327	-0.121191315
171	0xbf1984ec	-0.5996845
172	0xbecae8e8	-0.39630818
173	0x3f1d4315	0.61430484
174	0xbe4bf6f4	-0.19918424
175	0xbfebbed0	-1.8417606
176	0x3e7521f2	0.2393873
177	0xbd20f0dd	-0.039292205
178	0xbdce18a4	-0.100632936
179	0xbe06e7e7	-0.13174401
180	0x3d287247	0.04112461
181	0xbe68e6b5	-0.22744258
182	0xbf1a0fed	-0.6018055
183	0x3e00169d	0.12508626
184	0x3e8eec05	0.27914444
185	0xbf1480c7	-0.58009
186	0xbe8edc2c	-0.27902353
187	0xbb9c5abc	-0.0047715586
188	0x3c368281	0.011139513
189	0x3f1246d2	0.57139313
190	0xbdc58303	-0.09644129
191	0x3e83b60c	0.25724828
192	0xbe48653b	-0.19569866
193	0xbd38983c	-0.045067057
194	0xbf014585	-0.50496703
195	0xbe70fd62	-0.23534158
196	0x3ed78307	0.42092153
197	0xbee04751	-0.4380441
198	0xbedb9384	-0.42885983
199	0xbdab6509	-0.0836888
200	0xbde3212c	-0.110903114
201	0x3db1f2a9	0.08688862
202	0xbefd7c59	-0.49508932
203	0x3d283d5e	0.04107415
204	0xbe99e65c	-0.30058563
205	0xbe4d9745	-0.20077236
206	0xbe8d06a2	-0.27544123
207	0x3c52903e	0.012851773
208	0xbf10d11a	-0.56569064
209	0xbc9cd9bd	-0.019146794
210	0x3e14bbde	0.1452479
211	0xbe2e450e	-0.1701853
212	0xbef9608f	-0.4870648
213	0x3e949c38	0.29025435
214	0x3f0ec951	0.55775934
215	0xbe287f7a	-0.16454878
216	0x3d2fc8dd	0.042916168
217	0xbfbb67ca	-1.4641049
218	0xbeafaddd	-0.34312335
219	0xbe635b0a	-0.22202697
220	0xbe6bbe1b	-0.23021738
221	0xbd853671	-0.065045245
222	0x3df1625d	0.117863394
223	0xbecb939b	-0.39761052
224	0x3e727a88	0.23679554
225	0xbd2071ad	-0.03917091
226	0x3ec5adb4	0.38609087
227	0xbdd4ba93	-0.10387149
228	0xbe33a0f2	-0.17541865
229	0x3ed576e2	0.41692263
230	0xbe6590f9	-0.22418584
231	0x3e83da58	0.2575252
232	0x3d899a97	0.06718939
233	0xbe7a24af	-0.24428056
234	0xbdaff3e8	-0.08591443
235	0x3c4e68d0	0.012598231
236	0xbe16d98c	-0.14731425
237	0x3da6228d	0.08112059
238	0x3e92b517	0.28653786
239	0x3e3e238c	0.18568248
240	0xbe7f9119	-0.24957694
241	0xbeb97ae3	-0.36226568
242	0xbd69bba4	-0.057063714
243	0x3b108f3a	0.0022058026
244	0xbea4e059	-0.32202414
245	0x3cc1cc47	0.023656977
246	0x3ef48036	0.47754067
247	0xbd73168d	-0.059347678
248	0x3e86758d	0.2626156
249	0x3e5ccc0a	0.2156221
250	0x3d2c1587	0.042012718
251	0x3e9e4dcd	0.30918732
252	0xbe2bde68	-0.1678406
253	0x3e860183	0.26173028
254	0x3ee16bae	0.44027466
255	0x3ed3d2d5	0.4137179

enc.2.bias f4 [64]
0	0x3bb97549	0.0056597334
1	0x3deb5e3e	0.11492585
2	0xbdfc3e9d	-0.1231663
3	0xbee5ba28	-0.44868588
4	0xbf517101	-0.81813055
5	0xbd153649	-0.036428723
6	0x3d6a9c27	0.057277825
7	0xbd1f4780	-0.038886547
8	0xbf284a96	-0.6573881
9	0xbe4a2664	-0.19741207
10	0xbe88b933	-0.26703796
11	0xbedc1fcf	-0.42993018
12	0x3ddb68c5	0.107133426
13	0x3dd79f72	0.10528459
14	0x3e2ae706	0.16689691
15	0x3d996b9b	0.07491227
16	0xbe095364	-0.13410717
17	0xbe7a19d9	-0.24423923
18	0xbe0224c2	-0.12709334
19	0xbe5fc097	-0.21850811
20	0x3e4fb6c9	0.20284571
21	0x3a03e664	0.00050315843
22	0xbd0e56ed	-0.034750868
23	0xbe3fa701	-0.1871605
24	0xbda2a84e	-0.07942258
25	0xbd9dcdf0	-0.07705295
26	0xbe23f348	-0.16010773
27	0xbd91be04	-0.07116321
28	0x3d91230d	0.070867635
29	0xbd99b589	-0.07505328
30	0xbe056b33	-0.13029175
31	0x3e5be61a	0.21474496
32	0x3dcb94bc	0.09940478
33	0x3d200839	0.03907034
34	0xbd182f6b	-0.037154596
35	0xbd1021c8	-0.035188466
36	0xbe0f8ff4	-0.14019758
37	0x3d4edd7e	0.0505042
38	0xbde0bc24	-0.10973385
39	0xbef2b403	-0.47402963
40	0x3b6f807c	0.0036545089
41	0xbec65b05	-0.38741317
42	0xbe7db192	-0.24774769
43	0x3d84706b	0.064667545
44	0x3dd37e6c	0.103268474
45	0xbbf8a923	-0.007588522
46	0xbe0607e5	-0.13088949
47	0xbdb5e082	-0.08880712
48	0x3cfd814f	0.030945448
49	0xbcff3d89	-0.031157272
50	0xbde8d3bf	-0.11368512
51	0xbd729fbe	-0.059234373
52	0xbe5b2446	-0.21400556
53	0xbf59adf3	-0.8503105
54	0x3e189c0b	0.14903276
55	0x3e5f6ba0	0.218184
56	0xbe9f8a7c	-0.31160343
57	0x3d147030	0.036239803
58	0xbdffddad	-0.12493453
59	0xbef9b4a5	-0.48770633
60	0x3b785d3b	0.0037897367
61	0xbe7d307c	-0.24725527
62	0xbda2ccc1	-0.0794921
63	0xbdb17b82	-0.08666135

enc.4.weight f4 [64, 64]
0	0xbdba6690	-0.091015935
1	0xbc16b075	-0.009197344
2	0xbd911e5e	-0.0708587
3	0xbd8b7990	-0.068102956
4	0x3c3a5b40	0.011374295
5	0xbcc670d8	-0.02422373
6	0xbe062db7	-0.13103376
7	0xbd025a38	-0.03182432
8	0xbd939546	-0.07206206
9	0x3c5ff5c5	0.013669436
10	0x3d23772b	0.03990857
11	0xbd328ffe	-0.043594353
12	0xbde84ef1	-0.11343182
13	0x3cc17ac6	0.023618113
14	0xbdee130d	-0.116247274
15	0x3b5d40fd	0.003376066
16	0x3cc4a189	0.024002807
17	0x3d0b5cf0	0.03402418
18	0xbd8e599a	-0.06950684
19	0xbd899940	-0.06718683
20	0xbb2d7c40	-0.0026471764
21	0x3d114ef7	0.035475697
22	0xbe06f3d4	-0.1317895
23	0x3b3134fd	0.002703964
24	0x3cf519a6	0.029919457
25	0xbdb68d1e	-0.08913635
26	0x3c39111d	0.011295584
27	0x3c6a0c40	0.014285147
28	0xbc5275d0	-0.0128454715
29	0x3d1c6348	0.03818062
30	0x3db2f820	0.08738732
31	0xbca72a03	-0.020405775
32	0xbdfbd2fe	-0.12296103
33	0xbcc7fc1e	-0.024412211
34	0xbc954448	-0.018221036
35	0x3d0d5ab0	0.034510314
36	0xbda89312	-0.082311764
37	0x3d8c2df7	0.068447046
38	0xbdd2e62e	-0.102978095
39	0x3d0624e7	0.032750037
40	0xbda68e87	-0.08132654
41	0xbdfe2b49	-0.124106
42	0x3dce5f67	0.1007679
43	0xbdcaeccf	-0.09908449
44	0xbdcd56df	-0.10026335
45	0xbc96e15d	-0.018418008
46	0xbd8d37be	-0.068953976
47	0xbd07d2da	-0.033160068
48	0x3d856567	0.065134816
49	0x3d8ddb33	0.069265746
50	0xbe018a58	-0.1265043
51	0x3b27d9c0	0.0025611967
52	0xbd2126e3	-0.039343726
53	0x3cad9eac	0.021193825
54	0xbe0e9221	-0.13922931
55	0xbbdba8b7	-0.006703462
56	0xbe218e4e	-0.15776941
57	0xbe086f26	-0.1332365
58	0xbe07ef05	-0.13274772
59	0x3d8f827f	0.07007312
60	0xbd4bd8fa	-0.04976747
61	0xbda0bc5d	-0.078484274
62	0x3c8833d8	0.016626284
63	0xbd28bab2	-0.04119367
64	0x3d93efee	0.07223497
65	0xbf9bc38c	-1.2169051
66	0x3e16c60a	0.14723983
67	0xbf7f2f2b	-0.9968135
68	0xbeaed899	-0.34149626
69	0x3cdad264	0.02671165
70	0xbf890697	-1.0705136
71	0x3dec4d02	0.115381256
72	0xbdf36e4e	-0.11886273
73	0xc001a578	-2.0257244
74	0xbe6fe82f	-0.23428415
75	0xbf6dac3b	-0.9284093
76	0xbc955f6a	-0.018233974
77	0xbed18163	-0.40919027
78	0xbf511d3d	-0.8168524
79	0x3e555ed9	0.20836963
80	0xbee6dba0	-0.45089436
81	0x3d0f7776	0.035026036
82	0x3d7a4294	0.06109865
83	0xc038084f	-2.875507
84	0x3e4b693f	0.19864367
85	0xbd9e249b	-0.07721826
86	0xbd49442a	-0.049137272
87	0xbc313e15	-0.010818024
88	0x3c48d975	0.012258877
89	0x3dbc3d92	0.09191431
90	0xbfe3e57c	-1.7804408
91	0x3e30ce6c	0.17266244
92	0xbdf999df	-0.12187552
93	0xbda18ec5	-0.07888559
94	0x3d2c639e	0.04208719
95	0xbf745cb9	-0.95453984
96	0x3e307894	0.17233497
97	0xbfb65349	-1.4244167
98	0xbc2a5820	-0.010396987
99	0x3e7ff713	0.24996595
100	0x3d5bda38	0.053674906
101	0x3d88a475	0.06671993
102	0xbf804eb4	-1.0024018
103	0x3e55e688	0.20888722
104	0xbedc13c2	-0.42983824
105	0xbdc29245	-0.09500555
106	0xbd350d30	-0.04420203
107	0xbecb6d5b	-0.3973187
108	0xbc82ffa8	-0.015991047
109	0x3e7a7626	0.24459133
110	0x3d9b27ea	0.075759724
111	0xbe90fae2	-0.28316408
112	0xbe054604	-0.1301499
113	0xbfe437fb	-1.7829584
114	0xbdcd87f1	-0.100356944
115	0xbda9a0a5	-0.08282594
116	0x3db6b07c	0.089203805
117	0xbfc22e18	-1.5170317
118	0x3c1a9420	0.00943473
119	0xbf0ba09b	-0.5454194
120	0x3e57e137	0.21082006
121	0xbf39fc03	-0.72650164
122	0x3d80af4d	0.06283436
123	0xbf3bc962	-0.7335416
124	0xbd7a36b7	-0.061087336
125	0xbfa92f7e	-1.3217618
126	0x3dc3b072	0.09555139
127	0xbd4ca511	-0.049962107
128	0xbde38f57	-0.11111324
129	0x3e1457e9	0.1448666
130	0x3df41d4a	0.11919649
131	0xbe528dba	-0.20561877
132	0xbd1bb3c0	-0.03801322
133	0x3de664dd	0.11249707
134	0x3da82e03	0.08211901
135	0xbd8ef29c	-0.06979868
136	0xbc61096b	-0.013735156
137	0xbcfc1a32	-0.03077421
138	0xbe781383	-0.24226193
139	0x3dfb1b2d	0.12261043
140	0xbf210ba4	-0.6290839
141	0xbd57b0d5	-0.052658875
142	0x3dda6d74	0.10665408
143	0xbe8adeb5	-0.27123037
144	0x3de26e87	0.11056238
145	0x3f370083	0.71485156
146	0xbd876485	-0.066109695
147	0x3d7cd893	0.06172998
148	0x3dd9c4b3	0.106332205
149	0xbd706920	-0.058694005
150	0xbdbbcda2	-0.09170081
151	0xbf5db31b	-0.8660142
152	0xbe15bb71	-0.14622284
153	0xbdb48a55	-0.08815447
154	0x3e43e9fe	0.1913223
155	0xbe6d9230	-0.23200297
156	0x3b0207aa	0.0019840994
157	0x3d120534	0.035649493
158	0xbd3374ed	-0.04381268
159	0xbeaaf752	-0.33391815
160	0x3d7743a7	0.060367253
161	0x3cf98902	0.030460838
162	0xbde054e6	-0.10953693
163	0x3d5cb970	0.053887784
164	0xc03ab9db	-2.9175937
165	0xbf15a38b	-0.5845267
166	0x3e4dcf1f	0.20098542
167	0x3d4fa1e8	0.050691515
168	0x3eb95e70	0.36204863
169	0xbf02a054	-0.5102589
170	0xc045486f	-3.082546
171	0x3ed5b853	0.4174219
172	0x3e0f51d9	0.13996066
173	0xbf03b241	-0.5144387
174	0x3d71e926	0.05906024
175	0xbe58512a	-0.21124712
176	0xbf0018fe	-0.50038135
177	0x3d988476	0.0744714
178	0xbf33820b	-0.70120305
179	0xc051988b	-3.2749355
180	0xbe35edba	-0.17766467
181	0x3f1819cb	0.59414357
182	0xbf3798f4	-0.7171776
183	0x3e150fe9	0.1455685
184	0xbeb1a413	-0.3469549
185	0xbeeea947	-0.46613523
186	0x3d559c3b	0.052150946
187	0xbe6ff3df	-0.23432873
188	0xbf87ceda	-1.0610001
189	0x3d65721a	0.05601702
190	0xbd829327	-0.06375723
191	0xbe108cf2	-0.14116266
192	0xbdf53ef2	-0.119748965
193	0xbc2c9dc4	-0.010535661
194	0xbc48b5a0	-0.012250334
195	0xbda31de2	-0.07964684
196	0xbde52377	-0.11188405
197	0x3d371208	0.04469493
198	0xbbebb10f	-0.007192738
199	0x3dc18210	0.094486356
200	0xbd579f14	-0.052641943
201	0xbd425f21	-0.047454003
202	0xbddb5413	-0.10709395
203	0xbcf6dd87	-0.03013493
204	0xbe461b88	-0.1934644
205	0xbe226f60	-0.15862799
206	0x3df42c1c	0.11922476
207	0xbce4dc99	-0.02793722
208	0xbdf94fa4	-0.12173393
209	0xbd2676a7	-0.0406405
210	0x3cdfe7c0	0.027332187
211	0xbe1705c6	-0.14748296
212	0x3d1701ac	0.03686683
213	0xbdd8377d	-0.105574585
214	0xbda097b8	-0.07841438
215	0xbe033285	-0.1281224
216	0xbdc9f728	-0.098615944
217	0xbd197acc	-0.037470624
218	0x3c42bd04	0.011885885
219	0xbd8b2fc6	-0.067962214
220	0xbd1e9f04	-0.038725868
221	0xbd7c4f50	-0.061599076
222	0x3d8b161e	0.06791328
223	0xbce3a7ff	-0.027790068
224	0x3dae9f15	0.08526436
225	0xbe07bd3a	-0.13255778
226	0xbd7c5b64	-0.061610594
227	0xbdcf4741	-0.101210125
228	0xbd185efc	-0.03719996
229	0x3aff1d73	0.0019463733
230	0xbde4c263	-0.11169889
231	0xbdda9323	-0.10672595
232	0xbc3e3a51	-0.011610583
233	0xbe436b56	-0.19083914
234	0xbdaebeb6	-0.08532469
235	0x3d869f11	0.06573308
236	0xbdd8875a	-0.10572691
237	0x3d0c71aa	0.034288086
238	0x3d4c4e2c	0.049879238
239	0xbdf117eb	-0.1177214
240	0x3d6a256f	0.057164606
241	0xbd871ec8	-0.06597668
242	0xbe225230	-0.15851665
243	0x3cd453ca	0.02591886
244	0x3d9228d0	0.071366906
245	0xbdc0d87e	-0.094162926
246	0xbe174840	-0.14773655
247	0x3ce37a6e	0.02776834
248	0xbd5b69cc	-0.053567693
249	0xbca408ba	-0.020023692
250	0x3bda1474	0.0066552702
251	0x3d181a5f	0.037134524
252	0x3c03c03a	0.008041436
253	0xbe2264a4	-0.15858704
254	0xbdbba0f8	-0.09161562
255	0xbdc8c067	-0.09802323

enc.4.bias f4 [64]
0	0xbd56ecc4	-0.05247189
1	0xbc328597	-0.010896108
2	0x3e3c6ede	0.18401667
3	0xbdf73d10	-0.120721936
4	0x3df69902	0.12040903
5	0x3cec4d24	0.028845377
6	0xbca8b09c	-0.020592026
7	0x3ca9f6fb	0.020747652
8	0xbd2191d1	-0.039445702
9	0x3dc663e3	0.09687021
10	0x3cef26f1	0.029193373
11	0x3e114564	0.14186627
12	0xbe01ef79	-0.12689008
13	0x3e2d8a03	0.16947179
14	0x3d887e0c	0.066646665
15	0xbe11a27c	-0.14222139
16	0xbeadace9	-0.33920982
17	0xbe0d8f08	-0.13824093
18	0x3d2a6f96	0.041610323
19	0xbef26e4e	-0.4734978
20	0x3cb6cdaf	0.022314874
21	0xbc075b9b	-0.008261587
22	0xbd47d121	-0.048783425
23	0xbe346c57	-0.17619453
24	0x3e04ae3e	0.12957093
25	0xbd6ed2e9	-0.05830661
26	0x3d378b3a	0.04481051
27	0xbdc30441	-0.09522296
28	0x3d250939	0.040292
29	0xbd8f7e62	-0.070065275
30	0x3d87beaf	0.06628167
31	0xbe95155b	-0.29117855
32	0x3dd92cbf	0.10604238
33	0x3e9d5462	0.3072844
34	0x3e549407	0.20759593
35	0xbe60493e	-0.2190294
36	0x3e3660db	0.17810385
37	0x3d348fef	0.04408258
38	0x3d38bd85	0.045102615
39	0x3e1ae071	0.1512468
40	0x3cbcdf9b	0.023055842
41	0xbe1b1cc7	-0.15147696
42	0xbee9bbdf	-0.45651147
43	0xbe1de04c	-0.15417594
44	0xbc902a83	-0.017598396
45	0x3dc38e4c	0.09548625
46	0x3d376290	0.04477173
47	0x3da76c70	0.0817498
48	0x3e40d575	0.18831427
49	0x3cd5bad6	0.026090067
50	0x3dcd5179	0.10025305
51	0xbd283c5e	-0.041073196
52	0xbe3ee6e7	-0.1864277
53	0xbe7c4e68	-0.24639285
54	0xbcfe0193	-0.03100661
55	0xbdded4a2	-0.108804
56	0x3e72d764	0.23714978
57	0x3dd04825	0.101700105
58	0xbf04314f	-0.5163774
59	0xbe379454	-0.17927676
60	0xbdae3840	-0.085068226
61	0xbe24108c	-0.16021937
62	0xbdfd964a	-0.12382181
63	0xbce75c94	-0.028242387

enc.6.weight f4 [64, 64]
0	0xbdc90152	-0.09814705
1	0xbe884a9c	-0.26619422
2	0x3e9855a1	0.2975283
3	0xbda2b495	-0.079445995
4	0xbe898e01	-0.26866153
5	0x3c2a8782	0.010408284
6	0x3c56e097	0.01311507
7	0xbe985b2a	-0.29757053
8	0x3ce2cb8b	0.027684947
9	0xbe7b9d99	-0.24571837
10	0x3d4329f5	0.047647435
11	0x3d0ac114	0.03387554
12	0xbe3f2a40	-0.18668461
13	0xbf15edef	-0.5856618
14	0xbf097cab	-0.53705853
15	0xbd09b950	-0.033623993
16	0xbee07f79	-0.43847254
17	0x3c9e50ea	0.019325692
18	0x3ebce4ec	0.36893404
19	0x3f51f683	0.8201677
20	0x3ed2589b	0.41083226
21	0xbda79fe8	-0.081847966
22	0xbd306c6c	-0.04307215
23	0xbf8a0f67	-1.078595
24	0xbe02dc66	-0.12779388
25	0xbdf38a8a	-0.118916586
26	0xbdc240ce	-0.09485017
27	0x3e40b392	0.188185
28	0xbe1309e7	-0.14359246
29	0x3e242ce3	0.16032748
30	0xbcaaae4f	-0.02083507
31	0xbf42180a	-0.7581793
32	0x3f225ce9	0.6342302
33	0x3f5d4a7e	0.8644179
34	0x3ea11797	0.3146331
35	0xbd652170	-0.05594009
36	0x3e1c37c6	0.15255651
37	0x3e406b98	0.18791044
38	0xbdd8c4f6	-0.10584442
39	0xbdb03b3c	-0.08605048
40	0x3d5e6962	0.05429972
41	0xbbe846a9	-0.0070885015
42	0xbde3c329	-0.11121208
43	0xbd8c8e7a	-0.06863113
44	0xbd460d1a	-0.04835234
45	0x3cc10641	0.023562552
46	0x3d97f735	0.07420198
47	0x3bbac8a1	0.0057001864
48	0x3ecfacb6	0.40561455
49	0xbcd1a40b	-0.025590917
50	0x3ea2cf4c	0.3179878
51	0xbe1f2cc0	-0.15544415
52	0xbf217411	-0.6306773
53	0x3e2644c3	0.16237168
54	0x3d3cd889	0.04610494
55	0x3bd0528e	0.0063574975
56	0x3d1349ec	0.03595917
57	0xbe2ba083	-0.16760449
58	0x3f2a23d1	0.664609
59	0x3e597f0b	0.2123987
60	0xbdc69c40	-0.09697771
61	0xbe94b159	-0.29041556
62	0xbd0f3554	-0.034962967
63	0x3daf81ed	0.08569703
64	0x3db8cfee	0.090240344
65	0xbe017eb3	-0.12645988
66	0x3d0b96f9	0.034079526
67	0xbc983e1e	-0.018584307
68	0x3e12e47c	0.14344972
69	0xbd863fdb	-0.06555148
70	0xbd8bd274	-0.0682725
71	0xbe1daae0	-0.15397215
72	0xba771830	-0.00094259065
73	0xbc8c0782	-0.017093424
74	0xbe5621c1	-0.20911314
75	0x3d7f6e14	0.062360838
76	0xbddf1deb	-0.10894378
77	0xbe722bff	-0.23649596
78	0xbed8c0fc	-0.42334735
79	0x3cc9f341	0.024652125
80	0xbccf6f29	-0.02532156
81	0x3e010345	0.12598903
82	0x3ec6ef0a	0.38854247
83	0x3ea63fe3	0.32470617
84	0x3e58b117	0.21161304
85	0x3d62b4a6	0.05534806
86	0x3de1a67f	0.11018085
87	0xbd95f006	-0.073211715
88	0x3e642bcc	0.22282332
89	0x3e40f1b3	0.18842201
90	0x3d624c2b	0.05524842
91	0xbe8fd11f	-0.28089234
92	0xbee2552e	-0.44205612
93	0xbec7e21a	-0.3903969
94	0x3c452524	0.012032781
95	0x3de75218	0.11294955
96	0x3e4a9451	0.1978314
97	0xbc5dc892	-0.013536589
98	0xbe1bb0aa	-0.1520411
99	0x3e366067	0.17810212
100	0x3da12b47	0.078695826
101	0xbda5003e	-0.08056687
102	0xbe97b23a	-0.29628164
103	0x3ee022b3	0.43776473
104	0x3e30a860	0.1725173
105	0x3bc06642	0.005871565
106	0x3dcb98b8	0.09941238
107	0x3d57fb9f	0.0527302
108	0xbc27a52d	-0.010232252
109	0x3e838bd3	0.25692615
110	0x3c9108fe	0.017704483
111	0xbe7e7810	-0.24850488
112	0x3e13a6cf	0.14419101
113	0x3e356c18	0.17717016
114	0xbe53a531	-0.20668484
115	0x3efdefcf	0.49597022
116	0x3e9d1130	0.30677176
117	0xbf0eac5f	-0.5573177
118	0x3d78ddf7	0.060758557
119	0x3e25a7a3	0.1617723
120	0x3d6bd9ba	0.057580687
121	0x3dcaf5b0	0.099101424
122	0xbdd342bf	-0.10315465
123	0xbe3ebda9	-0.18627037
124	0xbea7ab81	-0.32748035
125	0x3ef83e90	0.4848523
126	0x3d2788c6	0.04090192
127	0xbd3e151b	-0.046406846
128	0xbe0a340f	-0.13496421
129	0xbe37d18b	-0.17951028
130	0x3e89dd6a	0.26926738
131	0x3d8e31fc	0.069431275
132	0xbd99ea06	-0.075153396
133	0xbccf20bc	-0.025284164
134	0xbdd1b261	-0.10239101
135	0xbe782671	-0.24233414
136	0x3cc6065a	0.02417295
137	0x3e46dc9c	0.19420093
138	0x3ec2877f	0.37994
139	0x3e62d807	0.2215272
140	0xbb6f98dd	-0.003655962
141	0x3daf4ebd	0.0855994
142	0xbc9106c0	-0.017703414
143	0x3debce13	0.11513915
144	0x3df2560d	0.11832819
145	0x3e1fb422	0.15596059
146	0x3cd4f751	0.025996836
147	0x3f3a38c8	0.7274289
148	0x3ede0969	0.43366554
149	0x3d5a47ff	0.053291317
150	0x3ebdf42e	0.37100357
151	0x3f32b793	0.6981136
152	0x3ea4a62c	0.3215803
153	0xbdc54b76	-0.09633534
154	0x3d797a3e	0.060907595
155	0xbe5fd456	-0.21858343
156	0xbe1e315d	-0.15448518
157	0xbef7ac93	-0.4837385
158	0xbe3367ae	-0.1752002
159	0x3e5a1eea	0.21300855
160	0x3eae21f8	0.3401029
161	0x3d297780	0.04137373
162	0xbf131f9a	-0.57470095
163	0xbdfa77a6	-0.122298524
164	0xbe20db56	-0.1570867
165	0x3b87d921	0.004145757
166	0x3eaf3563	0.34220418
167	0x3e158b1b	0.14603846
168	0x3ea46cb4	0.32114184
169	0xbdb4212b	-0.08795389
170	0x3f4e9ab0	0.80704784
171	0x3d1d39b6	0.038385116
172	0xbeca44a1	-0.39505485
173	0x3cbc9004	0.02301789
174	0x3cb042fa	0.021516312
175	0xbe494c9c	-0.1965813
176	0x3db038f4	0.08604613
177	0xbe7a1ce4	-0.24425083
178	0x3e74f5ca	0.23921886
179	0xbf1266c3	-0.5718805
180	0x3f04d835	0.51892406
181	0x3f2f6df5	0.68527156
182	0xbbe134e0	-0.0068727583
183	0xbd5de890	-0.054176867
184	0x3d0e8ea5	0.034804005
185	0x3ebbddf1	0.36692765
186	0xbe594a4e	-0.21219751
187	0x3eec99fc	0.4621123
188	0x3f05e35e	0.5230006
189	0x3e9ec16c	0.31006944
190	0xbd7bd1b8	-0.0614793
191	0xba68a9f7	-0.00088754244
192	0x3d05154f	0.032491025
193	0x3e97b498	0.2962997
194	0xbf2db51e	-0.6785449
195	0x3e04449f	0.12916802
196	0x3dd06488	0.10175425
197	0xbd821833	-0.06352272
198	0xbd9032fe	-0.07040976
199	0x3e2c4177	0.16821848
200	0x3d0ba5e8	0.034093767
201	0xbd22c772	-0.039740987
202	0x3e12f6c1	0.14351942
203	0xbe348bff	-0.1763153
204	0x3e72324d	0.23652
205	0x3e83fbd4	0.25778067
206	0x3ee6ab7a	0.450527
207	0x3d3c16d6	0.045920216
208	0x3f06f131	0.5271178
209	0x3d9167ad	0.07099853
210	0xbed80dc0	-0.4219799
211	0xbf7e0601	-0.9922791
212	0xbee232b6	-0.44179314
213	0xbdb9f0ba	-0.09079118
214	0x3dff32db	0.12460872
215	0x3e84a821	0.25909522
216	0xbe98f81a	-0.29876786
217	0xbdb3cf90	-0.08779824
218	0x3e5de0e2	0.21667817
219	0xbd126610	-0.035741866
220	0x3e8e32dc	0.27773178
221	0x3ee8a05b	0.45434842
222	0x3d7dc90a	0.061959304
223	0x3eb797c7	0.35857984
224	0xbeeb8c7a	-0.46005613
225	0xbf29b0cd	-0.662854
226	0xbe8d2686	-0.27568454
227	0x3ea843e5	0.328643
228	0xbe646314	-0.2230342
229	0x3d0709a9	0.032968197
230	0x3e10de61	0.14147331
231	0xbe259664	-0.1617065
232	0x3db1d6b2	0.08683528
233	0x3d325cc3	0.043545496
234	0x3caab74c	0.020839356
235	0x3bd8e5e8	0.006619204
236	0x3e44c2d5	0.19214948
237	0xbe75b246	-0.23993787
238	0xbd36142d	-0.044452835
239	0x3e1dab68	0.15397418
240	0xbe91421f	-0.2837076
241	0xbd6aac8b	-0.057293456
242	0xbeb88474	-0.36038554
243	0x3eba7e3c	0.36424434
244	0x3ce4bc78	0.0279219
245	0xbcf1a468	-0.02949734
246	0x3e5f16a1	0.21785976
247	0xbe51ccaf	-0.20488237
248	0xbe62a5a4	-0.221335
249	0xbe370fd4	-0.17877132
250	0xbe894d19	-0.26816633
251	0xbe649304	-0.22321707
252	0xbcc93bec	-0.024564706
253	0xbc5fbbe1	-0.013655634
254	0xbd408f72	-0.0470118
255	0xbdcf3461	-0.10117412

enc.6.bias f4 [64]
0	0x3d78ef17	0.06077489
1	0xbd403c4f	-0.046932515
2	0xbe46bf12	-0.19408825
3	0xbcdb2131	-0.026749225
4	0x3df52dde	0.11971639
5	0x3dec5744	0.11540082
6	0x3d66edd9	0.056379173
7	0xbbe7f616	-0.0070788963
8	0x3dcf66f8	0.101270616
9	0xbc8dff8c	-0.017333768
10	0xbbd4d1c6	-0.0064947335
11	0x3cb5bb82	0.022184137
12	0x3dbee9bf	0.09321927
13	0x3c53c4ff	0.0129253855
14	0x3b58f111	0.003310267
15	0xbd44225f	-0.04788434
16	0x3d1b9b8c	0.037990138
17	0xbdfca4d5	-0.12336127
18	0x3cf27bee	0.02960011
19	0x3ccfd5d7	0.025370521
20	0xbc6614f7	-0.014043084
21	0xbe011b21	-0.12608005
22	0x3d7872f9	0.06065652
23	0x3c8ff3d2	0.017572317
24	0xbd822494	-0.06354633
25	0xbda758de	-0.08171247
26	0x3d955038	0.07290691
27	0xbd7acb84	-0.061229244
28	0x3d9d0dca	0.07668646
29	0x3e1246d9	0.14284839
30	0xbc226bee	-0.009913428
31	0xbdd9b037	-0.106293134
32	0xbd975cab	-0.07390722
33	0x3c9bcc49	0.01901831
34	0xbe112c8a	-0.14177147
35	0x3dff270c	0.124586195
36	0xbcfe2674	-0.031024195
37	0xbd3cb0d9	-0.046067093
38	0xbd54271e	-0.051795118
39	0x3ce1f6d4	0.027583517
40	0x3d577983	0.052606117
41	0xbdd2de01	-0.1029625
42	0xbd99c6d4	-0.075086266
43	0x3bd1032e	0.006378553
44	0xbdb18d7d	-0.08669565
45	0xba90dd0d	-0.0011052206
46	0xbda65292	-0.08121218
47	0xbd9896d3	-0.074506424
48	0x3e1f6957	0.15567528
49	0xbd12d755	-0.035849888
50	0xbd301a3e	-0.042993777
51	0xbe1e2f64	-0.15447766
52	0xbe09aec6	-0.13445577
53	0x3daf5133	0.085604094
54	0xbd056859	-0.032570217
55	0x3e112f2a	0.14178148
56	0x3d10bc3b	0.03533576
57	0x3dc9a369	0.09845621
58	0x3cf07c24	0.02935607
59	0x3baec623	0.0053336783
60	0x3d9a17ce	0.07524072
61	0xbe0dcdf5	-0.13848098
62	0x3d162841	0.036659483
63	0xbd2e1962	-0.042504676

dec.0.weight f4 [64, 64]
0	0xbe3ac838	-0.1824044
1	0x3b975750	0.0046185628
2	0x3e1140c7	0.14184867
3	0x3f2a3c63	0.6649839
4	0x3deb624b	0.11493357
5	0x3e9d88fc	0.30768573
6	0x3ea1b92d	0.3158659
7	0x3db983ff	0.090583794
8	0xbd8e043a	-0.069344
9	0x3ddfde5d	0.10931084
10	0xbe9d2831	-0.30694726
11	0x3e197e0c	0.1498949
12	0x3e7ae00f	0.24499534
13	0xbd37b5bc	-0.04485105
14	0x3c95d24a	0.01828875
15	0x3d570555	0.05249532
16	0xbdc206a5	-0.094739236
17	0x3e9ad81f	0.30243012
18	0x3e18f5a4	0.14937454
19	0x3d8e2b1a	0.06941815
20	0x3e901a56	0.28145093
21	0xbcf38a2f	-0.029728977
22	0x3e6d9a1f	0.23203324
23	0xbdcd4ac0	-0.10024023
24	0x3c9ad590	0.018900663
25	0x3e6d6149	0.23181643
26	0xbdb61d94	-0.0889236
27	0xbe944aa7	-0.28963205
28	0x3ec36f96	0.3817107
29	0xbd942907	-0.07234388
30	0xbdb0c6a8	-0.08631641
31	0x3d24af17	0.04020604
32	0xbddaecd9	-0.10689706
33	0xbd6ff583	-0.058583748
34	0xbf4bccb3	-0.7960922
35	0x3dbc4db6	0.0919451
36	0x3ecf3283	0.40468225
37	0x3e925c7f	0.28586194
38	0x3da2b5e0	0.07944846
39	0xbe187b6b	-0.1489083
40	0x3ea1999b	0.31562504
41	0x3e45eeaf	0.19329332
42	0xbe50becc	-0.20385283
43	0x3f05b01d	0.5222185
44	0x3e50d277	0.20392786
45	0xbd5d3f47	-0.054015424
46	0xbdad661e	-0.08466743
47	0xbd63e4f8	-0.055638283
48	0xbe27aae9	-0.16373791
49	0xbdbf62ae	-0.093449935
50	0x3e05fbd8	0.13084352
51	0x3e7a5f13	0.2445033
52	0x3dd2eeb2	0.10299434
53	0x3c9fc607	0.019503606
54	0xbd6abe6a	-0.0573105
55	0x3ef1c47f	0.47220227
56	0xbd9daa30	-0.07698476
57	0x3eaab6b0	0.33342505
58	0x3e201fe7	0.1563717
59	0x3c4b53bb	0.0124101
60	0xbd3c2e14	-0.04594238
61	0xbc137c43	-0.009001794
62	0x3cac86ed	0.021060431
63	0x3e1f73f4	0.15571576
64	0x3b9ba92c	0.0047503915
65	0x3cb0ddc4	0.021590121
66	0xba540c25	-0.0008088968
67	0xbd4e09fe	-0.050302498
68	0x3d1ce52d	0.038304497
69	0x3e18a213	0.14905576
70	0x3ded1f7a	0.11578269
71	0xbdb66531	-0.089060195
72	0x3d0f3103	0.03495885
73	0xbd928e23	-0.07156017
74	0xbb515f3e	-0.0031947638
75	0x3df494b8	0.11942428
76	0x3e9af7f0	0.30267286
77	0xbd177adf	-0.036982413
78	0x3d20e57c	0.039281353
79	0xbddbea05	-0.10737995
80	0x3da3f6d0	0.0800606
81	0xbd24e9e0	-0.040262103
82	0x3dc745d6	0.09730117
83	0x3e66ae45	0.22527416
84	0xbc004d69	-0.007830956
85	0xbe72caf1	-0.23710229
86	0xbcaba60b	-0.020953199
87	0xbe09b892	-0.13449314
88	0x3e16f4af	0.14741777
89	0xbdaa494f	-0.08314764
90	0xbcd6f585	-0.02624012
91	0xbddf0155	-0.10888926
92	0x3dd450e9	0.10366995
93	0xbcc2c819	-0.023777055
94	0xbdb83ec8	-0.089963496
95	0x39721b8c	0.0002308918
96	0x3bf2bd01	0.007407785
97	0xbd652982	-0.055947788
98	0xbe24bc2e	-0.1608741
99	0x3ea2510b	0.31702456
100	0x3daf8ef5	0.08572189
101	0xbd2ccaf7	-0.04218575
102	0x3da05316	0.078283474
103	0xbe779c8b	-0.2418081
104	0x3dbde1c1	0.09271575
105	0xbdf4ff2f	-0.11962735
106	0x3c4db69e	0.012555746
107	0xbda69a8b	-0.081349455
108	0xbdb888e7	-0.09010487
109	0xbc0f5eba	-0.008750612
110	0xbcbc46bc	-0.022982948
111	0xbe2736d0	-0.16329503
112	0xbc1b2054	-0.009468157
113	0xbdf3b57a	-0.11899848
114	0x3d6619c9	0.056176934
115	0x3d5cf156	0.053941093
116	0x3ca178ca	0.019710917
117	0xbd0001f8	-0.031251878
118	0xbca4e451	-0.020128401
119	0x3dfd73f5	0.12375633
120	0xbbb0590d	-0.0053817094
121	0x3daf792a	0.08568032
122	0xbe55e35d	-0.20887513
123	0x3d1e53dd	0.038654197
124	0xbdeef851	-0.11668456
125	0xbd12b1a1	-0.03581393
126	0xbdf358cf	-0.11882173
127	0x3d47f0b0	0.04881352
128	0xbd33b32b	-0.04387204
129	0xbe392403	-0.18080144
130	0xbeb3a674	-0.3508793
131	0x3ba01648	0.0048854686
132	0x3e86ae26	0.2630474
133	0xbd609bf9	-0.054836247
134	0xbe0183e7	-0.12647973
135	0x3e4fabc7	0.20280372
136	0xbcd2f687	-0.025752319
137	0x3d4b47b2	0.04962892
138	0xbf369f71	-0.7133704
139	0x3e31f4ae	0.17378494
140	0xbe187cfc	-0.14891428
141	0xbe60cb31	-0.21952511
142	0xbe9c555f	-0.30533883
143	0xbebea9d1	-0.37238935
144	0x3e77977b	0.24178879
145	0xbdc3269a	-0.09528847
146	0x3e924da9	0.28574875
147	0x3ee923ab	0.45535025
148	0xbe4c6d90	-0.1996367
149	0xbcaec4d7	-0.021334095
150	0x3dc58e45	0.096462764
151	0xbf02700c	-0.5095222
152	0x3e7f9cec	0.24962205
153	0xbe2a8b52	-0.16654709
154	0xbb275710	-0.002553407
155	0x3e5ee4a4	0.21766907
156	0x3ecbf6ac	0.39836633
157	0xbe38cb70	-0.18046355
158	0x3e1395b6	0.14412579
159	0x3e3846cb	0.17995755
160	0x3db93c82	0.09044744
161	0x3e1bbc08	0.15208447
162	0x3d67bba7	0.056575444
163	0xbe943f7b	-0.28954682
164	0xbeb60ae8	-0.35555196
165	0x3ed31656	0.41227978
166	0x3cb35302	0.021890167
167	0x3f82bb7e	1.0213468
168	0xbf3a5086	-0.7277912
169	0x3ee9ab46	0.45638484
170	0xbedb3259	-0.4281185
171	0xbd4ea058	-0.050445884
172	0xbd72dafb	-0.059290867
173	0x3f0775b7	0.52913994
174	0x3dfc94c5	0.12333063
175	0x3f87d11f	1.0610694
176	0xbe6e3ed3	-0.23266153
177	0xbca183e9	-0.01971622
178	0x3e277113	0.16351728
179	0x3e6b5383	0.22981076
180	0xbe752695	-0.23940499
181	0x3e895449	0.26822117
182	0xbf2c5d63	-0.67329997
183	0x3e5a1c2f	0.21299814
184	0xbe9e93e9	-0.30972221
185	0x3e3f9d12	0.18712261
186	0x3e52b1c0	0.20575619
187	0x3dff244a	0.124580935
188	0x3ef50acf	0.4785981
189	0xbeb3982a	-0.3507703
190	0x3dc98816	0.098404095
191	0xbdf56ee3	-0.119840406
192	0xbf01a62a	-0.5064417
193	0x3da91dbc	0.082576245
194	0x3dff9216	0.124790356
195	0x3f6ea376	0.9321817
196	0xbc94baa6	-0.018155407
197	0xbd24411d	-0.04010116
198	0x3ee70beb	0.4512628
199	0x3dde5b07	0.10857206
200	0x3f33ddfb	0.7026059
201	0x3d03282e	0.03202074
202	0xbf03c59a	-0.5147339
203	0x3efbcb7a	0.49178678
204	0x3e18e1a3	0.14929824
205	0x3d555426	0.052082203
206	0xbec1ab2d	-0.3782591
207	0xbb19474f	-0.002338845
208	0x3ea05d7c	0.31321323
209	0x3da82ba2	0.08211447
210	0xbda4855c	-0.08033249
211	0x3de1b15b	0.11020156
212	0x3d7abc77	0.06121489
213	0xbe0a806a	-0.13525549
214	0x3c30de84	0.010795239
215	0xbed03743	-0.4066716
216	0x3dc4a999	0.09602661
217	0x3cec5831	0.028850647
218	0x3e4e1189	0.20123877
219	0xbde0e4bb	-0.10981127
220	0x3e88a7e4	0.2669059
221	0x3ebc859c	0.36820686
222	0xbe3938de	-0.180881
223	0xbd88acd3	-0.066735886
224	0x3e7ec7cc	0.24880904
225	0xbeefa3c0	-0.4680462
226	0xbea44216	-0.3208167
227	0x3e9ae433	0.30252227
228	0x3e3d4412	0.18482998
229	0x3e31f04b	0.1737682
230	0x3f4aad00	0.7917023
231	0xbe653e70	-0.223871
232	0xbe1048fc	-0.14090341
233	0x3c3519e7	0.011053539
234	0x3ddcdca5	0.10784272
235	0x3ed3e69d	0.4138688
236	0xbe291fef	-0.16516088
237	0x3e549c9e	0.2076287
238	0xbc93caf1	-0.018041106
239	0xbed15611	-0.40885976
240	0x3e30d55d	0.17268892
241	0xbe672488	-0.2257253
242	0x3db15b3d	0.086599804
243	0x3d0da764	0.034583464
244	0x3f1e98b2	0.61951745
245	0xbd96a9d1	-0.07356609
246	0xbee0374a	-0.43792182
247	0x3e2c7947	0.16843139
248	0xbdafa407	-0.085762076
249	0x3e616167	0.22009812
250	0xbe07c183	-0.13257413
251	0x3d01f2ef	0.03172582
252	0xbdbe2e1b	-0.09286138
253	0xbdde672b	-0.108595215
254	0xbd6c4728	-0.057685047
255	0xbe67e6f7	-0.226467

dec.0.bias f4 [64]
0	0x3db5318a	0.088473395
1	0xbe29adef	-0.16570257
2	0xbddffc09	-0.10936744
3	0xbe2e461f	-0.17018937
4	0xbe3fc4fe	-0.1872749
5	0x3d9dcf3c	0.077055424
6	0xbe29961e	-0.16561171
7	0xbe31c7a5	-0.17361315
8	0xbdc01887	-0.09379678
9	0xbcc7db57	-0.024396582
10	0xbeb6abbb	-0.35677895
11	0xbd20c937	-0.039254393
12	0xbe18217c	-0.14856523
13	0x3dc0a2da	0.094060615
14	0xbe2f8c76	-0.17143425
15	0xbe128a71	-0.14310624
16	0xbe051f2f	-0.13000177
17	0xbe05c0c5	-0.13061817
18	0xbed4d0a4	-0.4156543
19	0x3ddecaaf	0.108785026
20	0xbe866ffb	-0.2625731
21	0xbe283e1a	-0.1642994
22	0x3d8ba5c4	0.06818727
23	0xbe09c08c	-0.13452357
24	0xbeb75ccc	-0.35812986
25	0xbddc1597	-0.107463054
26	0xbdf2c5ac	-0.11854109
27	0xbe15dcbb	-0.14634983
28	0xbe3d7079	-0.18499936
29	0x3dca7fbc	0.09887645
30	0x3d822b70	0.06355941
31	0xbeaff6f0	-0.34368086
32	0x3ceee986	0.029164087
33	0xbe0edb61	-0.13950874
34	0xbe3b08b2	-0.18265036
35	0xbe82f089	-0.2557414
36	0xbf0e3bb1	-0.5555983
37	0x3e321772	0.17391756
38	0x3e167904	0.14694601
39	0xbd8da35c	-0.06915924
40	0xbea33406	-0.31875628
41	0xbc408c5d	-0.011752215
42	0x3e04a307	0.12952815
43	0xbcfc7092	-0.030815396
44	0xbd525cb3	-0.051357936
45	0x3de2ee4a	0.11080606
46	0xbe2df635	-0.16988452
47	0xbe81de95	-0.2536513
48	0x3d6cee43	0.05784441
49	0xbe274b4c	-0.16337317
50	0xbe45d609	-0.19319929
51	0xbe5ea17d	-0.2174129
52	0xbeb00623	-0.34379682
53	0xbe69dc64	-0.22837979
54	0xbec55c0d	-0.38546792
55	0x3d1e51ae	0.038652115
56	0xbe2a643f	-0.16639803
57	0xbd74b6cf	-0.059744652
58	0x3ecfda47	0.4059622
59	0xbec05cc7	-0.37570783
60	0xbe780bc4	-0.24223238
61	0xbf06125b	-0.5237176
62	0x3e9d7cb4	0.30759203
63	0x3e367b9c	0.1782059

dec.2.weight f4 [64, 64]
0	0xbf0fab4a	-0.5612074
1	0xbe0467c8	-0.12930214
2	0x3e31cf30	0.17364192
3	0xbe6a4938	-0.22879493
4	0xbde2140a	-0.110389784
5	0xbec81725	-0.39080158
6	0x3d9897df	0.07450842
7	0xbd065154	-0.032792404
8	0xbe6197e3	-0.22030596
9	0x3ed5e1c0	0.41773796
10	0x3e124ab6	0.14286312
11	0x3f24dafc	0.64396644
12	0xbda178b9	-0.07884354
13	0x3e8c7ac2	0.27437407
14	0xbebce834	-0.36895907
15	0x3bf70759	0.0075387177
16	0x3d09fbe2	0.03368748
17	0x3ed8b889	0.4232829
18	0x3e8b6e12	0.27232414
19	0x3e7e65ed	0.24843569
20	0xbcab9a94	-0.020947732
21	0xbbc16939	-0.005902436
22	0x3c95ecf5	0.018301466
23	0x3deeceaf	0.116605155
24	0x3cdb6698	0.026782319
25	0xbcdf539d	-0.02726155
26	0xbe997675	-0.29973188
27	0xbe9c206e	-0.30493492
28	0xbe1f3a6e	-0.15549633
29	0xbea3b473	-0.3197361
30	0xbb200af0	-0.0024420582
31	0x3e5dac45	0.21647747
32	0xbd2b0433	-0.04175205
33	0xbd7a9b60	-0.061183333
34	0xbe185311	-0.14875437
35	0xbe9f2b88	-0.310879
36	0xbeb726b8	-0.35771728
37	0xbe948b12	-0.29012352
38	0x3d3a5929	0.045495186
39	0x3e4801ee	0.19531986
40	0x3e379407	0.17927562
41	0xbe4a6a29	-0.1976706
42	0x3e9af923	0.302682
43	0xbf59871f	-0.84971803
44	0xbeb39782	-0.3507653
45	0x3f1e645c	0.61871886
46	0x3d29d1a3	0.04145969
47	0x3dd63afc	0.10460469
48	0x3e476130	0.19470668
49	0x3efb00ac	0.4902395
50	0x3be07937	0.0068503874
51	0xbd7905c5	-0.060796518
52	0xbf9dae5f	-1.2318839
53	0x3dc01c8c	0.09380445
54	0x3eea2b1e	0.4573602
55	0x3e8ccde7	0.2750084
56	0xbd5d83d5	-0.054080803
57	0x3d2c54db	0.042073112
58	0x3db50af6	0.08839981
59	0xbe5b4f05	-0.21416862
60	0x3de0e39f	0.10980915
61	0x3e17378e	0.14767286
62	0x3c4698d5	0.012121399
63	0xbe996949	-0.2996314
64	0xbe85dfa3	-0.26147184
65	0x3d8dfce7	0.06933003
66	0xbe02a833	-0.12759475
67	0xbee803c9	-0.45315388
68	0x3df47ddf	0.119380705
69	0xbcd71d5d	-0.026259119
70	0xbd9e20fc	-0.07721135
71	0x3d367830	0.044548213
72	0x3f000a14	0.5001538
73	0xbeb2d790	-0.34930086
74	0x3d8d30d8	0.06894082
75	0x3d802336	0.06256716
76	0xbcaaa532	-0.020830724
77	0xbd3bd48f	-0.04585701
78	0x3e498b68	0.19682086
79	0xbd16fbdb	-0.03686128
80	0x3d57934c	0.052630708
81	0xbef0c50e	-0.4702534
82	0x3eb71e40	0.35765266
83	0xbe9114e5	-0.28336254
84	0x3bd30320	0.0064395815
85	0x3d2aa422	0.041660435
86	0x3e1dcc64	0.1541
87	0x3d39cea0	0.04536307
88	0xbe21b127	-0.15790235
89	0x3d970438	0.073738515
90	0xbe9d4b8f	-0.3072171
91	0x3f066643	0.5249979
92	0x3e550d3f	0.20805834
93	0xbd4ba615	-0.049718935
94	0x3e260a19	0.1621479
95	0xbf239611	-0.6390086
96	0xbdeaf3fe	-0.11472319
97	0xbd5aa41c	-0.053379163
98	0xbe24ebb8	-0.16105545
99	0xbf32e150	-0.6987505
100	0xbf5eec9a	-0.87079775
101	0xbbdbeb77	-0.006711419
102	0xbfd72cd7	-1.6810559
103	0xbf9a031d	-1.20322
104	0xbf24b253	-0.643346
105	0xbeae97aa	-0.34100085
106	0xbe8efb71	-0.2792621
107	0x3e88999e	0.266797
108	0xbf757c9e	-0.95893276
109	0xbf5b7432	-0.85724175
110	0x3d918dff	0.07107162
111	0x3e2b4331	0.1672485
112	0x3cd70338	0.026246652
113	0xbf24bffa	-0.64355433
114	0xbd2f3740	-0.0427773
115	0x3cea656b	0.028612813
116	0xbe07e4e7	-0.13270913
117	0xbdcad71c	-0.0990431
118	0x3c3646b3	0.011125254
119	0xbd9e3de3	-0.07726648
120	0x3db2ca8e	0.087300405
121	0xbe90aa9a	-0.2825516
122	0xbd018413	-0.031620096
123	0x3e8d4d29	0.2759793
124	0x3d1e3aeb	0.038630407
125	0x3e8c482a	0.27398807
126	0xbe8b56aa	-0.27214557
127	0xbd867036	-0.06564371
128	0xbde5bffc	-0.11218259
129	0xbd591f50	-0.053008378
130	0xbd9a6ea9	-0.07540638
131	0xbcd9e211	-0.026597055
132	0xbb3f7840	-0.0029215962
133	0xbde43f34	-0.111448675
134	0xbd9482ea	-0.072515324
135	0xbd9a6ed0	-0.07540667
136	0xbb986061	-0.004650161
137	0xbda3d05c	-0.07998726
138	0xbd44cc6e	-0.04804652
139	0xba89282a	-0.001046424
140	0xbd2d1ef4	-0.042265847
141	0x3d69562d	0.05696695
142	0x3cadd687	0.021220459
143	0xbd2ec647	-0.04266956
144	0xbd812358	-0.063055694
145	0x3c32b6ed	0.010907871
146	0x3bbe4846	0.0058069555
147	0xbd3f010d	-0.04663186
148	0xbdcfa75a	-0.10139342
149	0x3ded86d6	0.115979835
150	0xbd3c53bc	-0.045978293
151	0xbd92fea2	-0.071774736
152	0xbdf980bf	-0.121827595
153	0xbde29676	-0.110638544
154	0xbc99d208	-0.018776909
155	0x3d42c7bf	0.047553774
156	0xbe06f921	-0.13180973
157	0xbcf362b3	-0.02971015
158	0x3b1a8f6c	0.0023584021
159	0x3c9ce7d2	0.01915351
160	0xbd435c60	-0.047695518
161	0xbdde4234	-0.10852471
162	0x3c99e53c	0.018786065
163	0xbd85f0b1	-0.06540049
164	0x3d417b4b	0.047236722
165	0xbd1b3f9d	-0.037902463
166	0x3dbe761a	0.0929987
167	0xbadfa692	-0.0017063192
168	0xbe6be467	-0.23036347
169	0x3b6fed55	0.0036609967
170	0xbe398f8d	-0.18121167
171	0xbe2a7c7d	-0.16649051
172	0x3d82f049	0.06393487
173	0xbe780273	-0.24219684
174	0x3dd0bc81	0.10192204
175	0xbd0d3dd1	-0.03448278
176	0x3d804156	0.06262462
177	0xbd540d2a	-0.051770367
178	0x3d698a88	0.05701688
179	0xbd42c9b0	-0.047555625
180	0xbde58aed	-0.112081386
181	0xbddf59fe	-0.109058365
182	0xbe007cf7	-0.1254767
183	0xbd56011e	-0.05224716
184	0xbd665508	-0.056233436
185	0xbde2ef81	-0.11080838
186	0xbd3fbe37	-0.046812262
187	0xbe0f182e	-0.13974068
188	0xbde69fa2	-0.11260916
189	0xbd1627e0	-0.03665912
190	0xbd44af83	-0.048018944
191	0xbda31705	-0.07963375
192	0xbca5c91f	-0.020237504
193	0x3c9c8a34	0.01910887
194	0x3e07976d	0.13241358
195	0x3dd360ee	0.10321222
196	0x3ca044db	0.019564083
197	0xbf348ea2	-0.7053014
198	0x3d520462	0.05127371
199	0x3e04104b	0.1289684
200	0xbe0da34b	-0.13831823
201	0x3e3440fc	0.17602915
202	0x3e27efe5	0.16400106
203	0x3e60bb25	0.2194639
204	0x3c9c80e2	0.019104425
205	0xbecba4a0	-0.39774036
206	0xbf3a37a5	-0.72741157
207	0x3da54312	0.08069433
208	0x3afec7cf	0.001943821
209	0x3e625005	0.22100838
210	0x3e7cfdf9	0.24706258
211	0x3e2ab929	0.16672195
212	0x3b8db0ac	0.0043240394
213	0x3e55d347	0.20881377
214	0xbdb57dd0	-0.088618875
215	0x3dc8a366	0.09796791
216	0xbf9320d5	-1.1494395
217	0x3d575be7	0.05257788
218	0x3e0aeeb5	0.13567622
219	0x3e245a5a	0.16050091
220	0x3dd2a2fc	0.10284993
221	0xbd5ca48d	-0.053867865
222	0xbf77c3e5	-0.96783286
223	0xbc4dcf12	-0.012561576
224	0xbd3a6a39	-0.045511458
225	0xbdc6ab71	-0.097006686
226	0x3f3588ac	0.7091167
227	0xbe0acfc1	-0.13555814
228	0x3e88d841	0.2672749
229	0x3ca31002	0.019905094
230	0x3ec3d104	0.38245404
231	0x3e40fd80	0.18846703
232	0xbf2b44b7	-0.66901726
233	0x3e87ca33	0.26521453
234	0xbd9699bc	-0.07353541
235	0xbf47d656	-0.78061426
236	0x3dbfeef0	0.093717456
237	0x3e9e949c	0.30972755
238	0xbd75a6ca	-0.059973516
239	0xbe6a7052	-0.2289441
240	0xbf0e8b64	-0.55681443
241	0x3efbadcd	0.49156037
242	0x3d37aed2	0.044844456
243	0x3dab26e7	0.083570294
244	0xbf3a4b54	-0.7277119
245	0xbc3d9e8f	-0.011573448
246	0x3e45f1e8	0.19330561
247	0xbe62c945	-0.2214709
248	0xbe21fa47	-0.1581813
249	0xbfc91692	-1.5710013
250	0x3c27ba5c	0.010237303
251	0x3e9e51fd	0.30921927
252	0xbdc2325c	-0.094822615
253	0x3cae15be	0.021250602
254	0x3e5f0542	0.2177935
255	0xbe4dea41	-0.20108892

dec.2.bias f4 [64]
0	0xbf0a894c	-0.5411575
1	0x3df08800	0.1174469
2	0xbe168567	-0.14699326
3	0xbe4ec976	-0.20194039
4	0xbd954a04	-0.07289508
5	0xbd9c1041	-0.07620288
6	0x3e886903	0.26642618
7	0xbe2e8ee5	-0.17046697
8	0x3e8e13d6	0.2774951
9	0xbe0904fb	-0.13380806
10	0x3d0f312b	0.034959
11	0x3eba2556	0.3635661
12	0xbf6eac32	-0.932315
13	0xbdc286d8	-0.09498376
14	0xbdc1b3a1	-0.094580896
15	0x3d270301	0.04077435
16	0xbd55b26c	-0.05217211
17	0x3c8d611e	0.017258223
18	0x3d3cde47	0.046110418
19	0xbd8ec06c	-0.06970295
20	0xbcdae3a3	-0.026719874
21	0xbb1223e5	-0.0022299227
22	0x3e03fb77	0.12888895
23	0xbf11ea4a	-0.5699812
24	0xbee4a8ae	-0.44659942
25	0xbe20b5a6	-0.15694293
26	0x3e54ad3b	0.20769207
27	0xbe389980	-0.18027306
28	0x3d5201e8	0.05127135
29	0x3de25d80	0.1105299
30	0xbea1646e	-0.31521934
31	0x3e41ec60	0.18937826
32	0xbf0ef419	-0.55841213
33	0xbe2f065c	-0.1709227
34	0xbdfae6ce	-0.12251054
35	0xbefebedf	-0.49754998
36	0x3e1ff298	0.15619886
37	0xbdad6c04	-0.08467868
38	0xbe333883	-0.17502026
39	0xbd58a901	-0.05289555
40	0xbe9b8304	-0.30373394
41	0x3e5c4db1	0.21514012
42	0xbd1249c5	-0.035714883
43	0xbe81b781	-0.25335315
44	0xbe41b2a8	-0.18915808
45	0xbe12ed44	-0.14348322
46	0xbe524664	-0.20534664
47	0xbf0ae447	-0.54254574
48	0xbe17aaf4	-0.14811307
49	0xbe9b8e08	-0.303818
50	0x3e878391	0.26467565
51	0x3dc27612	0.094951764
52	0x3e9eac52	0.30990845
53	0xbe8dd037	-0.27697918
54	0xbeb21268	-0.34779668
55	0x3e60b494	0.21943885
56	0xbdade3d8	-0.08490723
57	0x3e9d095b	0.306712
58	0xbe66155b	-0.22469084
59	0x3d8a88fb	0.06764408
60	0xbdee8b6c	-0.11647686
61	0xbe4c292e	-0.19937584
62	0x3e49d367	0.1970955
63	0xbcbe3dca	-0.023222823
