weights/NN1.pth (torch, 67143 bytes, 3 tensors)

regressor.0.weight f4 [8, 2048]
000000 9c b4 db 3d 44 58 72 3d 4c 17 79 3d 0c 31 06 3d
       0.10727808 0.059166208 0.060813233 0.03276162
000010 27 a7 b8 bd d9 e4 2d bc ce 55 db 3b f8 71 c3 3c
       -0.09016257 -0.010613644 0.0066935783 0.023858055
000020 75 37 c1 3c a3 a8 76 bc c4 79 4a 3d d8 76 c2 3b
       0.023586014 -0.015054855 0.04943253 0.0059345774
000030 4b 41 cc 3c 4c 97 85 3c fc 72 50 3d 08 12 f6 3c
       0.024933478 0.016307496 0.050890908 0.030037895
000040 fb f7 31 bd bd 85 90 bc 36 c7 8f bd 1f 2a 36 bd
       -0.043449383 -0.017641896 -0.07020418 -0.044473764
000050 69 82 21 bc f1 42 82 3c 4f 3f 21 3d 59 5f ca 3c
       -0.009857752 0.01590106 0.039367016 0.024703668
000060 1c eb 0f bc d1 c5 13 bb 00 48 99 bd ad 48 fd bc
       -0.008784082 -0.0022548328 -0.07484436 -0.030918444
000070 fd c8 06 bd 5d 17 c3 b9 9f 57 10 3d 09 eb cf 3c
       -0.03290652 -0.00037210705 0.035239812 0.025380628
000080 2f 79 69 bd ea 31 0d bd e8 36 9a bd 1a c9 0f bd
       -0.057000335 -0.03447143 -0.07530004 -0.035103895
000090 5b 86 1c bd b5 6d cd bb 0e da 1f 3c bd 6f c0 bc
       -0.03821407 -0.0062691816 0.009756578 -0.023490781
0000a0 f1 2e 53 bc db bb ca bd 4b 9f b7 bc 18 74 a6 bc
       -0.01288961 -0.09899112 -0.022414824 -0.02031903
0000b0 be 2f 97 3b f9 d5 ac bc bc 86 07 3d 9d db a3 3d
       0.0046138456 -0.021098124 0.033087477 0.08000872
0000c0 21 f1 7b 3d 86 e2 a7 3d e9 7c dd 3d 68 a8 88 3d
       0.061509255 0.08197503 0.1081484 0.06672746
0000d0 d2 e5 36 3e 27 9a 33 3e 81 42 3c 3e b0 4c 08 3e
       0.17861107 0.17539273 0.18384744 0.13310504
0000e0 b9 48 1e 3c d9 5b 9c bc e5 f8 c4 bd 8c 3f 1f 3d
       0.009660893 -0.019086765 -0.09617785 0.038878962
0000f0 c8 97 84 3d 68 3f 9d 3c 16 42 14 bd 00 ff fa 3c
       0.064742625 0.019195274 -0.036195837 0.030639172
000100 13 b7 b8 3b 33 ae ca 3d 79 be e2 3d 8e 41 ad 3d
       0.0056370585 0.09896507 0.11071486 0.08459769
000110 e7 2c 2c 3d 94 78 f4 3d 0c cf 88 3d 81 b6 f1 3d
       0.04203501 0.11937061 0.06680116 0.11802388
000120 c9 16 01 3e 40 d3 aa 3d 04 bd 04 3e 10 f1 b0 3d
       0.12606348 0.08341074 0.12962729 0.08639729
000130 a8 26 21 3d aa 1f e1 3d 2e ec 9f 3d e3 35 fc 3d
       0.039343506 0.109923676 0.078087196 0.123149656
000140 82 27 ca 3b 54 40 89 3d 99 28 50 bc d1 a3 55 3d
       0.0061692605 0.06701723 -0.012704992 0.05215818
000150 ba d0 fb 3b e0 e4 cb 3d 36 ce 81 3d ba c1 a2 3c
       0.0076847943 0.09955764 0.0633816 0.019867767
000160 5b 0c b7 bd f2 1d 0d 3e 1f 44 61 bd a1 34 8d bd
       -0.089379035 0.13780954 -0.054996606 -0.06894804
000170 a2 19 b2 bc ba f9 5f bd 4a b5 f0 bd 30 07 a0 bc
       -0.021740738 -0.054681517 -0.11753328 -0.019534677
000180 bb 9c 8e 3c 52 92 f0 ba 71 1e 1c b9 c9 a1 51 3e
       0.01740872 -0.0018354154 -0.0001488866 0.20471872
000190 76 ac f3 bd 39 f6 02 bd fa d8 a8 3d 42 23 42 bd
       -0.11898129 -0.031973097 0.0824451 -0.047396906
0001a0 1a 6c e7 bd 9d 61 9d bd 2d a7 26 bc 5a b8 b8 3c
       -0.112999156 -0.07684634 -0.010171694 0.022548843
0001b0 f7 c6 23 3e 29 16 16 bd fb df c3 bd d3 18 08 bc
       0.15993868 -0.036642227 -0.09564205 -0.0083067
0001c0 7b 56 a2 be f9 f3 59 bd e9 55 02 be e3 a9 b4 bd
       -0.31706604 -0.053211186 -0.12728085 -0.08821466
0001d0 6a 76 24 be ca 9d 8b bc 49 47 2c 3d 14 b7 e3 3d
       -0.16060796 -0.017043013 0.04206017 0.11118904
0001e0 3d d3 24 3e ec ae 70 3d d3 6e 0e 3d d8 84 e9 bc
       0.16096206 0.05876057 0.03477366 -0.028505728
0001f0 f9 bf a3 3d df 5c 03 3e 53 84 82 3e 64 a4 c9 3d
       0.079956 0.12828396 0.2549158 0.09845808
000200 f1 e9 10 be 72 02 85 3d 31 96 f2 bd 58 cd 43 3d
       -0.14151742 0.06494607 -0.11845053 0.047803253
000210 4e a4 84 be a7 43 bf bd 6b 74 83 be d6 8d 6f bd
       -0.25906605 -0.093390755 -0.25674757 -0.058484875
000220 5e dc 5c 3d 67 fb 80 3d 2c fb 2e bd 89 41 e5 bd
       0.053921096 0.06297951 -0.042720005 -0.111941405
000230 70 85 80 be 21 2a cf 3d fc c2 51 be b9 df 11 3e
       -0.25101805 0.10115457 -0.20484537 0.142455
000240 28 49 2d bd 23 8c ed 3b d5 e9 0c bd b6 86 f7 bd
       -0.042306095 0.0072493716 -0.034402687 -0.12086241
000250 b6 dd ad be b5 1a 88 bd 24 2c 84 bc c2 fd fc bd
       -0.33958215 -0.06645719 -0.01613433 -0.12353088
000260 47 19 72 3d a4 c4 40 be ff ca 08 bc 69 d4 bc bc
       0.059106138 -0.18825012 -0.008349179 -0.023050504
000270 52 5a 21 bd ca 70 86 be 70 30 9e 3d 3e d6 44 3e
       -0.039392777 -0.26257926 0.077240825 0.19222352
000280 2d 19 48 be 6c 2e 7f be ff 83 9e 3e 25 ab ab be
       -0.19540854 -0.24920052 0.3096008 -0.3352901
000290 af 3c 07 bf dc c0 13 be 1d ef 53 bd f8 ec d1 bd
       -0.5282697 -0.14429039 -0.051741708 -0.10250276
0002a0 39 15 21 be 77 fa 13 3c 84 1f ed bc 8a bd fa 3c
       -0.15730752 0.009031883 -0.028945692 0.030607957
0002b0 4f 7c 62 3e ea 7c 7a 3e 1f e6 4e 3e 41 a2 10 3f
       0.22117732 0.24461713 0.20204972 0.5649758
0002c0 12 9a f6 3d eb c9 45 bd 0b 62 65 bd 82 cd 63 3e
       0.12041105 -0.048288267 -0.056001704 0.22246364
0002d0 c2 20 17 be d5 a3 6b 3e 7a f6 50 3e 82 ee 4c 3e
       -0.1475859 0.23011716 0.20406523 0.20012859
0002e0 3e cb a1 be 52 cf 20 3e e8 5e 87 bc 7f 8f 1d 3e
       -0.31600374 0.15704086 -0.016524747 0.1538677
0002f0 47 2a 75 bd 99 e8 7d be 06 d6 12 3d d4 3c 87 3d
       -0.059854772 -0.2479576 0.03584864 0.06603399
000300 f3 00 e0 bd b1 4b 57 be b5 c0 1c 3c c8 86 05 3d
       -0.10937681 -0.21024968 0.009567429 0.03259924
000310 ad 31 00 be 92 4a 0a be bd fd 5a bd 2d b2 ae bd
       -0.1251895 -0.13505009 -0.05346464 -0.08530078
000320 74 08 2b 3c c9 77 d4 bc e0 0b eb 3c 97 0a 31 3c
       0.010439027 -0.025936024 0.028692186 0.0108057475
000330 e8 2a 37 bd af 5c a8 bd 1c 31 81 bb 7a 0b d1 3c
       -0.044718653 -0.08220803 -0.003942622 0.025518168
000340 91 5d 53 be 24 64 c9 bd 67 f1 c4 bd e7 3f 2c bd
       -0.20641162 -0.098335534 -0.09616356 -0.04205313
000350 6e 04 9d bc c5 7f 95 3c 5a e8 85 3e 5e 87 fd 3d
       -0.019167151 0.018249402 0.26153833 0.12379335
000360 0b b3 20 be 9a d6 55 bb 03 99 2c 3e dd 8c 23 3e
       -0.156933 -0.0032629133 0.16855244 0.15971704
000370 c9 41 3b 3c 73 9d a4 3e f0 d7 cd 3e f2 db 30 3f
       0.011429259 0.32151374 0.4020381 0.6908561
000380 f4 f7 20 be 34 ae 76 3e 6b 9d 62 3e f9 9c 8e 3e
       -0.15719587 0.2408989 0.22130363 0.27854136
000390 6b 87 76 be 73 b1 8e 3e cb b8 e4 3d f0 06 c8 be
       -0.24075095 0.27869758 0.11168059 -0.39067793
0003a0 22 30 7b bd 05 03 f7 bb 68 9b 13 bd bb fc 8e be
       -0.0613252 -0.0075382018 -0.03603688 -0.27927193
0003b0 f1 1a d7 bd e7 a5 1d bd 5d 5b 11 bf 52 4c 1b 3f
       -0.105031855 -0.038488295 -0.56780034 0.6066333
0003c0 3f 59 4e bd 35 86 9a bd 0c 74 0b be 14 84 a1 3e
       -0.05037808 -0.07545129 -0.13618487 0.3154608
0003d0 70 af be 3d 81 d0 b2 bd a6 b1 96 bb 75 fb cc 3d
       0.09310806 -0.08731175 -0.004598814 0.10008899
0003e0 e7 9a 98 3b 08 da 17 be 6f dd 96 bc a3 80 38 bd
       0.0046571377 -0.14829266 -0.018416135 -0.045044553
0003f0 3d c5 96 be eb c2 29 be a6 21 34 3e 1c 2b 8e 3e
       -0.29447356 -0.16578262 0.17590961 0.27767265

regressor.0.bias f4 [8]
000000 1e e9 bb bf 66 8c 12 be 84 4b dd bf ed 82 dd 3c
       -1.4680517 -0.1431137 -1.728867 0.02703997
000010 ce 1e f1 bf 07 84 55 3f 11 e4 cd 3d 5b ca 8a c0
       -1.8837526 0.8340458 0.10053266 -4.3372016

regressor.2.weight f4 [1, 8]
000000 d8 82 81 bc 3a 88 c1 bc 86 76 66 3c 92 23 49 3c
       -0.015809461 -0.023624528 0.014066344 0.012276547
000010 09 77 ce bc 53 09 a8 3c 4d d9 dd 3c b0 aa b0 bc
       -0.025203245 0.020512259 0.027081156 -0.021565765
