weights/NN2.pth (torch, 67895 bytes, 5 tensors)

regressor.0.weight f4 [8, 2048]
0	0xbe0adc69	-0.13560642
1	0xbd36095e	-0.044442527
2	0xbcd5cc80	-0.02609849
3	0x3bf40879	0.007447299
4	0xbcb4b698	-0.022059724
5	0x3b8fcf87	0.004388753
6	0x3c6d2bc8	0.01447577
7	0x3ba8df7b	0.005153594
8	0x3d527c8c	0.05138831
9	0x3cad02ab	0.021119436
10	0xbc63b572	-0.01389824
11	0x3d93ba2d	0.072132446
12	0x3dce936e	0.10086714
13	0x3da22477	0.07917111
14	0x3d85f7ba	0.06541391
15	0x3d51ef50	0.051253617
16	0xbd0046e7	-0.031317618
17	0xbcdc777a	-0.02691244
18	0xbd17e808	-0.037086517
19	0xbcac75d3	-0.021052277
20	0xbc5b23d8	-0.013375245
21	0x3cf61e6d	0.030043805
22	0x3b85aeb5	0.0040796646
23	0x3b7b273a	0.0038322941
24	0xbc94b7d5	-0.018154064
25	0xbb5f7efb	-0.0034102786
26	0xbd579672	-0.05263371
27	0xbd1e295d	-0.038613666
28	0xbd45fe54	-0.04833825
29	0x3c7c8236	0.015411904
30	0x3cb0747a	0.021539915
31	0x3bfb3515	0.00766624
32	0xbd8c7dd1	-0.06859935
33	0xbdca2f2c	-0.098722786
34	0xbd9f6d3b	-0.07784506
35	0xbd902a87	-0.070393614
36	0xbda8f35e	-0.082495436
37	0xbdbf0618	-0.09327334
38	0xbd63e06a	-0.05563394
39	0xbda531c2	-0.08066131
40	0xbd5052b9	-0.05086014
41	0xb96ee48a	-0.00022782586
42	0xbca314ba	-0.019907344
43	0xbcb8e506	-0.022570144
44	0x39c383e0	0.00037291553
45	0xbcabcee5	-0.020972678
46	0xbbb71eed	-0.0055884034
47	0x3cb52d82	0.022116426
48	0xbb005212	-0.0019580168
49	0x3cd8435b	0.026399305
50	0x3d0aee77	0.033918824
51	0x3d2692fb	0.040667515
52	0x3e97b230	0.29628134
53	0x3e7d3e12	0.24730709
54	0x3e52790f	0.20553993
55	0x3db0748e	0.08615981
56	0x3dbde5ae	0.092723235
57	0x3e1de932	0.15420988
58	0xbd1e17c8	-0.0385969
59	0x3e45ea5f	0.19327687
60	0x3e1e883a	0.15481654
61	0x3d863fb3	0.065551184
62	0xbde887f2	-0.113540545
63	0x3d59d2c0	0.053179502
64	0x3d8b3696	0.06797521
65	0x3dd1d2ec	0.10245308
66	0x3e011dda	0.12609044
67	0x3dd54801	0.10414124
68	0x3ccc8231	0.024964424
69	0x3d6d610c	0.05795388
70	0x3d86674e	0.065626726
71	0x3dd47b1e	0.10375045
72	0x3df3c007	0.11901861
73	0x3ddf24ca	0.10895689
74	0x3e0a0a97	0.13480602
75	0x3e3db486	0.18525895
76	0x3d4772f2	0.048693605
77	0x3d953bfe	0.07286833
78	0x3d91b1df	0.07114004
79	0x3e02d91f	0.12778138
80	0xbd161544	-0.036641374
81	0x3d3e5262	0.046465285
82	0xbd533624	-0.051565304
83	0x3ced41d0	0.028962046
84	0xbdb20159	-0.08691663
85	0xbd258143	-0.040406477
86	0xbcc708c6	-0.024296176
87	0x3cb78e74	0.022406794
88	0xbdf5db07	-0.12004667
89	0x3ddcebd7	0.107871704
90	0xbd9bd180	-0.07608318
91	0xbe12751b	-0.14302485
92	0xbe25810b	-0.16162507
93	0x3e212de8	0.15740168
94	0xbdeb2472	-0.11481561
95	0xbd5e82e3	-0.054324042
96	0x3d1e53c0	0.03865409
97	0x3b9fedd5	0.0048806467
98	0x3d5de38d	0.054172087
99	0x3de94ae8	0.1139124
100	0xbe28167d	-0.16414829
101	0xbcfd9e16	-0.03095917
102	0x3d791fa5	0.060821194
103	0xbd73d849	-0.059532437
104	0x3d6c50fb	0.057694416
105	0x3d1e911b	0.038712602
106	0x3ba68a29	0.005082388
107	0x3c9d7aa7	0.019223524
108	0x3dc3b0ee	0.09555231
109	0xbd4c0ad2	-0.049815007
110	0xbd960b92	-0.073264256
111	0x3cbf7ffd	0.02337646
112	0xbe7caec3	-0.24676041
113	0x3c118755	0.008882363
114	0xbe5ae3f2	-0.21376017
115	0xbe21d958	-0.15805566
116	0xbe86ebf4	-0.26351893
117	0xbd31c273	-0.04339833
118	0x3d517631	0.051138107
119	0x3e37b1a4	0.17938858
120	0x3e308091	0.17236544
121	0xbc69a4db	-0.014260496
122	0x3d4c0e68	0.049818426
123	0x3c8a92f9	0.016915785
124	0x3e3b4f72	0.18292025
125	0x3e4b2fac	0.19842404
126	0x3e8a6677	0.270313
127	0x3e4d9616	0.20076784
128	0xbd32d704	-0.043662086
129	0x3e290458	0.16505563
130	0x3c851b0a	0.016248245
131	0x3e80c13b	0.25147423
132	0xbe49fc8a	-0.19725242
133	0x3d10a568	0.035313994
134	0xbe637178	-0.22211254
135	0xbe251c82	-0.16124156
136	0xbb9e8e53	-0.0048387437
137	0x3d2f6a90	0.042826235
138	0x3d33bf67	0.043883707
139	0x3d46cb9e	0.04853403
140	0xbe1ebd38	-0.15501869
141	0x3d0f3aeb	0.034968298
142	0xbe8f2f2c	-0.27965677
143	0x3dffc2e5	0.12488345
144	0xbe803534	-0.2504059
145	0x3d1f91c6	0.03895738
146	0xbbb36e11	-0.0054757674
147	0x3d2dfd9f	0.0424782
148	0xbe98f494	-0.29874098
149	0x3c7db015	0.015483876
150	0x3cc9cc9c	0.024633698
151	0xbe7c1e8a	-0.24621025
152	0x3b03a046	0.0020084544
153	0xbe53d109	-0.2068521
154	0xbdc85a2e	-0.097828254
155	0xbe001da8	-0.12511313
156	0x3e48ec07	0.19621287
157	0xbe72ce9e	-0.2371163
158	0x3cfb3ec3	0.030669576
159	0x3e2939b7	0.16525923
160	0xbdf3e19b	-0.11908265
161	0xbe0aa823	-0.13540702
162	0x3e2968cd	0.16543885
163	0xbe79d1a9	-0.24396385
164	0xbed57465	-0.41690364
165	0xbd1d5313	-0.038409304
166	0x3d8a02c0	0.06738806
167	0xbc18f794	-0.009336371
168	0xbe41b419	-0.18916358
169	0x3dcbaac8	0.09944683
170	0xbd245632	-0.040121265
171	0x3e1415cd	0.14461441
172	0x3e62be93	0.22143011
173	0x3e691e0f	0.22765373
174	0xbb7f5b38	-0.0038964283
175	0x3f02bc4e	0.5106858
176	0x3e47f1c8	0.19525826
177	0x3d512e1f	0.051069375
178	0x3c88435e	0.016633686
179	0x3e862af2	0.2620464
180	0xbe346767	-0.1761757
181	0x3e916f65	0.284053
182	0x3e07b415	0.1325229
183	0x3e20b5d7	0.15694366
184	0xbe7a3ce1	-0.24437286
185	0x3e1352d8	0.14387071
186	0xbbe14c3a	-0.006875542
187	0xbd5d2955	-0.053994495
188	0xbd86106b	-0.065461
189	0xbdf5c10e	-0.11999713
190	0xbcc8c802	-0.024509434
191	0x3e244169	0.16040577
192	0xbde5c622	-0.112194315
193	0xbe61a77e	-0.2203655
194	0xbd3f16f3	-0.046652745
195	0x3b2d54ca	0.0026448243
196	0xbe0cfa64	-0.13767391
197	0xbdbfe7ef	-0.0937041
198	0xbd90e5c8	-0.07075077
199	0xbd912fb3	-0.07089176
200	0xbd80b04c	-0.06283626
201	0xbdaf7981	-0.08568097
202	0xbd8d991b	-0.06913968
203	0xbd9433f2	-0.0723647
204	0xbcc48d7a	-0.023993243
205	0xbd1df0e1	-0.0385598
206	0x3bafaa3c	0.0053608697
207	0x3ce2647e	0.027635809
208	0xbd0ad44a	-0.03389386
209	0xbcb0665c	-0.021533184
210	0x3d8db0a5	0.06918458
211	0x3d61049d	0.05493604
212	0x3d3b87c6	0.04578378
213	0x3df52dfb	0.11971661
214	0x3e958908	0.2920611
215	0x3e8775ee	0.2645716
216	0x3e4eed31	0.20207669
217	0x3e9b657f	0.30350873
218	0x3f067ab8	0.52531004
219	0x3ef01f81	0.46899036
220	0x3a44afde	0.0007503013
221	0x3ea6bf67	0.32567903
222	0x3f3ee24c	0.7456405
223	0x3f420635	0.7579072
224	0x3aaf15ac	0.0013357899
225	0x3ead06f1	0.33794358
226	0x3eb263bc	0.34841716
227	0x3f56bf79	0.83885914
228	0xbe1ce546	-0.15321836
229	0x3dd5d412	0.1044084
230	0x3e21bac8	0.15793908
231	0xbdcdef04	-0.10055354
232	0xbf036498	-0.5132537
233	0xbe1c3473	-0.15254383
234	0x3d445379	0.04793117
235	0x3d0e5d9f	0.034757253
236	0xbe97d291	-0.29652837
237	0x3e4596c2	0.19295791
238	0xbeadb079	-0.339237
239	0x3eeb40d3	0.45947894
240	0xbe028385	-0.12745483
241	0xbe1efe7b	-0.15526764
242	0x3d88a435	0.06671945
243	0x3f2ac95e	0.6671351
244	0x3daef56e	0.08542906
245	0xbd247746	-0.04015281
246	0x39a2320c	0.00030936336
247	0x3e4cb320	0.19990206
248	0xbe414ccf	-0.18876956
249	0xbdcf3387	-0.1011725
250	0x3dfe318f	0.12411796
251	0xbdcd1790	-0.1001426
252	0xbe7e5f0a	-0.24840942
253	0xbe2b9da8	-0.1675936
254	0x3e23b84d	0.15988274
255	0xbcc91507	-0.02454616

regressor.0.bias f4 [8]
0	0x3d651d4f	0.055936154
1	0x3e002d05	0.12517174
2	0xbda6e30c	-0.081487745
3	0x3b646306	0.0034849062
4	0x3e41a0fe	0.1890907
5	0x3d25270a	0.040320434
6	0x3e394263	0.18091731
7	0x3fb3f2ef	1.4058512

regressor.2.weight f4 [8, 8]
0	0x3e49869f	0.1968026
1	0x3e35125f	0.1768279
2	0x3e073c23	0.13206534
3	0x3dca4e83	0.09878256
4	0x3e36d9c5	0.1785651
5	0x3dcc7c18	0.099846065
6	0xbe2f8e44	-0.17144114
7	0xbdc509f7	-0.09621041
8	0x3d502500	0.050816536
9	0xbdacfd39	-0.08446736
10	0x3e9dcffc	0.30822742
11	0x3dfb6f14	0.12277046
12	0x3db235a4	0.087016374
13	0xbe8debab	-0.27718863
14	0xbddb809d	-0.107178904
15	0x3ec58f98	0.38586116
16	0xbd494cbd	-0.04914545
17	0xbe7d3190	-0.24725938
18	0xbebcb003	-0.36853036
19	0xbed66ad1	-0.4187837
20	0xbed854dd	-0.42252246
21	0xbeb5646a	-0.35428172
22	0x3cbcf00f	0.023063688
23	0xbb8701a3	-0.004120068
24	0x3e6337b7	0.22189222
25	0xbe401a61	-0.18760063
26	0x3e65d5e2	0.22444871
27	0xbe6a2084	-0.22863966
28	0xbe940351	-0.2890878
29	0x3e53fd09	0.20701994
30	0xbeb94e58	-0.36192584
31	0xbe844bdf	-0.25839135
32	0xbcc2d850	-0.023784786
33	0xbc1ead8a	-0.00968493
34	0xbd6b2930	-0.057412326
35	0xbe21c241	-0.15796758
36	0x3ddd04f5	0.10791961
37	0x3e5553dc	0.20832771
38	0x3e64cf1d	0.22344632
39	0xbc10c778	-0.00883662
40	0xbe1e2758	-0.15444696
41	0x3dffb1a7	0.12485056
42	0x3d8eea25	0.06978253
43	0x3ee26198	0.44215083
44	0xbe448e37	-0.19194876
45	0xbd4a68ea	-0.04941646
46	0xbd7e1eb3	-0.062040996
47	0xbf44fb7c	-0.76946235
48	0x3d8e883d	0.06959579
49	0x3e2ecddb	0.17070715
50	0xbe981988	-0.2970698
51	0xbd8fd6de	-0.070234045
52	0xbe4dd872	-0.20102099
53	0xbd4a4554	-0.049382523
54	0xbf6f1666	-0.9339355
55	0xbd95f79c	-0.07322618
56	0xbd070939	-0.03296778
57	0xbe7f5edc	-0.2493853
58	0x3e922df5	0.28550687
59	0xbd01523d	-0.03157257
60	0x3c1db482	0.009625556
61	0xbe83ba77	-0.257282
62	0xbddd9d64	-0.108210355
63	0x3d5ce8d7	0.05393299

regressor.2.bias f4 [8]
0	0x3ee92783	0.45537958
1	0xbde068ea	-0.10957511
2	0xbdb27112	-0.08712973
3	0xbdd81b79	-0.10552115
4	0xbd878c6a	-0.06618579
5	0x3ec90cf7	0.39267704
6	0x3dec8414	0.115486294
7	0xbffcd1c5	-1.9751517

regressor.4.weight f4 [1, 8]
0	0xbd938aea	-0.0720423
1	0x3d146f9a	0.036239244
2	0xbcdc547f	-0.02689576
3	0xbd2f6071	-0.042816583
4	0x3d4fa7d3	0.05069716
5	0xbce47270	-0.0278866
6	0xbd048d87	-0.032361533
7	0xbd24a521	-0.04019654
