weights/NN2_CostScaled_8_8_ReLU.pth (torch, 68439 bytes, 5 tensors)

regressor.0.weight f4 [8, 2048]
0	0xb982b642	-0.00024931325
1	0x3a6801ed	0.00088503846
2	0x3a9564fb	0.0011397892
3	0xbc405f54	-0.011741478
4	0xbc94cd55	-0.018164316
5	0xbcba5438	-0.022745237
6	0x3c915ee0	0.017745435
7	0xbc4523ac	-0.012032431
8	0xbc4e7198	-0.012600325
9	0x3bf9bd86	0.00762147
10	0xbbcf23c5	-0.0063214027
11	0xbcb26ddb	-0.021780899
12	0xbcc8bce4	-0.024504133
13	0xbbcdefbc	-0.006284682
14	0xb9ff5fb0	-0.00048708683
15	0x3a14bec7	0.000567418
16	0xbc392803	-0.011301043
17	0xbaf0548b	-0.0018335743
18	0x3b8bd960	0.0042678565
19	0x3c720dfd	0.014773843
20	0xbc5c94dc	-0.013463225
21	0x3c63a097	0.013893268
22	0xbc219901	-0.009863139
23	0x3b08c74b	0.002087074
24	0xbc92ba44	-0.017911084
25	0xbc1f2ffa	-0.009716028
26	0xbbefc697	-0.007317375
27	0xbc007717	-0.007840893
28	0xbc8146fd	-0.01578092
29	0x3b853df9	0.0040662256
30	0x3c931d01	0.017958166
31	0x3c2902fe	0.010315655
32	0xbc2da0aa	-0.010597387
33	0xbaa6a936	-0.0012715224
34	0x3b36a0c5	0.0027866822
35	0xbb492602	-0.003069282
36	0xbb974789	-0.004616682
37	0x3c0b8d14	0.008517522
38	0xbc1e7a69	-0.00967274
39	0xbc34dd22	-0.01103905
40	0x3ba6e7fc	0.0050935727
41	0x3c62b8e6	0.013838029
42	0x3bb4b7ef	0.0055150907
43	0x3ccdb6ad	0.02511152
44	0xbc480ed1	-0.012210564
45	0x3cbd4571	0.023104401
46	0x3a9fb5e7	0.0012184948
47	0x3c6ed9b3	0.014578271
48	0x3bd3cac3	0.00646338
49	0x3bda7203	0.0066664233
50	0xbca4f7fc	-0.02013778
51	0xbbbb0c7b	-0.005708275
52	0xbbc7561c	-0.006083263
53	0xbc52870b	-0.01284958
54	0x39febe20	0.0004858831
55	0xbc998a72	-0.018742774
56	0xbc3c9bd5	-0.011511763
57	0xbcae5bd7	-0.021284027
58	0x3c3b521c	0.011433151
59	0x3bc7dca1	0.006099299
60	0xbc2c9fdc	-0.01053616
61	0xbcaba902	-0.020954613
62	0x3c801211	0.015633615
63	0xb98a702d	-0.0002640499
64	0x3c70edc4	0.014705125
65	0xbba9e282	-0.0051844725
66	0x3c37498f	0.011186971
67	0x3ba7a111	0.005115636
68	0xbcb00398	-0.021486089
69	0x3977933f	0.00023610609
70	0xbc48c84d	-0.012254787
71	0xbd103131	-0.035203163
72	0x3c1ccb47	0.0095699495
73	0xbcf4fa35	-0.029904464
74	0xbca18c5b	-0.019720247
75	0x3b129e5f	0.0022372229
76	0xbc95f4d3	-0.018305218
77	0xbb2f0b9b	-0.0026709798
78	0x3b0f6cbc	0.002188488
79	0xbc70fd81	-0.014708878
80	0x3c339f31	0.010963247
81	0xbc984a28	-0.018590048
82	0x3a822052	0.0009927845
83	0xbca08907	-0.01959659
84	0x3cc6270a	0.024188537
85	0xbc83a4d3	-0.016069805
86	0x3d04ba29	0.0324041
87	0x3c1cd6c8	0.009572692
88	0x3b7bfb27	0.003844926
89	0xbca0a4dc	-0.019609861
90	0x3cba1eec	0.022719823
91	0x3d0d9325	0.034564156
92	0x3c253ad0	0.010084823
93	0xbb80fec6	-0.0039366214
94	0x3b88cb40	0.00417462
95	0x3c25154c	0.010075878
96	0x3c8547d4	0.016269602
97	0x3b05e12e	0.0020428407
98	0x3ce83575	0.028345803
99	0x3d20ea76	0.0392861
100	0x3db88c3c	0.090111226
101	0x3ca61966	0.020275783
102	0xbd352502	-0.044224747
103	0xbd1d09d1	-0.03833944
104	0xbcf80aee	-0.03027865
105	0x3d2d940c	0.042377517
106	0xbaf5500a	-0.001871587
107	0x3bd273fa	0.006422517
108	0xbbfc243f	-0.0076947506
109	0xbbc3d2e6	-0.005976069
110	0x3c4812b3	0.0122114895
111	0xbc20fa08	-0.009825237
112	0xbc25a3fb	-0.010109897
113	0x3c1b2023	0.009468111
114	0xba7b49ac	-0.0009585868
115	0xbcc2ebba	-0.023794044
116	0x3d22cfaa	0.039748825
117	0xbccf60ec	-0.02531477
118	0xbc98192f	-0.018566696
119	0xbcfb9aa2	-0.030713383
120	0xbbc6ed88	-0.0060707964
121	0xbd32d0ba	-0.04365609
122	0xbb9f5db1	-0.004863464
123	0xbc9992b8	-0.018746719
124	0xbca4e6ee	-0.020129647
125	0xbcf64b2d	-0.030065143
126	0xbc5fe83f	-0.013666212
127	0xbc66d28c	-0.014088284
128	0x3c8b3663	0.016993707
129	0xbcdb06f7	-0.02673672
130	0xba08bcfb	-0.00052161486
131	0x3b75ebbe	0.0037524546
132	0x3c10faa9	0.008848825
133	0xbaf1fee0	-0.00184628
134	0x3c801ad1	0.015637787
135	0x3cbcbb83	0.023038631
136	0xbc6ea838	-0.014566474
137	0xbbfc5d44	-0.007701548
138	0x3c307e62	0.0107723195
139	0x3b06214f	0.002046663
140	0x3c688d76	0.014193883
141	0x3a08035c	0.0005188489
142	0x3d28e670	0.041235387
143	0xbb8ee910	-0.0043612793
144	0x3c3f68b0	0.011682674
145	0x3c63ea1e	0.013910798
146	0x3caa23e4	0.020769067
147	0xbc925112	-0.017860923
148	0x3c3ded19	0.011592173
149	0x39831d19	0.00025007947
150	0x3c659e23	0.0140147535
151	0x3c87e2ab	0.016587576
152	0x3950860d	0.00019886364
153	0xbcaa72bd	-0.020806665
154	0xbba50f4b	-0.0050372235
155	0xbc076b4b	-0.008265327
156	0x3baea082	0.0053291926
157	0x3a0b3ade	0.0005311201
158	0x3b9f293a	0.0048572095
159	0xbca7faca	-0.020505328
160	0x3cc5b4f3	0.024134135
161	0xbccd54f1	-0.025064917
162	0x3c5df080	0.013546109
163	0x3c7df7e8	0.015501
164	0xbc2bb854	-0.010480959
165	0xbbc05c48	-0.005870376
166	0xbcea65db	-0.028613022
167	0xbc97a92c	-0.018513285
168	0xbcab32bc	-0.020898215
169	0xbbee9788	-0.0072812475
170	0x3abd90c6	0.0014462702
171	0xbcbf3050	-0.023338467
172	0xbc8a0e00	-0.016852379
173	0xbd07497a	-0.033029057
174	0x3b4569f6	0.0030122972
175	0xbc59083c	-0.013246592
176	0xbc78f3c4	-0.015194837
177	0xbcf2353d	-0.029566402
178	0x396230c9	0.00021571213
179	0xbc8d562c	-0.017253004
180	0x3caf3df3	0.021391844
181	0xbcb80d58	-0.0224673
182	0x3bf34f93	0.0074252575
183	0xbc9018dd	-0.01758998
184	0x3c141b83	0.009039762
185	0x3ceeeb6b	0.02916499
186	0x3d0dd77d	0.034629334
187	0xbc0452fe	-0.0080764275
188	0x3c186cb2	0.009303259
189	0x3bede0c6	0.007259461
190	0x3bc304a5	0.0059514814
191	0xbb97b649	-0.0046298844
192	0x3d023533	0.031789016
193	0xbc6c180c	-0.01441003
194	0xbb6e89c5	-0.0036398035
195	0xbc25676f	-0.010095461
196	0x3c98911c	0.018623881
197	0x3c493bfc	0.012282368
198	0x3c0e18ff	0.008672952
199	0xbc5ee301	-0.013603927
200	0xbc404961	-0.011736245
201	0xbc9600bd	-0.018310899
202	0x3c7e39c6	0.015516704
203	0x3cfe6ae8	0.031056836
204	0x3b707886	0.0036692931
205	0x3cd55eb4	0.026046135
206	0x3bbf77f8	0.005843159
207	0xbceac1f7	-0.028656943
208	0xbcb5b70f	-0.022182016
209	0x3cca1b91	0.024671348
210	0x3ab523fb	0.0013819927
211	0xbabcbed8	-0.0014400138
212	0x3c1a5d97	0.009421728
213	0xbc7e931f	-0.015538006
214	0xbb7b2637	-0.0038322338
215	0xbb0d4ff7	-0.0021562555
216	0x3bdb2bfa	0.006688592
217	0x3c0c7ca5	0.008574639
218	0xbc1b84db	-0.009492124
219	0xbc71158c	-0.01471461
220	0x3a50456a	0.0007944914
221	0xbcb636cd	-0.022242928
222	0xbcc373da	-0.023858953
223	0xbc09302f	-0.008373304
224	0xbca32a62	-0.01991767
225	0xbbceedd8	-0.0063149743
226	0x3c02082d	0.00793652
227	0xbc5e6ed8	-0.013576232
228	0xbca26b6e	-0.019826617
229	0xbcf916d3	-0.030406391
230	0x3c5d2c2b	0.0134993
231	0x3c61bd35	0.013778021
232	0xbca182c2	-0.01971567
233	0xbc7109de	-0.014711825
234	0x3c158c4e	0.0091276895
235	0x3b6aeae7	0.003584558
236	0x3be80edd	0.00708185
237	0x3c4c3f3c	0.012466248
238	0x3c3cccb2	0.011523413
239	0x3ac1cc64	0.0014785645
240	0xbc712240	-0.0147176385
241	0x3ca6df23	0.020370072
242	0x3c2d555b	0.010579432
243	0xbbc262c1	-0.0059321825
244	0xbc01780c	-0.007902157
245	0xbb1f3c7b	-0.0024297524
246	0x3c8082d3	0.015687382
247	0x3c81e7c0	0.015857577
248	0x3c814d27	0.01578386
249	0x3c1e729f	0.0096708825
250	0xbbfc3c9e	-0.007697656
251	0x3c49ef7c	0.012325164
252	0x3cdd8b4b	0.02704396
253	0xbc8f3933	-0.01748333
254	0x3b318a15	0.002709036
255	0x3d06c223	0.032899987

regressor.0.bias f4 [8]
0	0x3995319a	0.0002845645
1	0x3c47dfc9	0.012199351
2	0xbc9c8652	-0.019107018
3	0xbc5aa01e	-0.013343839
4	0xbbd9eeeb	-0.0066507957
5	0x3ab73a52	0.0013979173
6	0x3c5234f2	0.012830006
7	0x3be7a2da	0.007068974

regressor.3.weight f4 [8, 8]
0	0xbd195fb1	-0.037444774
1	0xbea332d4	-0.31874716
2	0x3d612809	0.05496982
3	0xbd3e11e8	-0.046403795
4	0x3d2f19b5	0.042749126
5	0x3d015067	0.03157082
6	0xbea93964	-0.33051598
7	0xbe9d4069	-0.30713204
8	0x3e5ee837	0.2176827
9	0xbd90b917	-0.07066553
10	0xbdccd3b6	-0.10001318
11	0x3cb0a332	0.021562193
12	0xbe8fcba2	-0.28085047
13	0xbbbece95	-0.0058229663
14	0x3e0ddae3	0.1385303
15	0x3debb335	0.115087904
16	0xbe64a428	-0.22328246
17	0x3e05e977	0.13077341
18	0x3e6550b8	0.22394073
19	0x3e6cf94e	0.23141977
20	0xbdfed5ca	-0.12443121
21	0xbdf0ff38	-0.11767429
22	0xbe3f2667	-0.18666993
23	0x3e12de86	0.14342698
24	0x3e51d83f	0.20492648
25	0xbe3e3346	-0.18574247
26	0x3e15c531	0.14626004
27	0xbdb1855d	-0.08668015
28	0xbf0e809b	-0.55664986
29	0x3e8c3164	0.27381432
30	0xbcb7fbc4	-0.022458918
31	0xbdabae76	-0.08382885
32	0xbe82879d	-0.2549409
33	0x3e8c1db8	0.27366424
34	0x3e3d7924	0.18503243
35	0x3e77aab8	0.24186218
36	0xbea7f2ac	-0.3280233
37	0xbd499c6a	-0.049221434
38	0x3cca03ac	0.024659954
39	0xbeae35b4	-0.34025347
40	0xbe92a355	-0.28640237
41	0xbe04c945	-0.12967403
42	0xbe60eb0e	-0.21964666
43	0x3eca0d99	0.394635
44	0x3d903894	0.070420414
45	0xbe2c0da2	-0.16802076
46	0xbdb980d9	-0.09057779
47	0xbea83d36	-0.328592
48	0xbd174bbe	-0.036937468
49	0xbe998a96	-0.29988545
50	0xbe49cf66	-0.19708022
51	0x3dd98222	0.10620524
52	0xbdc75c16	-0.09734361
53	0xbe2ce6b8	-0.16884887
54	0xbd8da895	-0.0691692
55	0x3ea4d8c7	0.32196638
56	0x3da19b01	0.07890893
57	0x3d01a17c	0.031648144
58	0x3e701da4	0.23448807
59	0xbca3ae68	-0.019980624
60	0xbbc9b49b	-0.006155563
61	0xbd2c6341	-0.042086843
62	0x3d1b63e7	0.03793707
63	0xbdfae4c8	-0.12250668

regressor.3.bias f4 [8]
0	0x3e71da25	0.23618372
1	0x3e416d24	0.1888929
2	0x3ebc06e1	0.36723998
3	0xbed02a56	-0.406573
4	0xbea28040	-0.31738472
5	0xbe294904	-0.1653176
6	0xbc44fb41	-0.012022794
7	0x3d905681	0.07047749

regressor.6.weight f4 [1, 8]
0	0x3e4f47ee	0.20242283
1	0xbe7973f2	-0.24360636
2	0xbdf8da54	-0.12151018
3	0x3de84b21	0.11342455
4	0xbd297226	-0.041368626
5	0xbdd9cc20	-0.10634637
6	0xbe834ea1	-0.25645927
7	0x3e566dc8	0.20940316
