weights/FFNN/1NN_Weight.pt (torch, 67313 bytes, 3 tensors)

regressor.0.weight f4 [8, 2048]
000000 f0 ef 92 3c 6e 4c f0 3b 3a 4a 33 3c aa e8 54 3d
       0.017936677 0.00733333 0.01094299 0.0519797
000010 a7 5d 13 3e 73 f0 8c 3d 36 80 85 3d 12 85 55 3d
       0.14391194 0.068817995 0.06518595 0.05212886
000020 7a 4c b8 3c 29 d4 55 3d d4 b8 b8 3d 01 08 74 3d
       0.022497404 0.052204285 0.09019628 0.059577946
000030 ad fe 1b 3d 92 50 20 3d 05 cf fb 3c 10 da 70 bb
       0.038084675 0.039139338 0.030738363 -0.003675107
000040 05 5b 3e 3d f9 36 21 3d 92 0d 73 3c 6c f3 f5 bb
       0.04647352 0.039359067 0.014834778 -0.007505825
000050 e4 79 25 3d 17 66 e8 3c 6f 61 d6 3c 42 12 c4 3c
       0.040399447 0.028368993 0.026169507 0.023934487
000060 3c 93 61 3c 82 2b 61 3c 1f f0 00 bd 56 b5 9d 3b
       0.013768014 0.013743283 -0.031478997 0.0048128767
000070 b6 1e d9 bb ef 34 f7 3b 54 2d 56 3c 94 69 21 3c
       -0.0066259755 0.007544152 0.0130723305 0.009851832
000080 46 7c 52 3c 4b d7 19 3d 20 69 19 bd 08 d1 1a bd
       0.012847012 0.037558835 -0.03745377 -0.037797004
000090 fc 88 29 bd 6b 74 14 bc 33 48 b9 bc 51 2b b7 bc
       -0.041390404 -0.009060959 -0.022617435 -0.022359522
0000a0 aa d2 c0 bc 5d a2 95 bd 19 31 8c bd 67 4a 3c bd
       -0.023537952 -0.07306359 -0.06845302 -0.045969393
0000b0 83 25 5a bd 69 f1 75 bc 86 73 7e bd b7 c6 98 bd
       -0.05325843 -0.01501117 -0.06212189 -0.07459777
0000c0 07 e0 1d bd de ba b1 bc 04 7b d8 bb 90 90 81 3d
       -0.038543727 -0.02169555 -0.0066064615 0.06326401
0000d0 cf ea be bc 8a 09 c1 bc 8d 96 f0 bc c2 95 a1 3b
       -0.023305325 -0.023564119 -0.029368663 0.0049311826
0000e0 2a 76 db bc cf 4b 99 3d e7 13 6b 3d 8e c6 cf bc
       -0.026789743 0.074851625 0.057392027 -0.025363233
0000f0 a8 b3 7a 3d 3c 25 62 3d 65 0f 6e 3d 28 07 07 bd
       0.06120649 0.05521129 0.05812015 -0.03296581
000100 fc 4a 06 3d 5f 49 19 3d eb 3f 32 3c 11 28 87 3d
       0.032786354 0.037423488 0.010879497 0.06599439
000110 16 8e 3e 3d 82 1b 01 3d 06 60 bb bd 55 58 ae bd
       0.046522222 0.031520374 -0.091491744 -0.08512942
000120 0c d0 85 bd 1a 87 47 bd b4 ed 1e be d3 94 1c be
       -0.065338224 -0.048712827 -0.15520364 -0.15291147
000130 58 25 a7 bd a9 f3 a1 bd 72 85 4f be 33 6b 41 be
       -0.0816142 -0.079078026 -0.20265749 -0.1888855
000140 22 11 b1 bd 76 8c c9 bd bd 62 1d be 0b c7 15 be
       -0.08645846 -0.09841244 -0.15369697 -0.1462671
000150 be 9c 5a bd a5 f9 ef bc ff 13 14 be 68 de fe bd
       -0.053372137 -0.029293844 -0.14460753 -0.124447644
000160 8c bd af 3b 93 1b 9b bd 5f 73 05 be cc e7 98 bd
       0.005363172 -0.07573619 -0.13032292 -0.07466087
000170 2d b3 7f bd 9c b5 ef bd a6 e6 1e be 57 a6 1f be
       -0.062426735 -0.11704561 -0.15517673 -0.15590797
000180 81 ce b7 bd d6 8e 93 bc f1 97 34 bd 89 8c aa bd
       -0.08974934 -0.018012445 -0.044090215 -0.08327586
000190 05 47 c8 bd 56 a1 89 bd b0 b4 20 bc cd 83 fa 3c
       -0.09779171 -0.067202255 -0.009808704 0.030580426
0001a0 01 35 8d bd 01 1b e4 bd 6b af ca bd 96 d3 62 3b
       -0.06894875 -0.11137963 -0.098967396 0.0034610978
0001b0 d4 64 f2 bb 16 c6 7a ba e3 8f c0 3b 64 53 88 3d
       -0.0073972736 -0.000956626 0.0058765276 0.066565305
0001c0 e5 ad 2e be 93 e7 c0 3d d3 2e fc bc e5 e6 32 3e
       -0.17058523 0.09419169 -0.030784046 0.17470892
0001d0 6c 2f c2 3d 0b 60 55 3d 53 d1 c8 3d 06 b1 13 3e
       0.09481701 0.052093547 0.098055504 0.14422998
0001e0 09 56 17 bc 83 c6 bc 3e 9d e0 eb 3c 57 67 43 3e
       -0.009236821 0.36870202 0.028793627 0.1908239
0001f0 8e fd ce 3b f4 ad f8 3d 2b b8 50 3e a3 6d a9 bc
       0.006316847 0.12142554 0.20382755 -0.020682162
000200 37 c7 42 3e ad 9c 09 3e 7d fa b8 3d ad 91 07 3c
       0.19021307 0.13438673 0.09032152 0.008274478
000210 f2 dc bf 3d f6 f4 11 3d 59 6f 94 bd 4c 3d 7f be
       0.09368314 0.035634004 -0.072478004 -0.24925727
000220 23 b0 82 3d 08 63 60 be 35 bc b3 bd 69 2d 10 be
       0.06381252 -0.21912777 -0.08776132 -0.14079823
000230 f6 01 9e 3d 54 c6 35 3d 64 08 40 be df f3 2e 3e
       0.07715218 0.044378594 -0.18753201 0.17085217
000240 44 b1 9b 3d 8c 36 1f bc 0f b1 1f 3c 45 bf 79 bd
       0.0760217 -0.009717595 0.009746804 -0.060973424
000250 1c 69 26 3e 09 cd 67 3e 80 b0 01 bd ef 75 32 3e
       0.16251034 0.22636808 -0.031662464 0.174278
000260 68 ad 87 3c 1c 98 05 3e 79 28 17 3d d6 7a 8c 3e
       0.016562179 0.13046306 0.036903832 0.27437466
000270 dd 0e 9b 3d 04 44 63 3e 35 81 97 3d 13 55 5f 3e
       0.07571194 0.22193915 0.07397691 0.21809797
000280 53 58 6e 3d f3 14 80 3c ff ca 3d be ca 72 92 3e
       0.0581897 0.01563499 -0.18534468 0.28603202
000290 f6 8e 8a 3e 75 25 6e 3e e2 0a 68 3e 46 86 22 3e
       0.27062196 0.23256476 0.22660401 0.15871534
0002a0 be 81 62 bd 47 a7 4d 3e 95 0c dc 3d 47 97 50 3d
       -0.055299513 0.20083342 0.10744587 0.05092552
0002b0 c6 42 d9 3d b7 47 0c 3d 79 96 76 3d e6 65 f2 bc
       0.10608439 0.03424808 0.060202096 -0.029589605
0002c0 56 79 78 3e 1d c7 70 3d 72 54 a0 3d 8d 89 3a bd
       0.24265036 0.05878364 0.07828607 -0.045541335
0002d0 7c 66 7a 3d 41 96 03 be 92 35 d7 bb 19 00 2c be
       0.061132893 -0.12850286 -0.0065676654 -0.16796912
0002e0 1f eb 6a bc 4a 46 f7 3c a9 ed f3 bd 73 e7 53 be
       -0.014338284 0.030184884 -0.119105645 -0.2069376
0002f0 c7 56 5d be c9 b2 f0 bd f2 51 5e be f8 6c 9f be
       -0.21615134 -0.117528506 -0.21710947 -0.31137824
000300 b4 ff 9d 3c 11 c7 3a 3d 40 99 af bd 50 95 b1 bd
       0.019286968 0.0456 -0.08574152 -0.08671057
000310 e7 5e 83 3d 75 7a 0b 3d be 7c 23 3b 26 c1 60 3d
       0.064145856 0.03405233 0.0024946178 0.0548717
000320 96 a7 8e bc 14 ad 51 bb f7 4c 81 bc 5f 29 15 bc
       -0.017413896 -0.0031994032 -0.01578377 -0.009104102
000330 4b 6a 59 3c d1 f0 81 3d dc e0 ea 3c 5e 9c 48 3d
       0.013269971 0.0634476 0.028671674 0.04897725
000340 fa e1 f0 3d 60 88 8f 3d e2 7d f8 ba 95 40 94 3d
       0.117618516 0.07008433 -0.0018958414 0.072388805
000350 04 d6 a6 3d cf e6 01 3e e4 d9 bf bb 2f 92 0d 3b
       0.08146289 0.12685703 -0.005854832 0.0021602025
000360 b4 ed 87 3d 24 06 b1 3d 95 be 24 be a4 7a f3 bd
       0.06637135 0.08643749 -0.16088326 -0.11888626
000370 73 99 e4 3e 95 ad 61 3e aa 65 fa be 8d 6c 1e be
       0.44648322 0.22038873 -0.4890569 -0.15471096
000380 0b 7b 13 3f 15 40 8c 3e 52 af 92 be 30 8e 7d be
       0.57609624 0.2739264 -0.28649384 -0.24761271
000390 31 3d bc 3e b0 48 78 3d 7e 34 ca be ea ed 5a be
       0.36765435 0.060616195 -0.39493173 -0.2137982
0003a0 14 11 4a 3e cc e2 e8 bd b9 06 ae be d4 f4 01 bf
       0.19733077 -0.11371383 -0.33989504 -0.50764203
0003b0 a6 70 0d be af 71 99 be e3 cc f8 be 02 b2 44 bf
       -0.13812503 -0.29969546 -0.48593816 -0.7683412
0003c0 e3 9a 56 be f5 2b ed 3c 68 5b 08 bf 57 b9 c5 be
       -0.20957522 0.028951624 -0.53264475 -0.38617966
0003d0 be 68 87 bd f5 bc 26 bd a4 fc 98 be 99 d7 52 be
       -0.06611775 -0.040707547 -0.2988025 -0.20590056
0003e0 f1 d7 85 be 3e 96 9b 3d e6 7e 6b be 78 e9 96 3d
       -0.26141313 0.07597016 -0.22997627 0.073687494
0003f0 c7 1d 28 be ac fa 83 3e e3 18 79 be 05 7b 08 be
       -0.16417609 0.25777185 -0.243259 -0.13328178

regressor.0.bias f4 [8]
000000 1b 4e bb bf c2 0b a7 3e cb 1b 71 bf 4e 90 c4 be
       -1.4633211 0.32626158 -0.94183034 -0.38391346
000010 75 59 8d 3f 2e 81 55 c0 c0 aa a1 be e9 0c 69 3e
       1.1042925 -3.3360095 -0.31575584 0.22758831

regressor.3.weight f4 [1, 8]
000000 66 a3 3a 3c 07 8c 1c 3c f8 d0 a6 3c a3 07 a0 3c
       0.011391496 0.0095548695 0.020363316 0.019534891
000010 5f 84 98 3c 79 b6 82 bc 12 dd ea 3c d0 8c 1f bd
       0.018617807 -0.01595615 0.028669868 -0.03895265
