weights/FFNN/2NN_Weight.pt (torch, 68207 bytes, 5 tensors)

regressor.0.weight f4 [8, 2048]
00000000: f702 4fbe bbc9 73bd 5640 47bd bd75 9fbd
00000010: 78f5 d8bd 79cb 8cbd 8b32 a7bc f033 c7bc
00000020: a7ca 08bb e818 97bc 4bd9 87bd 3816 60bd
00000030: a993 58bd 08a4 10bd 3b8e c6bc 5841 83bc
00000040: 5163 f8bc 40ae 0fbd 8a7c bbbc b2f4 0fbb
00000050: ff88 dc3b c284 bebc 4f83 a03c 079b d03c
00000060: 3f7b edbc 6379 473c c4d7 7c3c 992f 3ebb
00000070: 7ebd 71bc 5cae 913c d66e 883c 8098 ee3c
00000080: 4289 8cbc c4eb db3c 14d9 fe3c 4890 133d
00000090: 8047 ee3c c028 793d c806 373d 5a73 f03c
000000a0: eab4 543b d286 7b3d 2444 d03c 22cc 1e3d
000000b0: 0b2b 223d e257 cb3c 6e76 533d 4362 163d
000000c0: 499c 203d a94e 273d 8abd 5b3d fe60 27bd
000000d0: 3e0a c73d d444 0a3e 5c2f 203e ba3d 9cbd
000000e0: 5cd3 783d e76a bf3b b5d7 2dbe 8ce5 823d
000000f0: 0d48 ec3d 9786 55be b006 86be 25eb f03c
00000100: 2f99 e4bc 0bdf 5f3d ea4c 273e 713f 493d
00000110: aeeb 16be 991f bfbd bc5d e73d e0f3 de3d
00000120: 92a8 2d3e 5686 7ebd 9880 c5bc c401 5a3e
00000130: 9c05 20be 8548 04be 71bd 3d3d d5b3 f13d
00000140: b0c3 70bd bbd7 75bc 2c36 8b3e 5ee3 963e
00000150: 831c 77bd c363 7bbc 0d40 073e 4f69 b03d
00000160: 453e 3fbe 4ab5 cf3d 69ca 253e 2531 1cbe
00000170: ced9 0cbe 15f4 243e 94d3 7abd 8923 e33c
00000180: 4bf7 22be 32be 84be 5b2b 10bd 146b 00be
00000190: 7ad6 1d3e a68e 0c3e 1007 343e 898a d1bd
000001a0: 4461 eabc b3eb 5abd d255 e1bc 468f 52be
000001b0: b832 eb3d 5910 b8bd 172b 303e a809 953d
000001c0: c0df d1bd b35a a3bd ee40 9cbd 06cc 43be
000001d0: 7000 203d b78c 6c3d 13c5 a63e ef99 c73d
000001e0: cecd 5f3e 976c 453d 8f1e 54bd b797 b4bd
000001f0: 227f 5c3b 6b41 a2bd 9472 86be 5dff 323e
00000200: 8900 09be d941 8fbd d623 3abe 4320 2fbe
00000210: f3e1 a7bd e6cd 8ebb cf7f 793e d01b 783d
00000220: 935f a33e 0138 503e 1824 d33d 0990 df38
00000230: 4214 abbd d56f e3be a37b 82bb 839f 403d
00000240: c882 e2bd 6932 a5be c2fa c3be bd25 afbe
00000250: b907 a6be 435b 9fbe f1f3 01be 3012 aabe
00000260: 9c9e 38bc 9da4 393d 4a71 123e 1117 9abe
00000270: d2d5 c2bc 2675 a33d 87ad 59bd a178 3abe
00000280: c6ab ab3d 3353 8dbc d8dd 98bc a4b5 f63c
00000290: 86ec debd cc06 50be 39e8 ccbe 1365 f0be
000002a0: 55ff 92be 73d1 61be ca8a 433e 27df b63d
000002b0: 8dac 2cbe 07da 273e cbb6 83be 808f fc3d
000002c0: f4a2 053f 32cf e43e 33d7 213d 8461 d63e
000002d0: e062 1a3e 3005 de3e 7d5b 0a3e acf7 be3e
000002e0: d6dc a7bc 77d0 36be 6836 e1bd 04ef b2bd
000002f0: b8a0 183e da09 843e 3a2c b83d e302 633e
00000300: 699c afbd 47dc 7ebb 381f 65bd 0196 ed3b
00000310: 5e06 b3be 96c5 afbe 3f7c adbe 113e 98be
00000320: bc69 cdbd 107d e2bd 426a f4bd 6548 edbd
00000330: e792 17be 1279 06be 442f 08be c9aa 2fbe
00000340: 0418 93bd bdda c6bd 141d 05be c19d e2bd
00000350: feb2 52be fad5 3dbe 62c8 45be 2b46 f3bd
00000360: 985e 8ebd adde ed3c 67a4 1a3e cb86 353d
00000370: 1019 dd3d 4715 0a3f 47fd 263f 3129 6f3e
00000380: d618 e73e 4784 263f 1cda 923e 6d7f 3b3f
00000390: 0099 a03f 9373 373f b2be 4d3e a7e9 2e3f
000003a0: b006 9f3e e9cb 153f a927 a43e aa0d ad3e
000003b0: 766d f3bd 98f6 09bf 0d2b d83c 4002 5cbe
000003c0: 6887 d6be 297b aebe 9dc9 e5be acb0 e83d
000003d0: d8b9 30bf c4c3 3bbf c803 28bf f201 b5be
000003e0: 1dc7 92be 713b 03bf 7869 b5be 28a2 e03d
000003f0: 2159 03bf e771 0abf 7093 e3bd 54e9 29be
-0.20215975 -0.059518557 -0.04864534 -0.07786129 -0.105936944 -0.06874747 -0.020409843 -0.024316758
-0.0020872743 -0.018444493 -0.06633242 -0.05470869 -0.052875195 -0.035312682 -0.024237743 -0.01602237
-0.030320795 -0.035078287 -0.022886533 -0.0021965918 0.0067301984 -0.023256663 0.019593863 0.025464548
-0.028989432 0.012174937 0.015432302 -0.002902007 -0.014754651 0.017783336 0.016654413 0.029125452
-0.017155293 0.02684582 0.03110937 0.03602627 0.029086828 0.060829878 0.0446842 0.029351879
0.0032456466 0.06140787 0.025423117 0.038768895 0.03959183 0.02482218 0.051626615 0.036714803
0.039211545 0.0408465 0.053647555 -0.040863983 0.097187504 0.13502818 0.15643066 -0.07628961
0.060748443 0.005841601 -0.16976817 0.06391439 0.1153718 -0.20852123 -0.26176977 0.029409
-0.027905075 0.05465607 0.16337934 0.049132768 -0.14738342 -0.09332199 0.11297175 0.10886359
0.16958836 -0.06213983 -0.02410917 0.21289736 -0.1562714 -0.12918289 0.046323244 0.11801878
-0.058780372 -0.015005047 0.27189767 0.29470342 -0.060329925 -0.015343609 0.13208027 0.08613836
-0.18676098 0.10142 0.16190495 -0.15253122 -0.13754961 0.16108735 -0.061236933 0.027726905
-0.15914647 -0.25926358 -0.035197597 -0.12540847 0.15413848 0.13726291 0.17580819 -0.102315016
-0.028610833 -0.053447437 -0.027506743 -0.20562467 0.11484283 -0.08987493 0.17203937 0.072772324
-0.10247755 -0.07976284 -0.07629572 -0.19120798 0.039062917 0.057751384 0.3257223 0.097461574
0.21855852 0.048199262 -0.051786955 -0.08818 0.0033645113 -0.07922634 -0.2625929 0.17480226
-0.1337911 -0.06994981 -0.18177733 -0.1710215 -0.08197393 -0.004358041 0.24365161 0.0605734
0.31908855 0.20333864 0.10309619 0.00010660297 -0.08353473 -0.4442126 -0.003982024 0.047027122
-0.11060101 -0.32265022 -0.3827725 -0.3420848 -0.32427767 -0.31124315 -0.12690713 -0.33217
-0.011268284 0.045323003 0.14301029 -0.30095723 -0.023783598 0.07981329 -0.053144004 -0.18210079
0.083823726 -0.017251587 -0.01866047 0.03011591 -0.10884957 -0.20315093 -0.40020922 -0.46952114
-0.28710428 -0.22052555 0.19095913 0.08929282 -0.16862698 0.16391765 -0.25725397 0.12332058
0.5220177 0.44689327 0.03951187 0.41871274 0.1507678 0.43363333 0.13511463 0.37298334
-0.020491045 -0.1785296 -0.10996705 -0.08736995 0.1490506 0.25788766 0.089928105 0.2216907
-0.08574755 -0.003888862 -0.055937976 0.007250548 -0.34965795 -0.34330434 -0.33883855 -0.29734853
-0.10029933 -0.1105901 -0.119343296 -0.11586074 -0.14802133 -0.13132122 -0.1329928 -0.17154993
-0.07182315 -0.0970969 -0.12999374 -0.110652454 -0.20576093 -0.18538657 -0.19314721 -0.11878618
-0.06951636 0.029036844 0.15101777 0.044318 0.10795796 0.53938717 0.6523022 0.23355557
0.45136136 0.6504559 0.2868203 0.7324131 1.2546692 0.7166073 0.20092276 0.68325275
0.3105979 0.5851427 0.32061508 0.33799487 -0.118861124 -0.538919 0.026387716 -0.21485233
-0.41900182 -0.3407834 -0.4488038 0.113618225 -0.69033575 -0.7334559 -0.6563077 -0.35353047
-0.28667536 -0.51262575 -0.3543203 0.10968429 -0.51307875 -0.5408005 -0.11112106 -0.16592914

regressor.0.bias f4 [8]
00000000: 04da 8bbf cb53 e7be def3 83be a928 3c3e
00000010: 85e6 1840 7b71 3d3e 1cbd 9bbd c34f 353e
-1.0925908 -0.45181116 -0.25771993 0.18374886 2.3890698 0.1850032 -0.07604429 0.17706208

regressor.3.weight f4 [8, 8]
00000000: c036 ba3d d18d b43d 80a9 b1bc f68e 053e
00000010: a93e 7cbd b85c 2abe 592f 7c3e 2fde 00be
00000020: ac40 a5bd 5df1 d8bd 2def 79bc 5c39 5bbe
00000030: e353 95be cd08 263e e192 823d cbf3 3abd
00000040: 6b4a 443c acb5 3b3d a430 253e 78e0 053e
00000050: 2dc4 d0be 6359 4a3e 69b5 293d 652c 233e
00000060: 5311 a83c 7af2 d8bb 5d41 203d 1ecf 0b3e
00000070: 433f bebe 8dd7 48be db86 0ebe aab9 d83d
00000080: 9f08 7abe 2dd6 af3d 3a23 a33e 060f eebd
00000090: 9ae1 ffbe 32c6 1fbe 092a 643e 1a7a 8cbe
000000a0: 0eea 52be d4ca b9bd 75d0 9cbe bd6e bdbe
000000b0: db17 4bbe 94d1 823a 6b38 15bd 1d04 063c
000000c0: 0805 843c e0e9 ed3c 44e4 08be 89b8 8ebd
000000d0: 49c3 32bd 2178 e2bd b4dc 0fbc 8fe9 eabd
000000e0: 66cb 85bd 31c8 7abe a729 4c3c 4777 d7be
000000f0: a3ac ff3d e2ec 17bd c61b 9f3c fba6 373d
0.09092474 0.08816112 -0.02168727 0.13042817 -0.061583195 -0.16636932 0.24627437 -0.12584756
-0.08068976 -0.105929114 -0.015254778 -0.214086 -0.29165563 0.16214295 0.06375671 -0.045642655
0.011980633 0.045827553 0.16131836 0.1307391 -0.4077467 0.19760661 0.04143277 0.15934904
0.020516073 -0.0066207023 0.039124835 0.13653228 -0.3715764 -0.19613476 -0.13918631 0.105822876
-0.24417351 0.08585773 0.31862813 -0.11623959 -0.49976808 -0.1560295 0.2228166 -0.27436906
-0.20597097 -0.090718895 -0.3062779 -0.3699855 -0.19833319 0.0009980672 -0.036430757 0.008179692
0.01611568 0.029042184 -0.13368326 -0.06968791 -0.04364327 -0.11058069 -0.008780647 -0.11470329
-0.06532936 -0.2449043 0.012461103 -0.4208319 0.124841 -0.037091143 0.019422423 0.04483698

regressor.3.bias f4 [8]
00000000: 3455 383c a718 cf3f 800f 663e 322d 19bc
00000010: c29a 243f d7c2 3fbe 1c16 353f c12e a93f
0.011250783 1.6179398 0.2246685 -0.009349154 0.6429864 -0.18726669 0.7073686 1.3217393

regressor.6.weight f4 [1, 8]
00000000: a477 28bd 39e0 e03d 8611 d6bd 3f70 babc
00000010: 7423 e3bc 101d 03be e2bd 1e3f aaa0 7e3d
-0.041129723 0.10980267 -0.10452561 -0.022758601 -0.027726866 -0.12804055 0.6200849 0.06216494
